ckpt/109.ckpt (torch_old, 3319 bytes, 5 tensors)

rnn.weight_ih_l0 f4 [32, 7]
000000 e7 1e b1 3e a9 ca 86 3e 21 f8 09 3f a4 5c ad 3e
       0.3459389 0.26326492 0.5389424 0.33859742
000010 fb 1d 91 3e f4 02 1e 3d ed 40 10 3f 37 86 93 3e
       0.28343186 0.038577035 0.5634907 0.28813335
000020 86 8c 02 3f 74 3a 33 3f 38 0f 1f 3f 42 11 9d 3e
       0.5099567 0.7001107 0.62132597 0.3067723
000030 39 bd 84 3e b9 f0 97 3e 17 6a c4 bd 05 66 03 3d
       0.25925615 0.29675844 -0.095905475 0.032079715
000040 a8 6a ce be 7f 0e dc be 79 8b 2d 3d fe cc 19 3f
       -0.40315747 -0.4297981 0.04236934 0.6007842
000050 fa 71 c5 3e f1 6f 18 3f 18 e4 11 3f d9 8b a3 3d
       0.3856352 0.5954581 0.5698867 0.07985658
000060 3d 75 a5 bd 7f 66 ac bc b3 07 da 3e e6 8b 88 3e
       -0.08079002 -0.021044968 0.42584 0.26669234
000070 4c 5d a7 3e ff dc 5d bd 06 8d 8b 3e 65 f2 4a 3e
       0.32688367 -0.054165836 0.2725603 0.19819029
000080 59 c1 c1 3e 64 d4 42 be 5c 54 23 bd 78 8a 15 3f
       0.37842825 -0.19026333 -0.039875373 0.5841441
000090 84 60 62 bd c3 43 b7 3e 28 3c 2c 3f 72 91 d1 3e
       -0.055267826 0.35793886 0.6727929 0.40931278
0000a0 25 c1 19 be 53 8c ca be c8 fa f1 bb 79 e3 ca be
       -0.15015085 -0.39560184 -0.007384632 -0.39626673
0000b0 6b 4b f4 bd eb 22 ae be a5 9d 05 bf 95 b0 b0 be
       -0.11928447 -0.34011015 -0.5219367 -0.3450972
0000c0 a8 ea 8d be aa cd 62 bd 16 79 22 3d 1c 31 e0 be
       -0.2771809 -0.055371918 0.039666258 -0.43787467
0000d0 0f 0f fc be b7 bb e3 3d c3 d6 e1 bd 56 16 a6 bd
       -0.4923024 0.11119788 -0.11027291 -0.08109729
0000e0 dc d1 9e 3e 2e 2b a7 3d e5 db 55 3d 0a 4a 21 3e
       0.31019485 0.08162533 0.05221166 0.157509
0000f0 f2 88 3d 3e c6 fc e0 3e 58 e2 d2 3e d4 9d 0e 3f
       0.18509272 0.4394285 0.41188312 0.55709577
000100 ef c0 16 3f 35 c8 6b bd bf 36 92 3e 96 61 a7 3e
       0.58888143 -0.05756398 0.28557393 0.3269164
000110 51 89 b5 3e de 75 c1 3e 5f 89 ce be ff a1 b5 3d
       0.35456327 0.37785238 -0.4033918 0.08868789
000120 45 e9 86 be cb cb 43 be 6b 9e e0 3d ce f4 86 3c
       -0.26349846 -0.1912071 0.10967716 0.016474154
000130 89 34 29 3f 76 12 a6 3e ca 3b 52 3e 2c be 93 3e
       0.6609579 0.3243596 0.2053062 0.28856027
000140 7c 07 26 3e 23 c9 82 3e 87 4f f7 3e 13 f0 be 3e
       0.16213793 0.2554408 0.48302862 0.37292537
000150 1c 74 91 be b2 47 a6 3a 2f 5c 33 3e 92 d3 d4 3d
       -0.28408897 0.0012686162 0.17515634 0.10391916
000160 2c 97 63 bd f8 f1 d9 be 5b 91 83 3e ec f4 83 3e
       -0.05556409 -0.4256742 0.25696835 0.25772798
000170 a7 ce a0 3e 4b e1 c0 3d 4b d1 09 3f fb 49 e6 bd
       0.31407663 0.09417971 0.5383498 -0.112445794
000180 60 e1 d1 be 3d f3 d4 be f4 3b 6d 3d 60 9a b4 3d
       -0.4099226 -0.41591826 0.057918504 0.08818507
000190 9c c8 f1 3d 03 d6 fd bd 55 9c 97 be b4 bf 95 be
       0.11805841 -0.12394335 -0.2961146 -0.2924782
0001a0 71 a2 47 3e a8 7e f5 be 97 3d 53 3d 91 aa b5 be
       0.1949556 -0.47948194 0.05157241 -0.35481694
0001b0 3a c8 f2 be f6 07 05 3e 51 9f ec be db fb 1c be
       -0.47418386 0.12991318 -0.462153 -0.1533045
0001c0 5b 96 a2 be 11 7b e4 be 8c f9 23 3d 8d 4a ec be
       -0.31755337 -0.44625142 0.04003291 -0.46150628
0001d0 b5 f1 c1 be 62 7c bb 3c 23 7b 8f be 61 a0 42 3d
       -0.3787972 0.022886459 -0.28023633 0.04751623
0001e0 8c 57 e5 be 3a 3b a9 bd 67 09 aa be 33 56 a6 be
       -0.44793355 -0.0826325 -0.33210298 -0.3248764
0001f0 fe 82 15 bf 73 16 f2 be 9f 43 21 3d 8b c9 0a bd
       -0.58403003 -0.47282752 0.03937113 -0.033883613
000200 be be a2 be 4a 4d 17 3e af 39 03 3d 72 37 08 bd
       -0.3178615 0.14775577 0.032037433 -0.033256
000210 62 b1 e0 be 67 f1 85 3d 40 3b 93 3e 14 9e d1 3e
       -0.43885332 0.065401845 0.28756142 0.40940917
000220 87 29 69 3c 12 10 a7 3d a2 50 1f 3e 42 48 a8 bd
       0.014231092 0.08157362 0.15558103 -0.08216907
000230 4c 65 b4 3c 68 92 48 be 70 a5 82 be 8f 50 16 be
       0.022020958 -0.195871 -0.25516844 -0.14679168
000240 ee 3a f2 be 9c cc a6 be cf f7 44 bd 96 a0 d1 3d
       -0.47310585 -0.3257798 -0.04808789 0.102357075
000250 56 95 0a 3f ef 43 85 3e 10 79 96 3e b5 61 85 3d
       0.5413412 0.26028392 0.29389238 0.06512777
000260 e5 6d cb bd ad 02 6a 3e 41 b5 99 3d c0 02 8d be
       -0.0993307 0.22852583 0.075052746 -0.2754116
000270 8d 7e 13 bc 1a 64 e2 be 4a d5 4d be 3d 8d 9b 3d
       -0.00900234 -0.44216996 -0.20100895 0.075952984
000280 cb 60 05 3d 41 a8 fd 3e 52 46 89 3e 14 4e e0 bd
       0.032563012 0.4954243 0.26811463 -0.10952392
000290 56 d3 2c bc ce af 93 bc d2 f0 10 3e fd 7a 76 3d
       -0.010548433 -0.018028166 0.14154366 0.060175885
0002a0 9b f5 7a 3e a3 2c 87 3e f6 4d 90 3e 3c 02 f4 bc
       0.24507754 0.26401243 0.2818448 -0.029786222
0002b0 2a b3 0a 3f 35 6f 3f be ac 00 12 be fe d6 c4 bd
       0.5417963 -0.18694766 -0.14258069 -0.09611319
0002c0 c4 18 a8 be 0e 59 6d 3e fe 54 2e 3f 1c 30 e5 3e
       -0.32831395 0.23178503 0.6809844 0.44763267
0002d0 bd a0 96 be 0b 1d c8 bd 9f 2b d3 be 2e de d9 3e
       -0.2941951 -0.097711645 -0.41244218 0.42552322
0002e0 56 2c 8f 3c 7d 70 23 be f2 71 f8 be fb df 77 3e
       0.017477196 -0.1596088 -0.48524433 0.24206536
0002f0 54 17 0f 3e fb 42 b3 3e b2 37 51 3e 16 6b 51 3d
       0.13973743 0.3501204 0.20431402 0.051127516
000300 9c ab 2b 3d 97 96 92 3e 5b cd c7 be 21 67 cd be
       0.041911706 0.28630516 -0.3902386 -0.40117744
000310 2a d3 bd 3e d1 14 38 3e a3 32 ce 3e 14 2e 99 3e
       0.37075168 0.17976691 0.40273008 0.29917967
000320 e9 6a 0a 3f 42 55 25 bc 44 1f 80 be c3 e9 2a 3e
       0.5406938 -0.010091128 -0.25023854 0.16690736
000330 93 a5 c0 bd 25 70 b1 3e a0 09 fd 3d 1a d1 85 3e
       -0.09406581 0.34655872 0.123553514 0.26136094
000340 26 d7 73 3d 39 53 f1 3d 4e 91 fd be 75 8f 2d be
       0.059531353 0.117834516 -0.4952492 -0.16949256
000350 ca bd e8 be b1 5a 04 3d b0 71 1a bf 7a 1e 61 be
       -0.45457298 0.032313053 -0.60329723 -0.21984282
000360 40 3d a4 bd 0a fe 67 bc 37 14 dc be 6a 9d c7 3d
       -0.08019495 -0.014159689 -0.42984173 0.09746821
000370 c9 ab ab 3d 53 53 b9 be 46 4e 8f be 94 f4 04 bf
       0.08382375 -0.36196384 -0.27989405 -0.51935697

rnn.weight_hh_l0 f4 [32, 8]
000000 46 f7 53 be df ea 80 bd a1 b5 25 3e 85 f7 00 3f
       -0.20699796 -0.06294798 0.16182567 0.50377685
000010 8e 92 d6 3d 72 ca cf bd 4c 1f 98 3e 09 1e 04 bf
       0.10477172 -0.10146035 0.29711378 -0.5160833
000020 bb f9 0c bf 5f 03 0f bf 73 02 12 3e 50 83 3c 3d
       -0.5506856 -0.5586452 0.14258747 0.046023667
000030 08 f8 af be 79 a5 03 3f d4 bf a4 3e 09 94 cd 3d
       -0.3436892 0.51424366 0.32177603 0.10038001
000040 4c 1c c3 3e 68 a8 0a 3e 00 d9 10 bf 40 6f 8d 3e
       0.38107526 0.13540804 -0.56581116 0.2762394
000050 37 cc 2f be c0 72 d2 be 84 62 18 be 22 28 d7 bd
       -0.17167746 -0.41103172 -0.1488133 -0.105057016
000060 82 f5 90 3d c8 00 2a 3e 0f 74 67 3d 24 e7 b7 3e
       0.07078077 0.1660186 0.056507166 0.35918534
000070 18 38 d1 be 42 a0 a9 3e 53 08 90 3e 7b 8b 60 be
       -0.4086311 0.3313008 0.2813135 -0.21928208
000080 37 cd 99 3c 9e 0a 52 3e d7 b9 92 3e 3d 8d 17 3d
       0.018774612 0.20511863 0.2865741 0.03699993
000090 03 c8 97 3e 57 cd f9 be 6a 98 f7 3c a3 b7 64 be
       0.29644784 -0.48789474 0.030224044 -0.22335677
0000a0 82 e7 51 be ff 43 64 bd b7 de 45 3f c3 e3 3a be
       -0.2049847 -0.05572891 0.7729296 -0.18250947
0000b0 48 c6 8b be 0d 2a 5c 3e 73 51 ac 3d 15 cc 02 bf
       -0.27299714 0.21500416 0.08413973 -0.51092654
0000c0 cf d5 53 3d f8 7b cd 3e 4d bf 55 3e a8 ec 9f bd
       0.051717576 0.40133643 0.20873757 -0.078088105
0000d0 60 d2 e0 3e a1 61 99 be 12 c6 38 3e 8d 39 86 3d
       0.43910503 -0.29957297 0.18044308 0.06553946
0000e0 12 ba 60 3e 49 d2 13 3f e1 2c b4 bd 8c 94 83 be
       0.2194598 0.57742745 -0.087976225 -0.2569927
0000f0 74 11 21 3e eb 4c db bd eb 6b 68 be 12 29 25 3b
       0.15729314 -0.1070803 -0.22697417 0.0025201482
000100 b2 77 cb be 9b da 06 bf c9 c9 c8 3e 61 5e 1d bd
       -0.39739758 -0.52677315 0.3921645 -0.038420085
000110 fa c8 1d bd 8a d2 00 3f d4 4c 1b bd 2f f8 0a bf
       -0.038521744 0.5032126 -0.037915066 -0.5428495
000120 01 23 fc be 90 b3 7f 3d 2c c4 b6 3b 6c 54 ab 3e
       -0.49245456 0.062427104 0.0055775847 0.33462846
000130 df c0 14 be 6a b7 07 3e 74 63 9d 3d 20 96 82 be
       -0.145267 0.1325356 0.07684985 -0.2550516
000140 0f 9d ba bc a4 85 a9 3e de da 8b be 44 d8 6c 3e
       -0.02277997 0.33109772 -0.2731542 0.23129374
000150 d2 ad 78 3e f0 cd 98 3e e1 72 86 be 5e 5e 86 3e
       0.24285057 0.29844618 -0.2625952 0.2624387
000160 70 66 cf be f3 93 69 bd a1 aa 6d 3e ec 7c f9 3d
       -0.4050784 -0.05702586 0.23209621 0.1218203
000170 73 da 42 be 5b f3 21 bd 76 80 39 be 02 cc 7d 3d
       -0.19028644 -0.039538722 -0.1811541 0.061962135
000180 45 4b fd bc 49 ca 97 3e 83 b9 43 3e bd 9c 0f 3e
       -0.03091968 0.2964652 0.19113736 0.14024635
000190 07 28 dd 3e 50 99 0d be 79 5e 96 3e 37 7b 02 bf
       0.431946 -0.13828015 0.29368952 -0.5096926
0001a0 35 2e 98 be 83 f5 39 be 0f dd 7a 3e a5 76 88 be
       -0.29722753 -0.18160062 0.2449839 -0.2665302
0001b0 4d 12 65 3e d4 3b 8c 3e 7b 74 4e be 57 6b c1 be
       0.22370262 0.27389395 -0.20161621 -0.37777206
0001c0 70 0f d6 3b bc f9 f9 3e 89 90 5f be cd 98 bb be
       0.006532602 0.48823345 -0.2183248 -0.36640015
0001d0 ab d3 10 3f 12 5b da be 3d 01 41 be f4 22 a0 3e
       0.5657298 -0.42647606 -0.18848129 0.31276667
0001e0 57 b6 fd 3c f5 e5 8c 3e 55 bb b2 3d 72 a6 03 be
       0.030970735 0.27519193 0.08727137 -0.12856463
0001f0 40 d6 eb 3e f9 8a 5e bd b9 02 d3 bd 63 a3 49 be
       0.46061897 -0.054331753 -0.10303254 -0.19691233
000200 08 45 9c 3e 36 f4 0f 3f 92 f6 98 be 00 bb 09 bf
       0.30521417 0.5623201 -0.29875618 -0.53800964
000210 14 7c 94 bc 05 2b 17 be 60 f1 9a 3d c9 57 25 3e
       -0.018125571 -0.14762504 0.0756557 0.16146769
000220 f3 71 8e 3e 11 35 47 3d 30 07 e9 3d 83 e1 ea be
       0.2782131 0.048634592 0.11378324 -0.45875177
000230 8f 2f e3 3e 02 c5 95 bd 3a da 50 3d 3b d4 4e 3e
       0.44372222 -0.07312967 0.050989367 0.20198147
000240 18 75 78 3e 0d a6 a3 bd 53 9b e3 bd 50 38 8a be
       0.24263418 -0.07990656 -0.1111361 -0.26996088
000250 12 84 a6 3d b2 de 17 be d5 f9 38 be 70 5b e1 3e
       0.08130659 -0.14831045 -0.18064053 0.44015074
000260 0a 77 0e bf 64 1d 00 bf 94 1e 6e 3c a2 53 91 3e
       -0.5565039 -0.50044847 0.014533658 0.2838412
000270 7b c9 86 be a0 d9 02 3e b1 08 21 bd 0d 7b 90 bc
       -0.26325592 0.1277833 -0.03931493 -0.0176368
000280 79 2e ac 3e d9 1a 64 bd bf de 10 bd 70 6b 5e 3e
       0.33629206 -0.055689666 -0.035368677 0.21720672
000290 0e 1a 23 3e 08 75 66 be 93 90 f3 be c1 29 e0 3e
       0.15927908 -0.22505581 -0.4757124 0.43781856
0002a0 a3 d4 ed be 16 4b 97 3d ae 43 87 3e ef b2 0f be
       -0.4645129 0.073873684 0.26418823 -0.14033101
0002b0 13 18 34 be f3 cb af 3d 4d 03 b7 3e 79 ca 1a 3e
       -0.17587309 0.08583822 0.35744706 0.151163
0002c0 34 95 9b bd 31 aa 16 be db 62 35 3e e8 1e 9a be
       -0.075968176 -0.1471336 0.17713492 -0.30101705
0002d0 0e ab cc bb 75 cc f8 bd 93 65 1e be 36 8a ad 3e
       -0.0062459772 -0.12148372 -0.15468435 0.3389451
0002e0 33 d8 4f bd dc c3 c1 3d 7c 5e 13 be 07 35 f1 3e
       -0.050743293 0.09461185 -0.14391512 0.4711077
0002f0 1b 6a 84 be 85 88 d6 3e e3 d8 bf bd 57 ff 97 be
       -0.25862202 0.4190103 -0.0936754 -0.29686996
000300 3f 72 8b 3e 19 01 c5 bd a6 a1 3d 3f a4 3c 82 3e
       0.272356 -0.0961935 0.7407478 0.2543689
000310 ae 15 e9 3e d9 e9 c4 3b 0b 10 43 bd 97 5b a5 3d
       0.45524353 0.006009322 -0.04762272 0.0807411
000320 79 80 73 be 36 ee 2d be b6 8d e2 3e 3c d6 84 3e
       -0.23779477 -0.16985402 0.44248742 0.25944698
000330 78 50 10 3e c4 6c ae be 28 a9 a5 3d 4d 83 bf be
       0.14093196 -0.34067357 0.080889046 -0.37404862
000340 ab c9 c7 be 13 32 4e bd 54 53 27 be d1 7c fd 3e
       -0.39021048 -0.050340723 -0.16340381 0.4950929
000350 98 56 72 be 99 d8 e6 3d bc 2f 3b bc aa 0a 57 3e
       -0.23665845 0.112717815 -0.011424955 0.21000162
000360 6c f7 d3 3d 0e 13 0c 3d 3d c0 40 3d 9e 7e 6a 3e
       0.10349926 0.03419786 0.047058333 0.22899863
000370 8b 16 c0 3e 30 1a e1 be 1a 40 ec be ba 7c 5a 3e
       0.375172 -0.43965292 -0.46142656 0.21336642
000380 45 a0 86 3d da f0 35 be ae f2 fc 3e 36 13 8f 3d
       0.06573538 -0.17767659 0.494039 0.06986086
000390 83 01 b9 3e 1b 16 78 be e7 65 93 be 0b 59 d1 bd
       0.36133966 -0.24227183 -0.28788683 -0.10222062
0003a0 d3 db 38 be 81 94 a0 3e 3b 2a 07 3f 95 53 4c be
       -0.18052606 0.313633 0.52798814 -0.19953759
0003b0 b0 67 35 be 51 9b 93 be 6a 5f 99 bc ac f5 da be
       -0.17715335 -0.28829435 -0.018722255 -0.42765558
0003c0 4a 10 d5 3e fe 30 ff 3e 0f 09 14 be 56 a4 c9 be
       0.4161399 0.49842066 -0.1445658 -0.3938319
0003d0 80 6f e5 3e 64 b4 97 be 84 70 03 be b1 79 ab bd
       0.4481163 -0.29629815 -0.1283589 -0.0837282
0003e0 30 f4 55 3e 08 3b c6 3e 7f 67 ee bc 9f a5 da be
       0.20893931 0.38716912 -0.029102085 -0.42704484
0003f0 b4 04 30 3d ec 86 9b be 2a bd 00 be 5a 74 a0 3d
       0.042973235 -0.30376375 -0.1257216 0.07834692

rnn.bias_ih_l0 f4 [32]
000000 49 b2 e9 3d b7 4c fe 3e 73 6e 2b be a1 c8 7e 3e
       0.11410958 0.49667904 -0.16741352 0.24881221
000010 26 d5 cf 3d a6 20 0e 3e da 0f d3 be 64 73 90 be
       0.10148077 0.13879642 -0.4122303 -0.28213036
000020 7f 0d a0 3e 2e 8e a8 3e 2c 88 2c bc 48 68 40 3e
       0.31260297 0.32920974 -0.010530513 0.1878978
000030 63 8f c2 3d 97 52 77 3e e5 ef 0d 3e a0 4e 0f 3e
       0.09500005 0.241526 0.13861044 0.13994837
000040 81 a6 00 bf 10 2f 70 be 50 ca a8 3d b7 27 10 3e
       -0.50254065 -0.23455453 0.08241713 0.1407765
000050 1a a6 bc be a7 87 01 3f 8d 48 03 3e 66 84 8b 3e
       -0.36845475 0.50597614 0.12820645 0.2724945
000060 69 0a 35 be bc 7a ff 3e 45 b6 1d 3e b9 e6 0a be
       -0.17679752 0.49898326 0.15401562 -0.13564576
000070 bf 9f fe bd f9 e6 b1 3d d4 02 f6 be f4 7f bf bd
       -0.12432813 0.08686633 -0.48049033 -0.09350577

rnn.bias_hh_l0 f4 [32]
000000 b9 d7 46 3e 4d ac 8a 3e 23 f6 db be 1c 22 39 3e
       0.19418229 0.2708458 -0.42961225 0.18079418
000010 ae c7 f0 3d 92 2a e2 3e e7 49 01 bf 0e 91 d6 be
       0.11756836 0.44173104 -0.5050339 -0.41907543
000020 9d a3 e0 3d b7 aa 24 3e 05 0e ae be 7e ff 81 3e
       0.10968707 0.16080748 -0.3399507 0.25390238
000030 a4 ed 65 be 5c bd e2 3d 23 ce c5 be 61 5e c5 be
       -0.22453934 0.11071274 -0.38633832 -0.38548568
000040 67 9b 00 be e1 69 f1 be 61 b7 99 be eb 17 eb 3e
       -0.12559281 -0.47151092 -0.3002272 0.45916685
000050 f8 fe b3 be a3 ad da 3e 14 b8 bf be 94 1c 2a 3e
       -0.35155463 0.427106 -0.37445128 0.16612464
000060 d7 67 74 3e cf 8b e8 3e a0 60 84 ba e1 44 07 be
       0.23867737 0.45419165 -0.0010099597 -0.13209869
000070 d8 a4 d0 3d 41 bd 53 3e 8f 6a 1a be 29 5e 94 be
       0.101876915 0.20677663 -0.15079711 -0.28978088

out.weight f4 [1, 8]
000000 1f 73 ea bd ab 6c b4 be cd 01 37 3e 44 c2 42 3e
       -0.11447739 -0.35239157 0.1787178 0.19019419
000010 cf b8 f3 bd 7f cd 9c 3e cc 33 cb 3d 6d 72 90 3d
       -0.11900484 0.3062553 0.09921989 0.07053075
