ckpt/119.ckpt (torch_old, 3319 bytes, 5 tensors)

rnn.weight_ih_l0 f4 [32, 7]
00000000: ff03 b53e 8620 893e 5769 0b3f 38eb af3e
00000010: 4b1e 943e 3e54 273d c97e 103f fcc4 983e
00000020: 5438 043f 014a 353f d0f3 203f 3eee a03e
00000030: aea2 863e 0dee 983e f321 cfbd b3cb 213d
00000040: ca69 e2be c22b fcbe a4f4 1cbc ce26 233f
00000050: 23e9 c83e e0c0 1b3f bf19 143f d4b4 b73d
00000060: d640 93bd 8d2d 34bc 10b1 dc3e 6862 893e
00000070: a881 8e3e 9e0e 95bd c000 783e c4cd 413e
00000080: ba78 b93e 5286 42be fc60 30bc 24b5 163f
00000090: 9c48 a7bd fe75 b93e ade6 2d3f df76 d33e
000000a0: 3bba 3dbe c67a eabe fa84 ddbb c07e cabe
000000b0: 0f85 f5bd b74f afbe e7ee 05bf d620 b2be
000000c0: 57ac 8cbe 87f0 62bd 683a 263d a6f6 dfbe
000000d0: 9fa3 fbbe 59b6 e43d f74e dbbd 8ad9 a3bd
000000e0: 3dab 9e3e 3423 a73d ba65 553d 3638 213e
000000f0: c854 3d3e 5818 e13e cde9 d23e d98c 0e3f
00000100: 24b9 163f 9b9b 6cbd d31e 923e aa4a a73e
00000110: 778d b53e b276 c13e 75d7 d3be 3520 1c3e
00000120: 2f5f 90be f41e 6fbe 3d85 903d 1221 163e
00000130: d367 453f 1fbe a53e d9d3 523e 05cd 933e
00000140: af4c 263e 10b4 823e e578 f83e 5e5c bf3e
00000150: 9747 9fbe 0cb8 f8bb 7be6 233e 1cb5 c63d
00000160: 8da1 83bd 1d7b dcbe 4758 8f3e ecf5 833e
00000170: 0ee0 9b3e 582a d53d f2f1 0d3f f59a d6bd
00000180: 11e4 cebe 68e9 e5be 9e61 713d bde4 b63d
00000190: f0f9 f23d 6eb9 fdbd 9178 97be 1ad1 95be
000001a0: de0b 493e ccae f5be 9b6f 533d 26b8 b5be
000001b0: b5c3 f2be d3eb 043e 7b18 ecbe d6c6 1cbe
000001c0: 9295 a3be 641b e5be c4aa 1d3d a807 edbe
000001d0: f5ac c2be 521a b63c 88b0 8fbe 63f4 373d
000001e0: de60 e6be e7b4 adbd 2119 abbe 2760 a7be
000001f0: 40ed 15bf 4f67 f2be bce1 903b 6026 62bd
00000200: a9b4 a4be 22c1 263e 4f82 e73c 03a9 39bd
00000210: 8cb8 f6be 0689 8a3d fe0a 943e 8789 d23e
00000220: 9e13 823c 4097 aa3d 2e6d 203e 3b69 a7bd
00000230: 1c88 c73c e5f3 47be 2020 82be 72bb 16be
00000240: a02f f2be 0fef a8be 0fd4 48bd ebe1 d43d
00000250: c2aa 0a3f 1950 863e be83 973e af3e 883d
00000260: 81b5 cbbd dbbb 663e 1290 993d baf7 8cbe
00000270: 2f74 0dbc eb16 e2be ff9d 4dbe 6d28 9f3d
00000280: 809f 023d 02cb fd3e 087e 893e 7187 dfbd
00000290: acd1 25bc cb1c 91bc d9b3 113e a8b0 773d
000002a0: 1df3 4e3e a82e 7e3e f186 863e 68d9 f3bc
000002b0: 1688 083f 66f1 39be 068b 01be 4ce3 20be
000002c0: 2600 bbbe 33fd 513e cca8 2f3f 040f e03e
000002d0: 41b9 96be 6bde e4bd 204c d2be 7fb7 eb3e
000002e0: 4600 303c bb39 3cbe 1885 01bf 2360 983e
000002f0: d426 3b3e fa06 983e ad9e 403e f2cc 8e3c
00000300: 7c99 c63c b2bc 863e 0f86 c3be f7b6 bcbe
00000310: f8b8 b53e a9f8 303e 6c3a c93e a218 9c3e
00000320: d047 0b3f a0fa ebbb e479 6ebe cf61 0b3e
00000330: 3858 d2bd d52f a93e 803f fe3d acc7 823e
00000340: 727d 953d 75b6 133e 3c2f fdbe ce85 2cbe
00000350: f6e7 e8be 8c23 f63c f8c2 1abf 03ff 64be
00000360: 3712 9fbd 6b4e 68bc e3ac dbbe f96b c83d
00000370: cc53 ad3d 1417 b9be a9b3 8dbe 77ba 04bf
0.3535461 0.26782626 0.5445761 0.34359145 0.28929362 0.040851824 0.5644346 0.29837787
0.5164845 0.70816046 0.6287203 0.31431764 0.2629599 0.29869118 -0.10113897 0.039500903
-0.44221336 -0.49252135 -0.009579811 0.63731086 0.3924037 0.6084118 0.57851785 0.08970037
-0.07190101 -0.010997188 0.43103838 0.2683289 0.27833295 -0.07278179 0.24219036 0.1892615
0.3622492 -0.18996552 -0.01076531 0.5887015 -0.08168146 0.36222833 0.6793011 0.4130163
-0.18528073 -0.45796794 -0.006760237 -0.39549828 -0.119882695 -0.34240505 -0.5231766 -0.34790677
-0.27475235 -0.055405166 0.040583044 -0.43742865 -0.4914827 0.111675926 -0.10708421 -0.08000477
0.3099002 0.08161011 0.052098967 0.15744099 0.18489373 0.43963885 0.41194 0.55683666
0.5887625 -0.057765584 0.28539142 0.32674152 0.35459492 0.3778587 -0.41375318 0.15246661
-0.2819762 -0.23351651 0.07056663 0.14661053 0.7711155 0.32371613 0.20588626 0.28867355
0.1624019 0.25528002 0.48529735 0.37375158 -0.31109306 -0.0075902995 0.1600589 0.097025126
-0.06427298 -0.43062678 0.27997038 0.2577356 0.30444378 0.10408467 0.55447304 -0.104787745
-0.40408376 -0.44904637 0.058930986 0.08930347 0.11864078 -0.123888835 -0.29584172 -0.29261094
0.19633433 -0.47984922 0.051620107 -0.35492057 -0.47414938 0.12980585 -0.46112427 -0.15310225
-0.3195005 -0.4474746 0.038492933 -0.46294904 -0.3802258 0.022229347 -0.2806437 0.0449108
-0.4499578 -0.0848177 -0.3341761 -0.32690546 -0.5856514 -0.47344443 0.004421441 -0.05521238
-0.32169083 0.16284612 0.028260378 -0.045327198 -0.48187673 0.067644164 0.28914636 0.4112055
0.015878495 0.0832963 0.15666649 -0.08174368 0.024356894 -0.19526632 -0.25415134 -0.14719942
-0.4730196 -0.32994887 -0.04903036 0.10394653 0.54166806 0.26232985 0.295927 0.06652581
-0.099467285 0.22532599 0.07498182 -0.2753275 -0.008633657 -0.4415811 -0.20079802 0.077713825
0.031890392 0.49568945 0.26853967 -0.10914505 -0.01012079 -0.017713925 0.14228763 0.060471207
0.20209928 0.24822485 0.26274827 -0.029766753 0.5333265 -0.18158492 -0.1265069 -0.15711707
-0.3652355 0.20506744 0.6861694 0.43761456 -0.29438213 -0.11175235 -0.41073704 0.46038434
0.010742253 -0.18381397 -0.5059371 0.29760846 0.1827653 0.29692823 0.1881053 0.01743171
0.024243109 0.26315838 -0.38188216 -0.3685834 0.35492682 0.17282356 0.39302385 0.30487543
0.5440645 -0.0072015077 -0.23288685 0.1361153 -0.10270733 0.33044305 0.124144554 0.25542963
0.072993174 0.1442507 -0.494501 -0.16847917 -0.45489472 0.030046247 -0.6045375 -0.22362904
-0.07767146 -0.014178853 -0.4290534 0.09786219 0.084632486 -0.3615042 -0.27676132 -0.5184702

rnn.weight_hh_l0 f4 [32, 8]
00000000: 47b5 53be 4b75 80bd 28d5 253e 78e6 003f
00000010: c76c d73d 9d9c d0bd f447 983e 7a36 04bf
00000020: 68e1 0cbf 63f3 0ebf d819 123e 8fee 3a3d
00000030: ebaa afbe ca7e 033f 52c8 a43e 6464 cd3d
00000040: 89dc d93e ad03 383e 0191 24bf cb2b 743e
00000050: 1956 fdbd 32db f3be dc84 15be 50f0 e2bd
00000060: cfd4 903d 4fe9 293e fd7d 633d 75ee b73e
00000070: 7316 d1be 78a8 a93e a719 903e d4a2 60be
00000080: 6896 1a3d 17ef 613e c5b8 a13e 83e9 433c
00000090: 088b a13e c09d 00bf 95e7 de3c a44d 65be
000000a0: cddc 46be d099 35bd 59fa 693f 3dda 44be
000000b0: 3856 87be bae1 523e 2505 b13d 9091 03bf
000000c0: e94a 583d 0c38 ce3e ba2e 513e 603a a1bd
000000d0: 3a87 e03e 55f6 9abe 12ea 383e e57e 853d
000000e0: fe63 5e3e b962 133f 68f6 b5bd b09b 82be
000000f0: 7ecd 203e 95dc d3bd ab94 68be b775 373b
00000100: c491 cbbe 31e8 06bf d051 c83e 0288 1cbd
00000110: 9af7 1dbd b8e5 003f 4e2f 1bbd 39f4 0abf
00000120: 4e1d fcbe b2cc 7f3d 1d1b af3b 264e ab3e
00000130: cd73 14be a59e 073e 1581 9d3d d69d 82be
00000140: 4a77 07bd f442 a13e 646a e5be 113e 7e3e
00000150: 59a0 823e 007e 943e 6708 89be 7b2f 8a3e
00000160: d830 d0be bdfb 6fbd 9ade 693e e5aa fc3d
00000170: c6d9 43be 1cd8 18bd 14b7 39be e8d9 7f3d
00000180: 337d cbbc 0e7a 9a3e 7e04 4c3e 297e 063e
00000190: f3bd df3e 77bc 11be d63d 963e 43f3 02bf
000001a0: 285c a3be 2cc2 50be 036b 9b3e 6986 79be
000001b0: be89 533e ef39 9c3e 0c34 54be 6e5a bbbe
000001c0: 29b5 eb3b 3839 fa3e a659 61be b9d6 bbbe
000001d0: 52cd 103f 0224 dbbe ddf9 40be 6217 a03e
000001e0: 8165 ed3c 5660 8c3e 1d00 b23d 498a 01be
000001f0: 20e0 ea3e 80a4 54bd be20 d3bd 5586 49be
00000200: 443f 9c3e ebf1 0f3f 69f9 98be 25b8 09bf
00000210: a21c 95bc fc16 17be d0e3 9a3d 4e62 253e
00000220: 5560 8e3e 37da 463d 36fc e83d adcd eabe
00000230: 360c e33e 5a5e 95bd 25c8 503d 42d9 4e3e
00000240: 2978 4a3e f0f4 f4bd 0675 3abd 1c62 69be
00000250: 4287 593d 21d0 a0bd 373f 3cbe e1b2 e43e
00000260: 2a78 0ebf f51d 00bf b1be 6d3c 1156 913e
00000270: cdc0 86be cedb 023e a801 21bd 2586 90bc
00000280: bbb5 ab3e b92f 65bd 2985 1dbd 0bf4 5f3e
00000290: f40f 213e f41b 66be 1358 f3be 0ebb df3e
000002a0: c510 efbe 47d6 933d 3909 8a3e 83f2 0cbe
000002b0: 1b61 36be 7331 b83d 8def b63e 9034 1b3e
000002c0: 8b02 a2bd a3b1 18be bddf 353e b268 98be
000002d0: 7c76 08bc 3213 f1bd 0680 1ebe 23a5 ad3e
000002e0: e9bb 53bd 558d c03d 05b6 13be 76b7 f13e
000002f0: b9d1 84be 2537 d73e 9dee bfbd f9f3 97be
00000300: adb3 8c3e 2ea7 c7bd 4b1a 443f 6c0d 7d3e
00000310: 88cd eb3e fd8e 1d3c 54d3 62bd 921f b73d
00000320: a050 71be 5919 31be 0a00 023f e45f 803e
00000330: c17d 183e f7b0 a9be f2cc 9c3d a54e babe
00000340: 25e6 c8be b8cc 5abd 118c 86be 2901 013f
00000350: 900b 6dbe 60e3 d23d fdaa 57bc 3c59 593e
00000360: 2af1 f03d 536a 3b3d 7ecd 393d feed 563e
00000370: 5e53 c73e ffc4 e6be 9acc edbe 3572 5b3e
00000380: e275 933d 29e9 30be 8bba 033f 1bba 773d
00000390: 2bdf bb3e f571 7bbe 748e 94be f1b0 cfbd
000003a0: ae12 35be 3675 a03e 28bd 083f 633c 55be
000003b0: a4c0 2ebe 2ec6 92be 50ca cfbc 84d3 d6be
000003c0: 9475 d53e 4ae2 ff3e 1ba8 18be a1c6 c9be
000003d0: b0f8 e43e ee13 99be fa48 03be a54a acbd
000003e0: 6c65 533e 5953 c53e e469 f4bc 2d8e d9be
000003f0: f165 2d3d 9290 99be 1ae4 00be c605 a13d
-0.2067462 -0.06272372 0.16194594 0.5035167 0.105187945 -0.101861216 0.29742396 -0.51645625
-0.5503144 -0.5584013 0.14267671 0.045637663 -0.34310088 0.5136534 0.32184082 0.100289136
0.42551067 0.17970152 -0.6428376 0.2384483 -0.123699374 -0.4762817 -0.14601463 -0.11080992
0.0707184 0.16592906 0.055540074 0.35924116 -0.4083744 0.33136344 0.2814457 -0.21937114
0.037741095 0.22063862 0.3158628 0.011957529 0.31551385 -0.5024071 0.027210036 -0.22392899
-0.19420166 -0.04433614 0.91397625 -0.19223876 -0.26432967 0.2059392 0.08643559 -0.51393986
0.052805815 0.40277135 0.20427981 -0.07872462 0.4385317 -0.3026606 0.1805804 0.06518344
0.21717831 0.57572514 -0.08884889 -0.25509405 0.15703389 -0.10344807 -0.22712962 0.0027993747
-0.39759648 -0.52698046 0.39124918 -0.038215645 -0.03856621 0.50350523 -0.03788691 -0.54278904
-0.49241108 0.062451072 0.0053438083 0.3345806 -0.144973 0.13244112 0.07690636 -0.25511044
-0.033072747 0.31496394 -0.44807732 0.24828364 0.2551296 0.2900238 -0.26764223 0.2698935
-0.40662265 -0.058589686 0.22838822 0.12337283 -0.19126043 -0.037315473 -0.18136245 0.06246367
-0.024839973 0.30171245 0.19923589 0.13134064 0.43699607 -0.1423205 0.29344052 -0.5115244
-0.31906247 -0.2038657 0.3035508 -0.2436768 0.20658013 0.3051295 -0.2072298 -0.3659243
0.007193227 0.4887178 -0.22006854 -0.36687258 0.56563294 -0.4280091 -0.18845315 0.3126784
0.028979065 0.27417248 0.08691428 -0.12650408 0.4587412 -0.051914692 -0.103089795 -0.1968015
0.30517018 0.5622851 -0.29877785 -0.5379661 -0.01820213 -0.14754862 0.07562983 0.16150782
0.2780787 0.04854795 0.113762304 -0.45860043 0.44345254 -0.07293387 0.050972123 0.20200065
0.197724 -0.119607806 -0.04552176 -0.22791332 0.053107508 -0.078521974 -0.1838349 0.44667724
-0.55652106 -0.5004571 0.014510796 0.28385976 -0.2631897 0.12779161 -0.03930822 -0.01764209
0.33537087 -0.055953715 -0.03845707 0.21870439 0.15728742 -0.22471601 -0.47528133 0.436974
-0.46692482 0.072186045 0.2696016 -0.13764386 -0.1781048 0.08993807 0.35729638 0.1515677
-0.07910641 -0.14911513 0.1776113 -0.29767376 -0.00832903 -0.11771239 -0.15478525 0.33915052
-0.051692877 0.09401957 -0.14424904 0.47210282 -0.25941256 0.4203426 -0.09371684 -0.29678324
0.27480832 -0.09748684 0.7660262 0.24712151 0.46055245 0.009616611 -0.05537732 0.089415684
-0.23565912 -0.17294826 0.5078131 0.2507316 0.14891721 -0.33142826 0.07656278 -0.36388126
-0.39238086 -0.05341789 -0.26278737 0.50392395 -0.23148942 0.102972746 -0.013163325 0.21225446
0.117647484 0.045755696 0.04536199 0.20989224 0.38930792 -0.4507217 -0.4644516 0.21430285
0.07200219 -0.17276444 0.51456517 0.06048022 0.366937 -0.2455519 -0.29014933 -0.10141171
-0.17682907 0.31339425 0.5341363 -0.20823817 -0.17065674 -0.28666824 -0.025365025 -0.4195825
0.41691267 0.49977332 -0.14907877 -0.39409354 0.44720984 -0.29898018 -0.12820807 -0.08412675
0.20644158 0.38540152 -0.029835649 -0.42491284 0.042333547 -0.2999311 -0.12587014 0.07862429

rnn.bias_ih_l0 f4 [32]
00000000: 361d f13d a7a4 003f 72b8 44be df0f 833e
00000010: a2dc ca3d 4816 063e 6a9e d4be 7467 8fbe
00000020: e820 a03e b683 a83e a52e e03c 37dc 413e
00000030: e203 b73d 7761 843e 48da 0d3e 4ed3 0f3e
00000040: d0ed 00bf fc34 72be 62a1 d03d f2a4 113e
00000050: 23b0 bdbe 0702 023f 8fa4 043e 82d9 8b3e
00000060: 8b4c 2fbe ce8b 013f 17e0 2a3e b2ce 0ebe
00000070: 18fe f8bd 6700 c33d 11ac f7be 0c73 bbbd
0.1177315 0.5025124 -0.19210985 0.25598046 0.099053636 0.13094437 -0.4152711 -0.28008616
0.31275105 0.32912987 0.027365992 0.18931662 0.089362875 0.2585561 0.13852799 0.1404545
-0.50362873 -0.23653024 0.10187031 0.14223078 -0.37048444 0.50784343 0.12953399 0.27314383
-0.17119043 0.5060395 0.16687046 -0.13946036 -0.121578395 0.09521561 -0.48373464 -0.09152803

rnn.bias_hh_l0 f4 [32]
00000000: 2f8d 4a3e e4a8 8d3e 239b e8be 3e79 403e
00000010: 2acf eb3d 6225 de3e 2e11 02bf 1e85 d5be
00000020: 3bf1 e03d c395 243e daa6 9abe 74b9 823e
00000030: 64b3 6bbe 05cf 023e f2d8 c5be 0a1c c5be
00000040: a3b8 01be d56c f2be 9dc1 8fbe 89d6 eb3e
00000050: 0109 b5be 63a2 db3e 130a bfbe c8c6 2a3e
00000060: b525 7a3e ac28 ec3e 0a11 423c da2c 0bbe
00000070: 7f46 d63d f849 5c3e 0dbd 1dbe f05a 93be
0.1978042 0.27667916 -0.4543086 0.1879625 0.11514123 0.43387896 -0.50807464 -0.41703123
0.10983511 0.16072755 -0.30205423 0.25532115 -0.23017651 0.12774284 -0.3864208 -0.38497955
-0.1266809 -0.47348657 -0.28077403 0.46062115 -0.35358432 0.4289733 -0.37312374 0.16677392
0.24428447 0.4612478 0.011844883 -0.13591328 0.10462665 0.21512592 -0.15404148 -0.28780317

out.weight f4 [1, 8]
00000000: 5ff1 eabd ace9 b5be f2b9 423e 7c28 3f3e
00000010: 56cb f3bd b3f9 9f3e c97d c63d 9eb1 983d
-0.11471819 -0.3552984 0.19016245 0.18667787 -0.119040176 0.31245193 0.0969196 0.07455753
