ckpt/139.ckpt (torch_old, 3319 bytes, 5 tensors)

rnn.weight_ih_l0 f4 [32, 7]
0	0x3ebc9746	0.36834162
1	0x3e8d324d	0.2757744
2	0x3f0e05a8	0.5547738
3	0x3eb45f1b	0.3522881
4	0x3e99fa10	0.30073595
5	0x3d330859	0.043709133
6	0x3f10ae4c	0.56515956
7	0x3ea2ebcc	0.31820524
8	0x3f074dbc	0.5285299
9	0x3f392512	0.7232219
10	0x3f24706c	0.6423404
11	0x3ea86f3c	0.32897365
12	0x3e89dca9	0.26926163
13	0x3e9a864a	0.3018058
14	0xbe66a628	-0.22524321
15	0xbcc40f79	-0.02393316
16	0xbf200e8a	-0.62522185
17	0xbf2fedc3	-0.6872217
18	0xbe5241aa	-0.20532861
19	0x3f3ba0bd	0.7329214
20	0x3ecc621b	0.399186
21	0x3f219758	0.6312156
22	0x3f17cc2a	0.59295905
23	0x3dda024f	0.106449716
24	0xbd698f08	-0.05702117
25	0x3bdb57d8	0.0066938214
26	0x3ee0a06f	0.438724
27	0x3e8a760f	0.27043197
28	0x3e1a7a87	0.15085803
29	0xbdae307e	-0.08505343
30	0x3e286251	0.16443755
31	0x3e0f4578	0.13991344
32	0x3ea3061f	0.31840608
33	0xbe3ef3d5	-0.18647702
34	0x3dec5fbf	0.115416996
35	0x3f1b5ba9	0.6068674
36	0xbe0a7141	-0.13519765
37	0x3ec11b7f	0.3771629
38	0x3f30efc9	0.69115883
39	0x3edcaefe	0.43102258
40	0xbe92cb4f	-0.28670737
41	0xbf17b597	-0.5926146
42	0xbb88a637	-0.004170205
43	0xbec9e893	-0.39435253
44	0xbdf40602	-0.119152084
45	0xbeb02774	-0.344051
46	0xbf0652e3	-0.52470225
47	0xbeb3a511	-0.35086873
48	0xbe8c537e	-0.2740745
49	0xbd64bafe	-0.055842392
50	0x3d31df20	0.04342568
51	0xbedf5e93	-0.43626842
52	0xbefb03d0	-0.49026346
53	0x3de71475	0.11283199
54	0xbdd190a6	-0.102326676
55	0xbd9dec00	-0.07711029
56	0x3e9e25a9	0.30888107
57	0x3da53969	0.08067591
58	0x3d513bc4	0.051082388
59	0x3e20282e	0.15640327
60	0x3e3c8799	0.18411101
61	0x3ee09958	0.43866992
62	0x3ed28bba	0.41122228
63	0x3f0e4ecc	0.55588984
64	0x3f1676cd	0.58775026
65	0xbd713f15	-0.05889805
66	0x3e9182b4	0.2842003
67	0x3ea6f118	0.32605815
68	0x3eb506cd	0.3535675
69	0x3ec125fa	0.37724286
70	0xbf02891c	-0.5099046
71	0x3e68f18a	0.2274839
72	0xbecaeb4b	-0.3963264
73	0xbebb4476	-0.3657567
74	0xbda5a860	-0.080887556
75	0x3ee34ce7	0.4439461
76	0x3f7c6a39	0.9859958
77	0x3ea4bb1b	0.32174
78	0x3e5259e4	0.20542103
79	0x3e932cf1	0.28745225
80	0x3e253517	0.16133533
81	0x3e8230b1	0.25427774
82	0x3ef9887d	0.48736945
83	0x3ebfb27f	0.3744087
84	0xbebe7214	-0.3719641
85	0xbc50e450	-0.012749746
86	0x3e0328aa	0.12808481
87	0x3d98c9aa	0.07460339
88	0xbdaa60fd	-0.0831928
89	0xbedf9eab	-0.43675742
90	0x3eb2b7d9	0.3490589
91	0x3e8cbd53	0.27488193
92	0x3e9d7475	0.30752912
93	0x3e104ebc	0.14092535
94	0x3f18d731	0.59703356
95	0xbd937af4	-0.07201186
96	0xbec5b502	-0.3861466
97	0xbefc32f4	-0.49257624
98	0x3d7b4d79	0.06135318
99	0x3dbb28f8	0.091386735
100	0x3df6762e	0.1203426
101	0xbdfbcfcd	-0.12295494
102	0xbe970e6e	-0.29503196
103	0xbe956e6c	-0.29185808
104	0x3e4a8be8	0.19779932
105	0xbef62994	-0.48078597
106	0x3d54e193	0.051972937
107	0xbeb5ce56	-0.35508984
108	0xbef2d04b	-0.4742454
109	0x3e04b1a2	0.12958387
110	0xbeeb57ce	-0.45965427
111	0xbe1c3b3a	-0.15256968
112	0xbea57375	-0.3231465
113	0xbee62c37	-0.44955608
114	0x3d12a023	0.03579725
115	0xbeee4904	-0.46540082
116	0xbec40d9d	-0.38291636
117	0x3cae4473	0.021272874
118	0xbe8ff770	-0.28118467
119	0x3d228a10	0.039682448
120	0xbee85e51	-0.45384458
121	0xbdb669b8	-0.08906883
122	0xbead21bc	-0.338148
123	0xbea977b4	-0.3309914
124	0xbf16a8ce	-0.58851326
125	0xbef2ec83	-0.4744607
126	0xbc495614	-0.012288589
127	0xbce807dc	-0.02832406
128	0xbe7f2c06	-0.24919137
129	0x3e752ffd	0.23944087
130	0x3dbcc8ce	0.09217988
131	0xbdf5cc94	-0.12001911
132	0xbf0eea50	-0.5582628
133	0x3d92f8c5	0.07176355
134	0x3e957e96	0.2919814
135	0x3ed43202	0.41444403
136	0x3c9a3225	0.018822739
137	0x3db1146f	0.086464755
138	0x3e225020	0.15850878
139	0xbda5fe7c	-0.0810518
140	0x3cfe2f73	0.031028485
141	0xbe473c77	-0.1945666
142	0xbe803a56	-0.25044507
143	0xbe14b167	-0.14520799
144	0xbef19011	-0.47180226
145	0xbeabd454	-0.3356043
146	0xbd5f8389	-0.0545688
147	0x3ddbb80c	0.107284635
148	0x3f0a9da1	0.5414677
149	0x3e882d26	0.26596946
150	0x3e990478	0.29886222
151	0x3d8e2d11	0.069421895
152	0xbdd3d857	-0.10343998
153	0x3e5edc04	0.21763617
154	0x3d98940f	0.07450115
155	0xbe8ceabe	-0.27522844
156	0xbc09c47b	-0.008408661
157	0xbee1d31f	-0.44106385
158	0xbe4d6506	-0.20058069
159	0x3da4c62a	0.08045609
160	0x3d016356	0.031588875
161	0x3efe0dd3	0.49619922
162	0x3e89ff22	0.26952463
163	0xbdddd49c	-0.10831568
164	0xbc191cc2	-0.009345235
165	0xbc8b8a2a	-0.017033655
166	0x3e12d07f	0.14337347
167	0x3d79d2eb	0.060992163
168	0x3dc6a06b	0.09698566
169	0x3e78aacc	0.24283904
170	0x3e5c6d10	0.21525979
171	0xbd4dc73c	-0.050238833
172	0x3f0281ae	0.50979125
173	0xbe1d68d0	-0.15372014
174	0xbd2997bc	-0.04140447
175	0xbe93f18b	-0.2889522
176	0xbec51ee5	-0.38500133
177	0x3e208235	0.1567467
178	0x3f2e2ad8	0.68034124
179	0x3edb5d50	0.4284463
180	0xbe8d168d	-0.27556267
181	0xbd57be52	-0.052671738
182	0xbee17c53	-0.44040164
183	0x3f02c79b	0.51085824
184	0xbce29537	-0.027659042
185	0xbe76490f	-0.24051307
186	0xbf11eb12	-0.56999314
187	0x3ee5dca6	0.44894904
188	0x3e905b7e	0.28194803
189	0x3e1f62b2	0.15564993
190	0x3e2652e9	0.16242565
191	0xbda44ddd	-0.08022664
192	0xbd473d30	-0.048642337
193	0x3e416751	0.18887068
194	0xbeb0e4ae	-0.3454947
195	0xbe8847e7	-0.26617357
196	0x3e9fb6bc	0.31194103
197	0x3e359ca6	0.17735538
198	0x3ebde014	0.3708502
199	0x3e9b520c	0.30336034
200	0x3f0c4ec2	0.54807675
201	0x3b077f3c	0.0020675203
202	0xbe2dbd27	-0.16966687
203	0x3d58d694	0.052939013
204	0xbdc5fff1	-0.096679576
205	0x3e92a7db	0.2864369
206	0x3dd74253	0.10510697
207	0x3e7003f8	0.23439014
208	0x3df9a260	0.12189174
209	0x3e80b732	0.25139767
210	0xbefbc0e7	-0.4917061
211	0xbe2af0ee	-0.1669347
212	0xbee83ee0	-0.4536047
213	0x3cea3e1c	0.02859407
214	0xbf1b2617	-0.60604995
215	0xbe692e3e	-0.22771546
216	0xbd9e07a8	-0.07716304
217	0xbc6c438a	-0.014420399
218	0xbeda50e2	-0.42639834
219	0x3dcad737	0.0990433
220	0x3db0163b	0.0859799
221	0xbeb875d1	-0.36027387
222	0xbe8b652a	-0.2722562
223	0xbf041e19	-0.51608425

rnn.weight_hh_l0 f4 [32, 8]
0	0xbe51eacc	-0.20499724
1	0xbd7a4260	-0.061098456
2	0x3e286f6f	0.16448759
3	0x3f0076e9	0.5018144
4	0x3ddbb97d	0.107287385
5	0xbdd6174e	-0.10453664
6	0x3e9904f1	0.29886582
7	0xbf04bad4	-0.5184758
8	0xbf0c6baa	-0.5485178
9	0xbf0ea635	-0.5572236
10	0x3e128f65	0.14312513
11	0x3d33a21e	0.04385578
12	0xbeae6438	-0.34060836
13	0x3f02c90b	0.5108802
14	0x3ea4e9f2	0.32209736
15	0x3dcc9606	0.09989552
16	0x3f10ebdc	0.5660989
17	0x3e97c058	0.29638934
18	0xbf6e738f	-0.9314508
19	0x3e1716be	0.14754769
20	0x3cd5585c	0.02604311
21	0xbf2ebd93	-0.6825802
22	0xbe1927a3	-0.14956526
23	0xbde556a5	-0.11198167
24	0x3d93dd78	0.07219976
25	0x3e2b4e11	0.16728999
26	0x3d63fbda	0.055660106
27	0x3eb72bb9	0.35775545
28	0xbed008b8	-0.40631652
29	0x3ea8818f	0.32911345
30	0x3e9077c4	0.28216374
31	0xbe619291	-0.22028567
32	0x3dbcaff1	0.09213246
33	0x3e8ba87e	0.27276987
34	0x3ebb7633	0.36613616
35	0xbd6205c8	-0.055181295
36	0x3eba755f	0.36417672
37	0xbf0a9679	-0.54135853
38	0x3d24657d	0.04013585
39	0xbe811601	-0.252121
40	0xbe24fa25	-0.16111048
41	0xbbbe1708	-0.0058010854
42	0x3facb55d	1.3492848
43	0xbe74d072	-0.2390764
44	0xbe741271	-0.2383516
45	0x3e40a588	0.18813145
46	0x3dcdb46f	0.100441806
47	0xbf093891	-0.5360194
48	0x3d3d9c51	0.046291653
49	0x3ecc2739	0.39873675
50	0x3e430c6e	0.1904771
51	0xbd8cb9b7	-0.0687136
52	0x3edc666b	0.4304689
53	0xbe99bc85	-0.3002664
54	0x3e38b428	0.18037474
55	0x3d861790	0.06547463
56	0x3e5a8239	0.21338739
57	0x3f12d08a	0.57349455
58	0xbdaff03e	-0.085907444
59	0xbe82062e	-0.2539534
60	0x3e21e105	0.15808494
61	0xbdc05853	-0.093918465
62	0xbe68c015	-0.22729523
63	0x3b4edf99	0.003156638
64	0xbecb195c	-0.39667785
65	0xbf06aee0	-0.5261059
66	0x3ec9a904	0.3938676
67	0xbd202d68	-0.039105803
68	0xbd195dde	-0.037443034
69	0x3f008f87	0.50219005
70	0xbd1817c0	-0.037132025
71	0xbf0b39d9	-0.54385144
72	0xbefb2eba	-0.49059087
73	0x3d82cc41	0.063866146
74	0x3bc14ac3	0.005898805
75	0x3eaa5cc2	0.33273894
76	0xbe11c61c	-0.14235729
77	0x3e04b670	0.1296022
78	0x3d9e390a	0.07725723
79	0xbe82e400	-0.25564575
80	0xbd34012a	-0.043946423
81	0x3e8b2dd1	0.27183393
82	0xbf712801	-0.94201666
83	0x3ea3f339	0.32021502
84	0x3e962c72	0.29330784
85	0x3e6d91c5	0.23200138
86	0xbe96bc53	-0.29440555
87	0x3e9fd6be	0.31218523
88	0xbed0537a	-0.40688688
89	0xbd7169d1	-0.058938805
90	0x3e66f4c2	0.22554305
91	0x3dfd1634	0.123577505
92	0xbe434ab8	-0.19071472
93	0xbd16c867	-0.036812212
94	0xbe398eb2	-0.1812084
95	0x3d7fdeb0	0.06246823
96	0xbc37c655	-0.01121672
97	0x3ea19ae5	0.31563488
98	0x3e56c2ab	0.20972697
99	0x3de561e0	0.11200309
100	0x3ee516a4	0.44743836
101	0xbe192bc0	-0.14958096
102	0x3e99692f	0.2996306
103	0xbf0594d0	-0.52180195
104	0xbec052aa	-0.37563068
105	0xbe835f50	-0.25658655
106	0x3f04a5e7	0.51815647
107	0xbe4c5970	-0.19955993
108	0x3e28e501	0.16493608
109	0x3ec8e5dc	0.3923787
110	0xbe59d666	-0.21273193
111	0xbeb167b3	-0.3464943
112	0x3b7556ba	0.0037435726
113	0x3ef9748e	0.48721737
114	0xbe66cdd8	-0.2253946
115	0xbeb953a9	-0.3619664
116	0x3f0f998c	0.5609367
117	0xbeda9b94	-0.42696822
118	0xbe41119e	-0.18854377
119	0x3ea02792	0.3128019
120	0x3ccaf17e	0.024773356
121	0x3e8b6d98	0.2723205
122	0x3db3ec74	0.08785334
123	0xbdfc41ed	-0.12317262
124	0x3ee925bb	0.455366
125	0xbd3b26a9	-0.045691166
126	0xbdd346f7	-0.1031627
127	0xbe4958e3	-0.19662814
128	0x3e9c1205	0.30482498
129	0x3f0fe045	0.56201583
130	0xbe991f61	-0.29906753
131	0xbf09a29b	-0.5376374
132	0xbc98aed3	-0.01863805
133	0xbe168688	-0.14699757
134	0x3d9aa705	0.07551388
135	0x3e25995c	0.16171783
136	0x3e8e0de1	0.27744964
137	0x3d4530f7	0.0481424
138	0x3de8cb1a	0.113668635
139	0xbeea7550	-0.45792627
140	0x3ee278be	0.44232744
141	0xbd938917	-0.07203882
142	0x3d507fc1	0.050903086
143	0x3e4eef10	0.20208383
144	0x3d5e96b5	0.054342944
145	0xbe61b92d	-0.22043295
146	0x3e8b1564	0.27164757
147	0xbe1553e6	-0.14582786
148	0xbd85e681	-0.06538106
149	0x3e2059d5	0.15659268
150	0xbe3b897d	-0.18314166
151	0x3ee6b104	0.45056927
152	0xbf0e62c3	-0.5561945
153	0xbf0012c6	-0.50028646
154	0x3c6df1f5	0.014523019
155	0x3e912730	0.2835021
156	0xbe866e61	-0.26256087
157	0x3e026e09	0.12737288
158	0xbd20e20c	-0.039278075
159	0xbc90cfe8	-0.017677262
160	0x3ea92c1e	0.3304147
161	0xbd7548f8	-0.05988404
162	0xbd605e98	-0.05477771
163	0x3e6696a5	0.22518404
164	0x3e1a452f	0.15065454
165	0xbe62237f	-0.22083853
166	0xbef393f2	-0.4757381
167	0x3ee03000	0.4378662
168	0xbeefa701	-0.468071
169	0x3d93ac27	0.0721057
170	0x3e9796c2	0.29607207
171	0xbe0d09e2	-0.13773301
172	0xbe37653a	-0.17909709
173	0x3dc16c23	0.094444536
174	0x3eb71571	0.35758546
175	0x3e1ae0bf	0.15124796
176	0xbda7ceba	-0.08193727
177	0xbe1a6ce7	-0.15080605
178	0x3e38ab80	0.18034172
179	0xbe977bce	-0.29586643
180	0xbc18ba01	-0.009321691
181	0xbde798ea	-0.11308463
182	0xbe1e8b3b	-0.154828
183	0x3eadbac9	0.33931568
184	0xbd5a844e	-0.05334883
185	0x3dbeaf8b	0.09310826
186	0xbe131e0b	-0.14366929
187	0x3ef26bcd	0.4734787
188	0xbe85664f	-0.26054618
189	0x3ed8aa36	0.4231736
190	0xbdc006c7	-0.09376293
191	0xbe97e468	-0.29666448
192	0x3e90c897	0.28278038
193	0xbdbfa0ed	-0.09356866
194	0x3f51291e	0.81703365
195	0x3e66c91f	0.22537659
196	0x3ef2fd11	0.474587
197	0x3ca59670	0.020213336
198	0xbd6d0316	-0.05786427
199	0x3dbd46ea	0.092420414
200	0xbe6e9f3e	-0.23302934
201	0xbe320d9d	-0.17388006
202	0x3f28b4f0	0.6590109
203	0x3e610bf1	0.21977212
204	0x3e29bbd9	0.16575564
205	0xbe976a4f	-0.29573295
206	0x3d9fae68	0.07796937
207	0xbeb92743	-0.36162767
208	0xbecda11e	-0.40161985
209	0xbd9d998f	-0.076953046
210	0xbf169850	-0.5882616
211	0x3f0d16c4	0.5511286
212	0xbe6279ec	-0.22116822
213	0x3d95275d	0.072828986
214	0xbcd0c822	-0.025486056
215	0x3e6cb3ec	0.2311551
216	0x3e232697	0.1593269
217	0x3dadb339	0.0848145
218	0xbcd311f9	-0.025765406
219	0x3e26f449	0.16304125
220	0x3eda54ad	0.42642727
221	0xbef96ae4	-0.48714364
222	0xbeed0ebd	-0.46300307
223	0x3e520811	0.2051089
224	0x3db169f0	0.08662784
225	0xbe21d5b7	-0.15804182
226	0x3f100f92	0.5627376
227	0x3d1daf4b	0.03849725
228	0x3ec2323c	0.3792895
229	0xbe804114	-0.2504965
230	0xbe90c5fb	-0.28276047
231	0xbde17ecb	-0.11010512
232	0xbe29f371	-0.16596772
233	0x3ea36d85	0.31919494
234	0x3f07716a	0.5290743
235	0xbe6d05e1	-0.23146774
236	0xbe1d8889	-0.15384115
237	0xbe8fc862	-0.28082567
238	0xbcfff185	-0.031243095
239	0xbed36947	-0.41291258
240	0x3ed1c14b	0.40967783
241	0x3efd6de3	0.494979
242	0xbe274f16	-0.16338763
243	0xbec45356	-0.3834483
244	0x3ee0906f	0.43860194
245	0xbe975314	-0.2955557
246	0xbe038552	-0.12843826
247	0xbdaba11b	-0.08380338
248	0x3e4e9a81	0.20176126
249	0x3ec402bb	0.38283333
250	0xbcd79285	-0.026314983
251	0xbed88fc3	-0.4229718
252	0x3d2c5002	0.04206849
253	0xbe942d56	-0.2894084
254	0xbe010d7a	-0.12602797
255	0x3da1c327	0.078985505

rnn.bias_ih_l0 f4 [32]
0	0x3dfc1772	0.12309159
1	0x3f0343ac	0.51275134
2	0xbe817c4a	-0.25290138
3	0x3e88c620	0.26713657
4	0x3da1b704	0.078962356
5	0x3dc2cac5	0.095113315
6	0xbed5b9f1	-0.41743425
7	0xbe8d89af	-0.27644107
8	0x3e9f9724	0.3117
9	0x3ea7d75e	0.327815
10	0x3e047e32	0.12938765
11	0x3e421d89	0.1895658
12	0x3d9afb8b	0.07567509
13	0x3e9893aa	0.2980016
14	0x3e0eeb1c	0.13956875
15	0x3e10b5c5	0.1413184
16	0xbf015c8a	-0.5053183
17	0xbe75e55e	-0.24013278
18	0x3e0f36a9	0.13985695
19	0x3e143894	0.14474708
20	0xbebe2e75	-0.3714482
21	0x3f023ae0	0.50871086
22	0x3e064a83	0.13114361
23	0x3e8c722d	0.2743086
24	0xbe26ba32	-0.16281965
25	0x3f05075a	0.5196434
26	0x3e5ecfa3	0.21758895
27	0xbe21ff51	-0.15820052
28	0xbdf5ae79	-0.11996169
29	0x3de31aee	0.11089121
30	0xbef8c5db	-0.48588452
31	0xbdb42298	-0.08795661

rnn.bias_hh_l0 f4 [32]
0	0x3e500a4f	0.20316432
1	0x3e92e6e9	0.28691795
2	0xbf03dd98	-0.5151
3	0x3e4be5be	0.19911858
4	0x3dc2a98c	0.09504995
5	0x3ecbccee	0.39804786
6	0xbf029ef2	-0.5102378
7	0xbed3a759	-0.41338614
8	0x3ddeca2e	0.108784065
9	0x3e233d15	0.1594127
10	0xbe4cd555	-0.20003255
11	0x3e82da20	0.2555704
12	0xbe79b78e	-0.24386427
13	0x3e2b3367	0.16718827
14	0xbec55086	-0.38537997
15	0xbec4aaca	-0.38411552
16	0xbe037381	-0.1283703
17	0xbef44502	-0.477089
18	0xbe789d46	-0.24278745
19	0x3eed205a	0.46313745
20	0xbeb58753	-0.35454807
21	0x3edc140f	0.42984053
22	0xbebe3717	-0.37151405
23	0x3e2bf81d	0.16793866
24	0x3e815c03	0.25265512
25	0x3ef31fbd	0.47485152
26	0x3d802140	0.06256342
27	0xbe1e5d79	-0.15465344
28	0x3dd9961e	0.10624336
29	0x3e6c573a	0.2308015
30	0xbe1ff0a6	-0.15619144
31	0xbe9186d5	-0.2842318

out.weight f4 [1, 8]
0	0xbddc03ac	-0.10742888
1	0xbeb3dda6	-0.35130042
2	0x3e5557c6	0.20834264
3	0x3e2d44d7	0.16920792
4	0xbde78836	-0.11305277
5	0x3ea45658	0.32097125
6	0x3dc11a71	0.094288714
7	0x3da1be62	0.07897641
