ckpt/149.ckpt (torch_old, 3319 bytes, 5 tensors)

rnn.weight_ih_l0 f4 [32, 7]
00000000: d1c7 c03e 1d62 8f3e c76f 0f3f 43c0 b63e
00000010: 2f3b 9d3e a9ae 383d 76c1 103f bc71 a83e
00000020: 89f5 083f 7939 3b3f af4f 263f a185 ac3e
00000030: 928c 8b3e e657 9b3e cb64 9abe bade 9dbd
00000040: dcc3 35bf f3af 3fbf 368c 90be f548 433f
00000050: 1f4d cf3e 0e51 243f 4e7d 193f 86dd e93d
00000060: f594 4dbd 66e6 743c 9045 e23e ade0 8a3e
00000070: 145d 0f3e d8ab 55bd 5474 263e d26f 013e
00000080: 8457 ac3e 736e 40be eb5e 453e 7844 243f
00000090: de8d dbbd 867f d33e b001 373f 94a5 ec3e
000000a0: 6d46 a2be 21dd 1abf 5fb8 8cbb 0bdb cbbe
000000b0: 24e8 f5bd bac7 b0be d1c0 06bf d97a b6be
000000c0: 21fe 8ebe c4ea 61bd 1f2e 363d fe0a dfbe
000000d0: 3915 fbbe 6cbd e83d bb10 d6bd 89fc 9ebd
000000e0: cd02 9e3e b672 a43d 7671 4f3d 4ea2 1f3e
000000f0: 5a58 3c3e e254 e03e 8467 d23e 9e39 0e3f
00000100: 0c4e 163f 35b7 73bd ab26 913e 67d3 a63e
00000110: 2695 b43e 1ce1 c03e e36d 14bf 0437 333e
00000120: 32b2 f3be 2816 dbbe 2691 21be 120b f53e
00000130: e15c 7e3f 4351 a43e 54d3 513e b5ca 923e
00000140: c265 243e 5bf7 813e 6784 f93e 86a5 bf3e
00000150: 605f c2be 4841 51b9 c40b 033e 49d4 8d3d
00000160: 31dc 9abd 3315 e1be 8e3a c53e 4d3d 963e
00000170: 5a7b a93e 467f 2a3e 6f7c 1d3f 74a4 52bd
00000180: 003a c8be 8708 febe 1dd7 7e3d aafa b93d
00000190: 1c49 f73d ef3a fbbd 5ffe 96be 6426 96be
000001a0: 3912 493e b35d f6be 0a88 543d b1ed b5be
000001b0: 020a f3be 757b 043e f3d4 ebbe 13a2 1cbe
000001c0: 9573 a6be 64ba e6be fdd7 0c3d 79ef eebe
000001d0: 59cb c4be 3d5c aa3c 541a 90be e09c 163d
000001e0: 1c76 e9be b837 bbbd 933f aebe 66a2 aabe
000001f0: c80c 17bf 9331 f3be 2068 a03c b2bb 263c
00000200: 56cb 48be 8337 833e c2b9 0b3e eaf7 38be
00000210: eee9 18bf cdf8 963d 122e 963e d7fa d43e
00000220: af97 a53c 7027 b43d c32f 233e 7e56 a5bd
00000230: a9cf 053d def5 48be 298b 7fbe c659 13be
00000240: c1bb f1be bf73 acbe bba3 6dbd f906 e13d
00000250: 2604 0b3f 8b6a 893e 4ac0 993e 3a4a 923d
00000260: 004b dabd 67c9 5c3e 0e43 983d c889 8cbe
00000270: e3fb 06bc f4b5 e1be 8b32 4dbe 4e56 a93d
00000280: 505a 063d 5e37 fe3e 0f29 8a3e ce2c ddbd
00000290: 1eaa 16bc 2b38 89bc 7887 123e d5fe 783d
000002a0: 4e49 933d 2162 863e de71 533e 464c 83bd
000002b0: 4635 033f e139 17be 1d66 bc3b 989d 9cbe
000002c0: f7a5 afbe 2b5c 283e fed8 2d3f cb7a e73e
000002d0: f5b0 84be e64e 393c 51b1 f6be 5291 ed3e
000002e0: f4ee a0bd 94e2 91be c979 1dbf 6b9c e93e
000002f0: 8425 873e fa36 f03d 6569 2a3e beca ddbd
00000300: e432 9bbd 584c 323e 5e69 aabe 8535 5ebe
00000310: 232c a23e bac9 4b3e 633b c13e 684c 9c3e
00000320: 4f20 113f 5c99 923b aa0c 0bbe f3af 043d
00000330: 6fe2 9dbd 540f 8d3e f640 b93d 2bf3 713e
00000340: 8081 093e 0fd8 9c3e 3acd fbbe ffe2 2ebe
00000350: e69f e8be eb24 e13c 2f96 1bbf 0c4e 6fbe
00000360: 867e a9bd 09fc 5fbc bdce d9be 012d cc3d
00000370: 20ed af3d cc0a b8be 089d 8cbe b448 04bf
0.37652448 0.28004542 0.56029934 0.3569356 0.30709216 0.045088444 0.565452 0.32899272
0.53499657 0.7313457 0.6496534 0.336957 0.27255684 0.303405 -0.30155024 -0.07708497
-0.7100198 -0.7487785 -0.28231972 0.762832 0.40488526 0.6418618 0.59956825 0.11419205
-0.050190885 0.014947509 0.44193697 0.2712454 0.1400035 -0.052165836 0.16255313 0.12640312
0.3366052 -0.18792133 0.1927449 0.64166975 -0.107204184 0.4130823 0.7148695 0.46220076
-0.31694356 -0.60493666 -0.0042944397 -0.39815554 -0.12007168 -0.3452738 -0.52637964 -0.356406
-0.2792826 -0.05515553 0.04447758 -0.43563074 -0.4903963 0.11364254 -0.1045241 -0.07763011
0.30861512 0.08029692 0.050645314 0.15589258 0.18393078 0.4381476 0.410946 0.55556667
0.5871284 -0.05950089 0.28349814 0.32583162 0.3527004 0.37671745 -0.57980174 0.17501456
-0.4759689 -0.4279034 -0.15778026 0.47860008 0.9936047 0.32093248 0.20490772 0.28670278
0.16054443 0.2538403 0.48733827 0.37430972 -0.3796339 -0.00019956112 0.12797457 0.06925256
-0.075615294 -0.43961486 0.38521236 0.29343644 0.33101922 0.16650113 0.61517996 -0.051426366
-0.3910675 -0.4961588 0.062216867 0.090810135 0.120744914 -0.122671 -0.29490945 -0.29326165
0.19635858 -0.48118362 0.05188755 -0.35532907 -0.47468573 0.1293772 -0.46060905 -0.15296201
-0.32510057 -0.4506408 0.03438567 -0.46667078 -0.38436392 0.020795936 -0.28145087 0.0367707
-0.45597923 -0.09141487 -0.34032878 -0.33327025 -0.5900388 -0.4749876 0.0195809 0.010176586
-0.19608817 0.2562829 0.1364508 -0.18063322 -0.5973195 0.07371674 0.29332024 0.41597626
0.02021393 0.087965846 0.15936188 -0.08073138 0.032668743 -0.19625041 -0.24955429 -0.14389715
-0.47213557 -0.33682057 -0.058017474 0.10987658 0.54303205 0.26839098 0.30029517 0.07143064
-0.10658836 0.21561204 0.07434665 -0.2744887 -0.008238765 -0.44084132 -0.20038812 0.082684144
0.032800972 0.49651617 0.2698445 -0.107995614 -0.009195833 -0.016750416 0.1430949 0.0607899
0.07191716 0.2624674 0.20648906 -0.064110324 0.51253164 -0.14768173 0.0057494775 -0.30588984
-0.3430631 0.1644141 0.6790923 0.4521087 -0.25916258 0.011310315 -0.48182157 0.46399933
-0.07858077 -0.28493178 -0.61513954 0.4562715 0.2639581 0.11729236 0.16641767 -0.10829686
-0.07578066 0.17411935 -0.33283514 -0.21700104 0.316743 0.19901171 0.3774062 0.30527043
0.56689924 0.0044738483 -0.1357905 0.03239436 -0.077092044 0.27550757 0.090455934 0.23627917
0.13428307 0.3063359 -0.49180013 -0.1707878 -0.45434493 0.027483424 -0.60776037 -0.23369616
-0.082760856 -0.01367093 -0.4254054 0.09969521 0.0859015 -0.35945737 -0.27463555 -0.51673436

rnn.weight_hh_l0 f4 [32, 8]
00000000: d6e1 50be da51 76bd 79be 283e a23b 003f
00000010: 69f4 dd3d 7c50 d9bd 8f6f 993e 4506 05bf
00000020: ea26 0cbf 7f78 0ebf 0ebc 123e 16a1 2f3d
00000030: 09b6 adbe ee5f 023f 62fc a43e 0122 cc3d
00000040: 993d 183f 0c61 a23e 7cb3 6fbf 1a40 f83d
00000050: f254 783d cf38 37bf 37b6 17be 25c4 e4bd
00000060: acc5 953d 7f39 2c3e 0727 653d b9ba b63e
00000070: 6081 cfbe a9c8 a73e b0aa 903e 191d 62be
00000080: 36e1 f13d 76b8 9a3e 9652 a33e c480 a4bd
00000090: e929 c33e cea4 10bf 3492 4a3d 6607 8cbe
000000a0: 8885 22be d49e 85ba ba18 ae3f 55d7 72be
000000b0: 3c93 74be 6470 3b3e ee93 ce3d a640 0abf
000000c0: e0aa 383d 15eb cb3e b2e9 4a3e 3a58 8cbd
000000d0: 8143 db3e 6df8 98be 81c9 383e 04df 853d
000000e0: fb6d 613e 38d7 133f f749 a9bd de9d 85be
000000f0: 51fb 283e 61c4 cbbd 879c 68be 2bb8 3b3b
00000100: 9ac9 cabe 2f88 06bf de19 c93e 9339 22bd
00000110: ffd7 16bd 2d50 003f a647 16bd 4364 0bbf
00000120: e676 fabe c714 853d 4dd3 cb3b 2ab1 a93e
00000130: 7711 10be 8279 023e a8af 9e3d 3614 83be
00000140: b9a7 d9bc 0ddb 903e 02ed 6dbf 6f76 993e
00000150: 38bd a43e 873f 5c3e 46a1 95be 33b7 a03e
00000160: 33fb cfbe d6c2 6ebd 19c2 663e 8ed9 fb3d
00000170: bb7d 42be 518e 1abd 4d56 39be 16ae 7e3d
00000180: 61b9 eabb 158f a43e 4b86 373e 039e da3d
00000190: a6ca e53e 49dd 1bbe c858 9b3e 6029 07bf
000001a0: 68e9 c8be 93b3 8abe b3e8 063f 6ffe 3cbe
000001b0: 0b08 1c3e 9363 d43e 5cc9 5cbe 5605 afbe
000001c0: fe2b 8c3b 9ea5 f93e 1fe9 63be bae2 b9be
000001d0: c884 0f3f b0bc dabe a707 41be 201f a03e
000001e0: b138 da3c c7ef 8b3e cc26 b63d 7a3b 00be
000001f0: 53a2 ea3e 7441 40bd d034 d3bd 126b 49be
00000200: cff6 9b3e abd5 0f3f 5621 99be a396 09bf
00000210: 60b1 9abc 812e 16be 2285 9a3d f6b8 253e
00000220: 10de 8d3e 1935 443d 00b8 e83d 2645 eabe
00000230: f52a e23e 0f7b 92bd 6657 503d 6afb 4e3e
00000240: 5700 613d 2575 53be e29f aa3e 2d81 1ebe
00000250: ea35 8abd 89d8 2d3e cec8 37be 16c4 e13e
00000260: 2854 0ebf 050b 00bf ec21 6e3c 6c09 913e
00000270: 6a40 86be ee24 023e 44d1 20bd 62fa 90bc
00000280: da54 a73e 8475 81bd 2c6d 3dbd eace 693e
00000290: 7f8f 163e a18c 5dbe 66cc f3be 37d1 e03e
000002a0: 2de0 eebe b59c 963d 8e14 993e 9035 0ebe
000002b0: 1948 36be 1c1c bd3d e328 b73e ee6d 1a3e
000002c0: 636a aabd 563c 1bbe 4579 373e 99d7 96be
000002d0: 3be1 1dbc c588 e4bd ff95 1ebe 97c6 ad3e
000002e0: aff9 56bd bfd7 bf3d f253 12be fcf7 f13e
000002f0: ece5 84be 083f d83e 20f8 bfbd 98ec 97be
00000300: 7776 953e e391 a9bd 2f6a 493f 0576 5c3e
00000310: 08bc f63e 94bd 6c3c 974e 63bd e24c ae3d
00000320: 98d7 6cbe f88c 2ebe 8aca 203f bb0e 5c3e
00000330: da92 2d3e ec6c 94be 9734 9d3d a782 b9be
00000340: 1c13 bebe 34db 4bbd 46bf 0dbf 0e5d 043f
00000350: b2c5 41be e5d6 353d 7508 b2bc bc75 683e
00000360: e27f 333e dfa2 d13d e940 6fbd 9c9e 163e
00000370: 8743 e03e e85d 00bf a201 ebbe 0c9a 493e
00000380: c70c bf3d dbea 18be 86c5 083f 8422 023d
00000390: 3c1b c43e c7d3 82be 37e3 8ebe d69b eebd
000003a0: 81cd 1dbe 557e aa3e 09a7 fd3e 1875 7abe
000003b0: 4d08 14be d3e6 93be cae0 ecbc f6ff d6be
000003c0: 24ce d03e b3eb fc3e b9f9 1ebe 3aeb c3be
000003d0: e339 df3e ed2f 96be c771 03be f9cb abbd
000003e0: cff8 543e a5ea c53e 1e19 bbbc 95d6 dbbe
000003f0: 02b3 453d b8af 96be f8ec 00be 4a34 a13d
-0.2039865 -0.060136653 0.1647891 0.5009099 0.10837633 -0.10611054 0.29967925 -0.5196269
-0.5474688 -0.5565261 0.1432955 0.042878233 -0.33927944 0.5092763 0.32223803 0.09967423
0.5946899 0.31714666 -0.93633246 0.121216014 0.060627885 -0.7157106 -0.14815603 -0.11170224
0.073130935 0.16818808 0.055945423 0.35689333 -0.40528393 0.3277028 0.28255224 -0.22081412
0.11810534 0.30218858 0.31898946 -0.080323726 0.38117912 -0.5650147 0.049455836 -0.27349395
-0.1587125 -0.0010194429 1.3601296 -0.23714955 -0.2388429 0.18304592 0.10086809 -0.54004896
0.045084834 0.3982779 0.1981571 -0.068527654 0.4282494 -0.29877034 0.18045618 0.065366775
0.2201461 0.5775027 -0.08266061 -0.26097006 0.1650212 -0.09949566 -0.2271596 0.0028643708
-0.39606935 -0.5255155 0.39277548 -0.03960569 -0.036827084 0.5012234 -0.036689423 -0.5444986
-0.48918837 0.064981036 0.0062202574 0.33142978 -0.14069162 0.12741664 0.077483475 -0.25601357
-0.026569234 0.28292122 -0.9293977 0.2997317 0.32175612 0.21508609 -0.29224604 0.3138977
-0.40621337 -0.05829128 0.2253498 0.12297355 -0.18993275 -0.03773338 -0.18099327 0.06217774
-0.007163212 0.32140413 0.17922322 0.106746696 0.4488117 -0.15221132 0.30341172 -0.5279751
-0.39240575 -0.2709013 0.5269882 -0.18456434 0.15237443 0.4148222 -0.21561188 -0.34183758
0.004277705 0.48759168 -0.22256897 -0.3630579 0.56061983 -0.42722082 -0.18850575 0.31273746
0.02663836 0.27331373 0.08894119 -0.12522689 0.4582697 -0.04693742 -0.103128076 -0.1966975
0.30461738 0.56185406 -0.29908246 -0.5374548 -0.018883407 -0.14666177 0.07544924 0.16183838
0.27708483 0.0479022 0.1136322 -0.4575588 0.441734 -0.07152378 0.0508646 0.20213094
0.054931965 -0.20650156 0.33325106 -0.15478964 -0.067485645 0.16977133 -0.17947695 0.44094914
-0.5559716 -0.50016814 0.014534455 0.283275 -0.2622102 0.127094 -0.03926207 -0.017697517
0.32681924 -0.063212425 -0.046246693 0.22832838 0.14703177 -0.21635677 -0.4761688 0.43909618
-0.46655408 0.07354108 0.29898494 -0.1388762 -0.1780094 0.09233877 0.35773382 0.15080997
-0.08321073 -0.15159735 0.17917354 -0.29461363 -0.009636219 -0.11158899 -0.15486906 0.33940575
-0.05248421 0.09367322 -0.14289835 0.4725951 -0.25956666 0.4223559 -0.09373498 -0.29672694
0.29191944 -0.08279779 0.7867765 0.21529396 0.4819033 0.014449496 -0.05549487 0.08510758
-0.23129117 -0.17045963 0.6280905 0.21489994 0.1695055 -0.2898935 0.07676046 -0.36232492
-0.37123954 -0.049769595 -0.55369985 0.5170449 -0.18923071 0.044394393 -0.021732548 0.22701162
0.17529252 0.10236143 -0.058411513 0.14708942 0.4380152 -0.5014329 -0.45899683 0.1968767
0.09328609 -0.1493334 0.53426397 0.031771198 0.38302028 -0.25552198 -0.27907726 -0.11650817
-0.15410425 0.3329951 0.495415 -0.2445873 -0.14456291 -0.28887042 -0.028915782 -0.41992158
0.40782273 0.49398574 -0.15524949 -0.382654 0.43598852 -0.2933344 -0.12836371 -0.08388514
0.20798038 0.38655582 -0.022839125 -0.4293715 0.04826642 -0.29430938 -0.12590396 0.078713015

rnn.bias_ih_l0 f4 [32]
00000000: 23cf 003e 93a6 043f ac8e 88be 344c 8b3e
00000010: d1eb 913d ffac cb3d 4058 d7be 0ecd 8dbe
00000020: 9643 9f3e 3b59 a73e 5cf9 fb3d e577 413e
00000030: da80 913d cff4 9e3e 4787 0e3e 2c3a 103e
00000040: 1794 01bf 1be3 77be 1c91 f83d ec6d 153e
00000050: c205 bebe 7730 023f 3152 073e 6e7c 8c3e
00000060: b77c 28be 1f45 083f 1b3c 463e 78a1 29be
00000070: 6e8c f2bd 76e2 e03d 1b61 fabe 373f b5bd
0.12579016 0.5181667 -0.2667135 0.27206576 0.071250565 0.09945106 -0.42059517 -0.27695507
0.3110625 0.32685265 0.12303421 0.18893392 0.071046546 0.3104615 0.13918792 0.14084691
-0.5061659 -0.24207728 0.121370524 0.14592713 -0.37113768 0.508552 0.13214947 0.27438682
-0.16453825 0.5323047 0.19358866 -0.16565502 -0.11843191 0.10980694 -0.4890221 -0.08849948

rnn.bias_hh_l0 f4 [32]
00000000: bacd 523e baac 953e c866 07bf edf1 503e
00000010: 59de b23d 7c05 ce3e 186e 03bf b8ea d3be
00000020: f87b dd3d ce40 223e d956 53be 4b87 823e
00000030: e674 7ebe aff5 373e 6f82 c5be 98e8 c4be
00000040: b651 04be e343 f5be b0c5 85be 06bb ed3e
00000050: a05e b5be 3fff db3e 41b3 bdbe a00c 2c3e
00000060: c17a 803e 479b f93e 59f4 1d3d a0ff 25be
00000070: 29b8 dc3d fb3a 6b3e 2827 23be fdcd 91be
0.20586291 0.29233342 -0.52891207 0.20404787 0.08733816 0.4023856 -0.51339865 -0.41390014
0.10814661 0.15845034 -0.20638599 0.25493845 -0.2484928 0.17964815 -0.38576075 -0.38458705
-0.12921795 -0.47903356 -0.26127386 0.4643175 -0.35423756 0.42968175 -0.37050822 0.16801691
0.25093654 0.4875128 0.038563106 -0.16210794 0.10777313 0.22971718 -0.15932906 -0.2847747

out.weight f4 [1, 8]
00000000: 3b88 d8bd 0980 b2be 9d8e 3a3e e02d 2a3e
00000010: b3d1 ebbd 9bb0 a53e 887b be3d 4ced a43d
-0.10572859 -0.34863308 0.18218465 0.16619062 -0.11514606 0.32361302 0.093009055 0.08053073
