ckpt/169.ckpt (torch_old, 3319 bytes, 5 tensors)

rnn.weight_ih_l0 f4 [32, 7]
0	0x3ec8fda6	0.39256018
1	0x3e9393bc	0.2882365
2	0x3f122d9a	0.5710083
3	0x3ebb537d	0.36587134
4	0x3ea3a015	0.3195807
5	0x3d42ac69	0.047527704
6	0x3f10d776	0.5657877
7	0x3eb35067	0.3502228
8	0x3f0c2ce4	0.54756
9	0x3f3f47c8	0.74718904
10	0x3f29f1f3	0.6638481
11	0x3eb494ae	0.35269684
12	0x3e8ec170	0.27881956
13	0x3e9cde00	0.30638123
14	0xbec1033e	-0.37697786
15	0xbda578c8	-0.08079678
16	0xbf4aa42a	-0.79156744
17	0xbf4cc311	-0.7998515
18	0xbebc002c	-0.3671888
19	0x3f4196dd	0.75620824
20	0x3ef48198	0.47755122
21	0x3f294868	0.6612611
22	0x3f1c89aa	0.6114756
23	0x3e0349ff	0.12821196
24	0xbd1b2604	-0.03787805
25	0x3cf5ea32	0.0300189
26	0x3ee525c5	0.44755378
27	0x3e8b8cb4	0.27255785
28	0x3e2b2eb2	0.16717032
29	0xbc6aa520	-0.014321595
30	0x3e2de917	0.16983448
31	0x3ddb0bce	0.10695611
32	0x3ed03cb3	0.4067131
33	0xbe3af527	-0.1825758
34	0x3e931247	0.28724882
35	0x3f2f7e9c	0.68552566
36	0xbdd918d6	-0.1060044
37	0x3ee8b033	0.4544693
38	0x3f3d5417	0.73956436
39	0x3f014492	0.50495255
40	0xbeb80e90	-0.3594861
41	0xbf298227	-0.6621422
42	0xbb3d497e	-0.0028882916
43	0xbeccedb3	-0.400251
44	0xbdf3bd6b	-0.11901363
45	0xbeb086ca	-0.34477836
46	0xbf073406	-0.52813756
47	0xbebaba43	-0.3647023
48	0xbe90a042	-0.28247267
49	0xbd55a741	-0.05216146
50	0x3d444e22	0.047926076
51	0xbeddebbc	-0.43343914
52	0xbefa6ac8	-0.48909593
53	0x3dee5e62	0.11639096
54	0xbdcec5bd	-0.10096309
55	0xbd9be318	-0.07611674
56	0x3e9de117	0.30835792
57	0x3da2ea58	0.07954854
58	0x3d4c88f9	0.049935315
59	0x3e1eb692	0.15499333
60	0x3e3c33b5	0.183791
61	0x3edfbbf7	0.43698093
62	0x3ed202a8	0.41017652
63	0x3f0e2320	0.55522346
64	0x3f160490	0.5860071
65	0xbd77ed86	-0.060529254
66	0x3e907f35	0.2822205
67	0x3ea6bb42	0.3256474
68	0x3eb3baf1	0.35103562
69	0x3ec055f0	0.37565565
70	0xbf1bfe54	-0.6093495
71	0x3e66d736	0.22543034
72	0xbf01b30c	-0.5066383
73	0xbee493af	-0.44643924
74	0xbe5df20d	-0.21674366
75	0x3f01dc61	0.50726897
76	0x3f8d4241	1.1035844
77	0x3ea3a406	0.31961077
78	0x3e50ced1	0.20391394
79	0x3e921b78	0.28536582
80	0x3e22e4fe	0.15907666
81	0x3e81a421	0.25320533
82	0x3ef9696f	0.48713252
83	0x3ebf743b	0.37393364
84	0xbebfb47f	-0.37442395
85	0x3c476744	0.012170617
86	0x3e07c4a8	0.13258612
87	0x3d7b794e	0.061394982
88	0xbd3fa6a1	-0.04678977
89	0xbee3e306	-0.44509143
90	0x3edb7572	0.4286304
91	0x3ea141c2	0.31495482
92	0x3eae4611	0.3403783
93	0x3e49248f	0.19642852
94	0x3f227a9f	0.63468355
95	0xbcc2df2e	-0.023788061
96	0xbec77a14	-0.38960326
97	0xbf0725b2	-0.52791893
98	0x3d846f80	0.064665794
99	0x3dbbbeef	0.09167277
100	0x3dfb2dd8	0.122646034
101	0xbdf7dcb3	-0.12102642
102	0xbe968627	-0.29399225
103	0xbe96f5d3	-0.29484424
104	0x3e48b735	0.19601138
105	0xbef6a5d0	-0.4817338
106	0x3d5500a9	0.052002583
107	0xbeb61fb0	-0.3557105
108	0xbef352f0	-0.47524214
109	0x3e043cdb	0.1291384
110	0xbeeb760a	-0.45988494
111	0xbe1c890f	-0.15286659
112	0xbea86140	-0.32886696
113	0xbee7c402	-0.4526673
114	0x3d01ec76	0.031719647
115	0xbef0269a	-0.4690445
116	0xbec63a19	-0.387162
117	0x3ca37b03	0.019956117
118	0xbe905437	-0.2818925
119	0x3cfd143a	0.030893434
120	0xbeeba2da	-0.46022683
121	0xbdc4d213	-0.09610381
122	0xbeb077c9	-0.3446639
123	0xbeacfe60	-0.33787823
124	0xbf17ce01	-0.5929871
125	0xbef3b2d5	-0.47597376
126	0x3d87c6a3	0.06629684
127	0x3cf27ef7	0.029601557
128	0xbe061d93	-0.13097219
129	0x3e8f0f88	0.27941537
130	0x3e49e55d	0.19716401
131	0xbe45d101	-0.1931801
132	0xbf294dcb	-0.6613433
133	0x3d9e64a5	0.0773404
134	0x3e97704f	0.29577872
135	0x3ed66cdf	0.41879937
136	0x3cba8323	0.022767609
137	0x3db9dd34	0.09075394
138	0x3e24c1f5	0.16089614
139	0xbda42ffe	-0.08016966
140	0x3d10ac4b	0.03532056
141	0xbe48c7a5	-0.19607408
142	0xbe7c5d97	-0.24645077
143	0xbe0f91c1	-0.14020444
144	0xbef21821	-0.47284034
145	0xbeadfc56	-0.3398158
146	0xbd70fd4d	-0.058835316
147	0x3dea7904	0.11448863
148	0x3f0b6b68	0.54460764
149	0x3e8b90b0	0.27258825
150	0x3e9b20cf	0.30298468
151	0x3d9a4ed3	0.07534566
152	0xbde11dd2	-0.10992016
153	0x3e585473	0.21125965
154	0x3d9705c9	0.0737415
155	0xbe8c3be2	-0.27389437
156	0xbc094bc2	-0.0083798785
157	0xbee1bc68	-0.44089055
158	0xbe4d11d0	-0.20026326
159	0x3db1de3f	0.08684968
160	0x3d0a885e	0.033821456
161	0x3efea330	0.49733877
162	0x3e8aa006	0.27075213
163	0xbddb9dea	-0.10723479
164	0xbc0d4a15	-0.00862362
165	0xbc8333a9	-0.016015844
166	0x3e1359cd	0.14389725
167	0x3d7a3d15	0.06109341
168	0x3d26bacb	0.040705483
169	0x3e8aaf99	0.27087095
170	0x3e3baa0e	0.1832659
171	0xbdc798b0	-0.0974592
172	0x3f067247	0.52518123
173	0xbe035533	-0.1282547
174	0x3d4d25ae	0.050084762
175	0xbea938dc	-0.33051193
176	0xbea1295e	-0.31476873
177	0x3e1d4964	0.15360028
178	0x3f286fe5	0.6579574
179	0x3efc3e38	0.4926622
180	0xbe56331c	-0.20917934
181	0x3d914e74	0.07095042
182	0xbf032daf	-0.5124158
183	0x3ef1cf9d	0.4722871
184	0xbdf1edc7	-0.118129306
185	0xbea2ec0c	-0.31820714
186	0xbf29fcb4	-0.6640122
187	0x3eee484f	0.46539542
188	0x3ea305bc	0.31840312
189	0x3dab9974	0.08378878
190	0x3e360864	0.17776638
191	0xbe120bab	-0.14262263
192	0xbde4a496	-0.11164205
193	0x3e322bda	0.1739954
194	0xbe9ea7b7	-0.3098733
195	0xbe15a3a3	-0.14613204
196	0x3ead758d	0.33878747
197	0x3e5c4b1f	0.21513031
198	0x3ec3f50e	0.382729
199	0x3e9a98c2	0.3019467
200	0x3f1bd25e	0.6086787
201	0x3c4c4a4c	0.012468886
202	0xbddd453d	-0.10804222
203	0x3c758a06	0.014986521
204	0xbd5fef62	-0.054671653
205	0x3e833258	0.25624347
206	0x3d80c741	0.06288005
207	0x3e82b0fa	0.25525647
208	0x3e34d7a0	0.1766038
209	0x3ec16daf	0.37778994
210	0xbefb0c32	-0.49032742
211	0xbe30bf30	-0.17260432
212	0xbee7d108	-0.45276666
213	0x3ce86428	0.02836807
214	0xbf1c086f	-0.6095037
215	0xbe78a043	-0.24279885
216	0xbdb032ca	-0.08603437
217	0xbc2f1826	-0.01068691
218	0xbed81fa5	-0.42211643
219	0x3dd088e4	0.1018236
220	0x3db29fc1	0.08721877
221	0xbeb6ae28	-0.35679746
222	0xbe8ad1e6	-0.27113265
223	0xbf03f565	-0.5154632

rnn.weight_hh_l0 f4 [32, 8]
0	0xbe4ef662	-0.20211175
1	0xbd6eabe5	-0.0582694
2	0x3e29ea55	0.16593297
3	0x3eff9efb	0.4992598
4	0x3de1e87b	0.1103067
5	0xbddf6111	-0.10907186
6	0x3e9a3aee	0.30123085
7	0xbf0596f2	-0.5218345
8	0xbf0ba1a1	-0.545435
9	0xbf0e1cae	-0.5551251
10	0x3e130c0e	0.14360067
11	0x3d2806c9	0.041022096
12	0xbeac6c9d	-0.33676615
13	0x3f019067	0.50610965
14	0x3ea52080	0.32251358
15	0x3dcb3b60	0.09923434
16	0x3f1e26bb	0.6177785
17	0x3eaac381	0.33352283
18	0xbf7fc8d9	-0.99915844
19	0x3ddc1dff	0.10747909
20	0x3d9c835e	0.07642244
21	0xbf40ea97	-0.75357956
22	0xbe17f6a5	-0.14840181
23	0xbded300b	-0.11581429
24	0x3d994619	0.07484073
25	0x3e2dfd3e	0.16991135
26	0x3d66ffa2	0.056396134
27	0x3eb5f14f	0.35535666
28	0xbece959a	-0.40348512
29	0x3ea66d65	0.32505336
30	0x3e910b45	0.2832891
31	0xbe6325bc	-0.22182363
32	0x3e2e85a5	0.17043169
33	0x3ebb41f7	0.36573765
34	0x3ea2af3a	0.31774312
35	0xbe062b8c	-0.1310255
36	0x3ed20b06	0.41024035
37	0xbf1c39f3	-0.61025923
38	0x3dad092c	0.08449015
39	0xbea56688	-0.32304788
40	0xbe07954c	-0.13240546
41	0x3ce8e4d4	0.028429426
42	0x3fb6cbaa	1.4280903
43	0xbe86140f	-0.26187178
44	0xbe5e83d0	-0.2172997
45	0x3e201efc	0.1563682
46	0x3ddab893	0.10679736
47	0xbf0dccdd	-0.5539072
48	0x3d0edd9b	0.03487931
49	0x3ec847d6	0.39117306
50	0x3e4f1cd0	0.20225835
51	0xbd775390	-0.060382426
52	0x3ed60816	0.41803044
53	0xbe938788	-0.2881434
54	0x3e389b34	0.18027955
55	0x3d869c2d	0.06572757
56	0x3e64a2cd	0.22327729
57	0x3f145bda	0.57952654
58	0xbda8ff0e	-0.08251773
59	0xbe86fdbc	-0.2636546
60	0x3e2dffe7	0.1699215
61	0xbdcd84c5	-0.100350894
62	0xbe6892ae	-0.22712204
63	0x3b3b2d4d	0.0028560937
64	0xbeca2ff5	-0.39489713
65	0xbf06387f	-0.52429956
66	0x3ec92673	0.39287147
67	0xbd263212	-0.040575095
68	0xbd126658	-0.035742134
69	0x3effae89	0.49937847
70	0xbd12a931	-0.035805885
71	0xbf0bb8bb	-0.5457875
72	0xbef91ce8	-0.48654866
73	0x3d8999be	0.06718777
74	0x3bde4285	0.006782832
75	0x3ea87653	0.32902774
76	0xbe0d03d9	-0.13770999
77	0x3dfc5544	0.123209506
78	0x3d9f9d87	0.07793718
79	0xbe837386	-0.25674075
80	0xbd7ee89b	-0.06223355
81	0x3e7a7c33	0.2446144
82	0xbf8013bf	-1.0006026
83	0x3eac70f8	0.33679938
84	0x3e913111	0.28357747
85	0x3e772037	0.24133383
86	0xbe9a45e9	-0.30131462
87	0x3ea88550	0.3291421
88	0xbecf47a1	-0.40484336
89	0xbd691757	-0.056907024
90	0x3e664ace	0.22489473
91	0x3df97a3c	0.121815175
92	0xbe410195	-0.1884826
93	0xbd227797	-0.03966483
94	0xbe38e262	-0.18055108
95	0x3d7c2b6e	0.061564855
96	0x3af8f056	0.0018992524
97	0x3eabdecd	0.3356842
98	0x3e411ecf	0.18859409
99	0x3dc22ee6	0.094816014
100	0x3ee68367	0.45022127
101	0xbe2204c6	-0.15822133
102	0x3ea36602	0.31913763
103	0xbf0b2fcc	-0.5436981
104	0xbed14ae3	-0.40877447
105	0xbe916e1d	-0.28404322
106	0x3f14dede	0.5815257
107	0xbe318bae	-0.1733844
108	0x3e12a29a	0.1431984
109	0x3ee219f4	0.44160426
110	0xbe5e58dd	-0.21713586
111	0xbeac80f4	-0.33692133
112	0xba391413	-0.0007060181
113	0x3ef87d54	0.48533118
114	0xbe626d5a	-0.22112027
115	0xbeb82d56	-0.3597209
116	0x3f0dfa46	0.5546001
117	0xbed83921	-0.42231086
118	0xbe411466	-0.18855438
119	0x3ea02afb	0.31282791
120	0x3cda0207	0.026612295
121	0x3e8bfe07	0.27342245
122	0x3db66b8b	0.08907231
123	0xbe002bba	-0.1251668
124	0x3eeb6c3f	0.45981023
125	0xbd3c5023	-0.04597486
126	0xbdd335f2	-0.103130236
127	0xbe496230	-0.19666362
128	0x3e9bc1a5	0.30421177
129	0x3f0fc038	0.5615268
130	0xbe992f45	-0.29918876
131	0xbf097f99	-0.53710324
132	0xbc9e8423	-0.019350117
133	0xbe15816b	-0.1460015
134	0x3d9a441f	0.07532524
135	0x3e25f732	0.16207579
136	0x3e8d7fcb	0.2763656
137	0x3d4230b0	0.047409713
138	0x3de89497	0.11356466
139	0xbee9e834	-0.4568497
140	0x3ee196fb	0.440605
141	0xbd905c32	-0.07048835
142	0x3d500698	0.05078754
143	0x3e4f1467	0.20222627
144	0x3d1f74ed	0.03892987
145	0xbe5b69ba	-0.2142705
146	0x3ecb3dc0	0.3969555
147	0xbe145493	-0.14485388
148	0xbd942e9e	-0.07235454
149	0x3e4d01e2	0.2002025
150	0xbe36fd37	-0.17870031
151	0x3ee23b58	0.441859
152	0xbf0e37da	-0.5555397
153	0xbefff703	-0.49993142
154	0x3c6e6a6c	0.01455174
155	0x3e90d153	0.28284702
156	0xbe85ea55	-0.26155344
157	0x3e01948b	0.12654321
158	0xbd20b127	-0.039231446
159	0xbc914d8b	-0.01773717
160	0x3ea2cfa1	0.31799033
161	0xbd931b4c	-0.07182941
162	0xbd530d7a	-0.051526524
163	0x3e71a105	0.2359658
164	0x3e0dfc17	0.13865696
165	0xbe527bbe	-0.20555016
166	0xbef49e3a	-0.47776967
167	0x3ee27dc3	0.44236574
168	0xbeed9b63	-0.46407613
169	0x3d9bc057	0.07605045
170	0x3e9ecad3	0.31014118
171	0xbe10d941	-0.14145376
172	0xbe3419e2	-0.17587999
173	0x3db7dbac	0.08977446
174	0x3eb74e23	0.358018
175	0x3e19bd82	0.15013698
176	0xbdabd8e4	-0.08390978
177	0xbe1ba504	-0.15199667
178	0x3e36f585	0.17867096
179	0xbe968c03	-0.29403695
180	0xbc0c481d	-0.008562115
181	0xbde154ab	-0.11002477
182	0xbe1e994c	-0.15488166
183	0x3eadd29e	0.3394975
184	0xbd55fcde	-0.052243106
185	0x3dc03afb	0.0938625
186	0xbe123e97	-0.14281689
187	0x3ef1e16b	0.47242293
188	0xbe848ab8	-0.25887084
189	0x3ed8469b	0.42241368
190	0xbdbff5e6	-0.09373073
191	0xbe97ebc7	-0.2967207
192	0x3ea13de0	0.3149252
193	0xbd5de9d3	-0.05417807
194	0x3f4a93c9	0.7913175
195	0x3e442de5	0.19158132
196	0x3eff333b	0.49843773
197	0xbaacc088	-0.0013179937
198	0xbd235a42	-0.039881
199	0x3d86c60a	0.06580742
200	0xbe5d9e5f	-0.21642445
201	0xbe1b917d	-0.15192218
202	0x3f1dc5d6	0.6163
203	0x3e492e1e	0.19646499
204	0x3e3e858c	0.18605632
205	0xbe949db4	-0.29026568
206	0x3da50f9b	0.08059617
207	0xbebbdc4b	-0.36691508
208	0xbebd5bcd	-0.369841
209	0xbd582218	-0.05276689
210	0xbf18cc7f	-0.59687036
211	0x3f052e7e	0.52024066
212	0xbe40d657	-0.18831764
213	0x3d0e2756	0.034705482
214	0xbcb9e465	-0.022691915
215	0x3e6aaad2	0.22916725
216	0x3e4d7bdd	0.20066781
217	0x3e07f494	0.13276893
218	0xbdeb57de	-0.11491369
219	0x3dfe2efe	0.12411307
220	0x3ee7f316	0.45302647
221	0xbf064fea	-0.5246569
222	0xbee55953	-0.4479471
223	0x3e387c41	0.18016149
224	0x3de51432	0.111854926
225	0xbdfeb5d4	-0.12437025
226	0x3f0bba73	0.54581374
227	0x3c63e754	0.013910133
228	0x3ec91bbd	0.39278975
229	0xbe8aa78e	-0.2708096
230	0xbe84e33d	-0.2595462
231	0xbe0968bc	-0.13418859
232	0xbe071be7	-0.13194238
233	0x3eb8ad02	0.36069494
234	0x3eeef2ed	0.46669713
235	0xbe88eaee	-0.26741737
236	0xbe0429b3	-0.12906532
237	0xbe9af179	-0.30262354
238	0xbc96b384	-0.018396147
239	0xbede07db	-0.43365368
240	0x3ecb0354	0.39650977
241	0x3ef895d2	0.48551804
242	0xbe1a3e7e	-0.15062901
243	0xbebf4f71	-0.37365296
244	0x3ed9afcb	0.42516932
245	0xbe900475	-0.281284
246	0xbe03aafd	-0.12858196
247	0xbdaae07a	-0.08343597
248	0x3e570454	0.20997745
249	0x3ec6a5c9	0.3879836
250	0xbcb8bac8	-0.022550002
251	0xbedcb0bf	-0.43103597
252	0x3d546e06	0.05186274
253	0xbe967557	-0.29386398
254	0xbe00e950	-0.12589002
255	0x3da148b7	0.078751974

rnn.bias_ih_l0 f4 [32]
0	0x3e05ec7f	0.13078497
1	0x3f074dd0	0.5285311
2	0xbe8de128	-0.27710843
3	0x3e8fc35b	0.28078732
4	0x3d4256d0	0.047446072
5	0x3db4d487	0.08829599
6	0xbed8669c	-0.42265785
7	0xbe8c8f1a	-0.27452928
8	0x3e9e99ac	0.30976617
9	0x3ea662c4	0.32497227
10	0x3e251e29	0.16124786
11	0x3e401948	0.18759644
12	0x3d66912b	0.056290787
13	0x3ea46fd6	0.32116574
14	0x3e0f6233	0.14002304
15	0x3e1044a3	0.14088683
16	0xbf01f86f	-0.50769705
17	0xbe7bc6ad	-0.24587508
18	0x3dfec8e7	0.12440663
19	0x3e179e78	0.14806545
20	0xbebcc5aa	-0.36869556
21	0x3f023742	0.50865567
22	0x3e08ae99	0.13347854
23	0x3e8ce5cb	0.27519068
24	0xbe369082	-0.17828563
25	0x3f0ab170	0.54177
26	0x3e4a8a8e	0.19779417
27	0xbe366829	-0.17813171
28	0xbe0183a2	-0.1264787
29	0x3dd93a2f	0.10606801
30	0xbefb47c8	-0.49078202
31	0xbdb05096	-0.086091205

rnn.bias_hh_l0 f4 [32]
0	0x3e57eb16	0.21085772
1	0x3e9afb35	0.3026978
2	0xbf0a1006	-0.539307
3	0x3e59e03a	0.21276942
4	0x3d821dee	0.06353365
5	0x3ec84f60	0.39123058
6	0xbf03f549	-0.5154615
7	0xbed2acc4	-0.41147435
8	0x3ddad444	0.10685018
9	0x3e2053e0	0.15656996
10	0xbe2c355e	-0.16817233
11	0x3e81d7fc	0.25360096
12	0xbe86c885	-0.2632486
13	0x3e42ebba	0.19035235
14	0xbec514f7	-0.38492557
15	0xbec4e35c	-0.3845471
16	0xbe05e30b	-0.13074891
17	0xbef735ae	-0.48283142
18	0xbe8437bd	-0.25823775
19	0x3eeed34c	0.46645582
20	0xbeb41e88	-0.35179543
21	0x3edc0cd6	0.42978543
22	0xbebd050f	-0.36917922
23	0x3e2cdf57	0.16882072
24	0x3e72e1b8	0.23718917
25	0x3efe73e6	0.49697798
26	0x3d2f2e2d	0.042768646
27	0xbe32c651	-0.17458464
28	0x3dcc3d56	0.099726364
29	0x3e6766d5	0.22597821
30	0xbe24f47e	-0.16108891
31	0xbe909256	-0.28236645

out.weight f4 [1, 8]
0	0xbdd15721	-0.10221697
1	0xbeaf0a8a	-0.34187728
2	0x3e1a800a	0.15087906
3	0x3e24f75d	0.16109987
4	0xbdf9fb57	-0.122061424
5	0x3ea873ea	0.32900935
6	0x3dbbe53a	0.09174581
7	0x3daa7805	0.08323673
