ckpt/189.ckpt (torch_old, 3319 bytes, 5 tensors)

rnn.weight_ih_l0 f4 [32, 7]
0.40765336 0.29586488 0.5810226 0.3741895 0.33133817 0.049641024 0.56599605 0.3700076
0.55920887 0.76190525 0.67701095 0.36736855 0.28455824 0.30908814 -0.42419186 -0.09658326
-0.82302487 -0.806127 -0.39978424 0.77644914 0.51181144 0.6785914 0.62212557 0.14075486
-0.026884284 0.043480057 0.4524324 0.27370262 0.19578417 0.050838966 0.17112531 0.06768912
0.4567739 -0.1842955 0.4186389 0.74076563 -0.060226455 0.50435156 0.76735514 0.5474854
-0.40329647 -0.6656179 -0.00095910905 -0.40332794 -0.11722467 -0.34235123 -0.5284373 -0.36784115
-0.28669986 -0.04828118 0.05131483 -0.43099368 -0.48755693 0.119478926 -0.09825656 -0.07411367
0.30820525 0.07880795 0.049250793 0.15408818 0.18371359 0.435607 0.40933803 0.55498
0.5848161 -0.061573766 0.28088042 0.32553765 0.34911305 0.3744435 -0.6245488 0.21688507
-0.5066795 -0.4362331 -0.2319772 0.5133972 1.1417614 0.31853434 0.20309976 0.28425917
0.15772723 0.2527171 0.4864222 0.3734782 -0.35336244 0.04629628 0.15042582 0.057907168
-0.010446759 -0.44814724 0.49692193 0.34033415 0.3703471 0.2248152 0.64773095 -0.002158874
-0.41009593 -0.5307651 0.067352094 0.09214378 0.12476422 -0.118804626 -0.29261872 -0.2948359
0.19519977 -0.48214847 0.051998455 -0.35612375 -0.47583675 0.12891339 -0.45957875 -0.15261048
-0.33245102 -0.45457083 0.029204808 -0.4712734 -0.3898252 0.019196043 -0.282284 0.025257654
-0.46427014 -0.10057794 -0.34878927 -0.34229967 -0.59574574 -0.47688076 0.10652887 0.06900135
-0.0931358 0.2838482 0.23709673 -0.19469349 -0.6732501 0.08068511 0.29804742 0.42140535
0.025122816 0.09332667 0.1622962 -0.07965632 0.037026107 -0.19921662 -0.24392469 -0.1360436
-0.4736554 -0.342706 -0.06463944 0.1190995 0.5468536 0.2760624 0.30470398 0.07845579
-0.11613833 0.20826077 0.072999686 -0.27321285 -0.008731594 -0.4413883 -0.20044318 0.08880746
0.03492172 0.4982538 0.27160475 -0.10648802 -0.008060837 -0.015260659 0.14455861 0.06151701
0.026691223 0.29816684 0.16865444 -0.1329199 0.5319845 -0.12887673 0.11065642 -0.3411239
-0.26820752 0.14485143 0.6228537 0.5122762 -0.19508152 0.14497614 -0.543224 0.43839964
-0.14990748 -0.33647844 -0.6903424 0.48840407 0.3255453 0.07355839 0.19823311 -0.15577453
-0.13653138 0.18106946 -0.30421486 -0.08250315 0.37606862 0.25532755 0.39931896 0.30012202
0.6509834 0.02138777 -0.05505777 0.0069424678 -0.019707378 0.23932822 0.026384534 0.26528934
0.19256125 0.46215504 -0.48837128 -0.17543265 -0.4504529 0.03130912 -0.6096802 -0.24599364
-0.090416186 -0.0069027767 -0.41892043 0.104161896 0.08872546 -0.35386154 -0.26844618 -0.5136653
00000000: f1b7 d03e 9a7b 973e e6bd 143f c495 bf3e
00000010: 28a5 a93e 6354 4b3d 1ee5 103f a371 bd3e
00000020: 5028 0f3f 390c 433f 9750 2d3f bb17 bc3e
00000030: 9eb1 913e cd40 9e3e ad2f d9be 72cd c5bd
00000040: c2b1 52bf 575e 4ebf 85b0 ccbe 5fc5 463f
00000050: 1306 033f 2ab8 2d3f 9f43 1f3f 0b22 103e
00000060: 6e3c dcbc 2518 323d 38a5 e73e c022 8c3e
00000070: a57b 483e 853c 503d 793b 2f3e 98a0 8a3d
00000080: 45de e93e f6b7 3cbe d757 d63e d1a2 3d3f
00000090: 04b0 76bd 2f1d 013f 6371 443f 0128 0c3f
000000a0: e07c cebe ef65 2abf b86c 7bba 0081 cebe
000000b0: 7d13 f0bd a948 afbe ab47 07bf ad55 bcbe
000000c0: 53ca 92be 7dc2 45bd 802f 523d 34ab dcbe
000000d0: 10a1 f9be 5eb1 f43d bc3a c9bd e8c8 97bd
000000e0: 14cd 9d3e 1066 a13d 33bb 493d 4bc9 1d3e
000000f0: 6a1f 3c3e e107 df3e c194 d13e 2b13 0e3f
00000100: 82b6 153f c634 7cbd 8fcf 8f3e dfac a63e
00000110: f2be b23e 0fb7 bf3e 6ee2 1fbf 1f17 5e3e
00000120: bfb5 01bf f259 dfbe 6e8b 6dbe 006e 033f
00000130: 3d25 923f ef16 a33e 62f9 4f3e 6b8a 913e
00000140: 3f83 213e 2364 813e 550c f93e 8938 bf3e
00000150: eceb b4be 2ba1 3d3d 3a09 1a3e 1130 6d3d
00000160: e228 2bbc 8e73 e5be 8d6c fe3e 4740 ae3e
00000170: 239e bd3e f535 663e b2d1 253f e57b 0dbb
00000180: 18f8 d1be 39e0 07bf e5ef 893d e1b5 bc3d
00000190: 6284 ff3d d74f f3bd 1fd2 95be bbf4 96be
000001a0: 73e2 473e 2adc f6be 55fc 543d da55 b6be
000001b0: e0a0 f3be df01 043e e84d ebbe ec45 1cbe
000001c0: 0537 aabe 82bd e8be ec3e ef3c bf4a f1be
000001d0: 2b97 c7be 0541 9d3c 8787 90be 24e9 ce3c
000001e0: d1b4 edbe cffb cdbd 8294 b2be e741 afbe
000001f0: cb82 18bf b729 f4be cf2b da3d 9450 8d3d
00000200: fbbd bebd 8d54 913e 7cc9 723e bb5d 47be
00000210: 1e5a 2cbf 3c3e a53d ac99 983e 71c2 d73e
00000220: 5dce cd3c 0e22 bf3d fa30 263e da22 a3bd
00000230: b0a8 173d 71ff 4bbe 65c7 79be 034f 0bbe
00000240: f682 f2be 2977 afbe af61 84bd 70ea f33d
00000250: 99fe 0b3f 0d58 8d3e 2902 9c3e 6ead a03d
00000260: efd9 edbd 5042 553e dc80 953d 8ee2 8bbe
00000270: f60e 0fbc a6fd e1be fa40 4dbe b0e0 b53d
00000280: 140a 0f3d 1f1b ff3e c70f 8b3e 6416 dabd
00000290: 9a11 04bc d807 7abc 2c07 143e 43f9 7b3d
000002a0: 8da7 da3c 53a9 983e c0b3 2c3e 271c 08be
000002b0: 2330 083f 43f8 03be d59f e23d cba7 aebe
000002c0: 7f52 89be ef53 143e 5773 1f3f 8824 033f
000002d0: 73c3 47be a074 143e ba10 0bbf eb75 e03e
000002e0: 5981 19be e746 acbe 48ba 30bf 1910 fa3e
000002f0: e0ad a63e c8a5 963d 9ffd 4a3e 5c83 1fbe
00000300: e2ce 0bbe 466a 393e 0dc2 9bbe 69f7 a8bd
00000310: 118c c03e 4bba 823e 8973 cc3e 98a9 993e
00000320: d9a6 263f 6835 af3c 4284 61bd a47d e33b
00000330: 5e71 a1bc 7512 753e 6124 d83c 01d4 873e
00000340: c72e 453e 969f ec3e cd0b fabe 9ea4 33be
00000350: c3a1 e6be fe3d 003d 0014 1cbf c2e5 7bbe
00000360: 1f2c b9bd b030 e2bb bd7c d6be d552 d53d
00000370: b2b5 b53d 572d b5be c771 89be 927f 03bf

rnn.weight_hh_l0 f4 [32, 8]
-0.20029634 -0.056406956 0.16685686 0.49766287 0.112148434 -0.111964054 0.30273747 -0.52401644
-0.54340374 -0.55368996 0.14384195 0.039173193 -0.3342556 0.5029155 0.322786 0.0987892
0.6073802 0.31682587 -1.0275182 0.12192424 0.071718216 -0.74198526 -0.15415084 -0.10582216
0.07639289 0.17153642 0.056865595 0.35395893 -0.40185863 0.32262316 0.2839762 -0.22278371
0.21666683 0.42869493 0.2955668 -0.17493205 0.42923167 -0.64987475 0.12488074 -0.3774502
-0.122197635 0.0438868 1.4397702 -0.27087465 -0.21428277 0.14515354 0.11153397 -0.56639737
0.022426974 0.3814903 0.20463412 -0.05018796 0.4065425 -0.27500078 0.17991945 0.06651476
0.22699845 0.5822538 -0.080463685 -0.26789573 0.17365462 -0.102387145 -0.22699532 0.0027049016
-0.3936463 -0.5229643 0.39323553 -0.04161617 -0.03464911 0.49741745 -0.03487649 -0.54717773
-0.4836665 0.069671355 0.007386392 0.3264155 -0.13457616 0.11856056 0.078424975 -0.25753734
-0.0833651 0.21918924 -1.011716 0.35656476 0.26277456 0.26755333 -0.3078378 0.3398226
-0.40354222 -0.05550322 0.22507566 0.12071432 -0.18713781 -0.04150629 -0.18010975 0.060925465
0.0018776327 0.34136724 0.17234659 0.0894883 0.44223943 -0.15356547 0.33418196 -0.55721956
-0.418318 -0.28952125 0.6035799 -0.16751078 0.1344987 0.45573145 -0.21618994 -0.3391362
-0.0068408777 0.48220745 -0.22010818 -0.35538098 0.54774135 -0.41640598 -0.18865941 0.3130414
0.02731992 0.27396706 0.08978579 -0.1262053 0.46141297 -0.04596637 -0.10310067 -0.19668677
0.30381173 0.56119597 -0.299297 -0.5367563 -0.019809397 -0.14534864 0.07520513 0.16231222
0.27564102 0.04690001 0.113513224 -0.4561371 0.43947268 -0.069434084 0.050710276 0.2023238
0.026889287 -0.21780238 0.43116543 -0.1425891 -0.08344839 0.21600853 -0.17551029 0.43867224
-0.5551286 -0.49969867 0.014572663 0.28243953 -0.26092967 0.12601621 -0.03920261 -0.017775673
0.31017184 -0.080166146 -0.048820034 0.24263568 0.13145483 -0.19589345 -0.47966164 0.44605896
-0.45954725 0.08038354 0.3220322 -0.14608705 -0.17264625 0.0839869 0.35852456 0.1489073
-0.082920074 -0.15113787 0.17923354 -0.29519442 -0.006377245 -0.110084556 -0.15482123 0.33944178
-0.051657803 0.09429823 -0.14235136 0.47179312 -0.25805283 0.42195517 -0.0937042 -0.29675794
0.33341968 -0.02728001 0.78849417 0.17253637 0.50750965 -0.014376138 -0.021201901 0.0414485
-0.20152421 -0.12858048 0.6133324 0.17813937 0.19542511 -0.2930522 0.08822185 -0.38117182
-0.3657035 -0.05305989 -0.59319884 0.5153099 -0.17940193 0.031277545 -0.022869738 0.23157722
0.21622825 0.15462749 -0.13562247 0.109566554 0.4601278 -0.53557205 -0.43785116 0.16555813
0.12093457 -0.10829921 0.5353511 0.003719625 0.3942947 -0.27589515 -0.24136916 -0.1491754
-0.110349625 0.39191917 0.4414847 -0.2887548 -0.11861942 -0.31777 -0.0032249712 -0.45512405
0.38301322 0.47429496 -0.14808376 -0.36266804 0.41312772 -0.2667904 -0.12900284 -0.08252274
0.21252108 0.390057 -0.02031907 -0.43424147 0.05427916 -0.2944976 -0.12579489 0.07865871
00000000: 7c1a 4dbe fb0a 67bd 86dc 2a3e abcd fe3e
00000010: 14ae e53d 694d e5bd 6800 9b3e f125 06bf
00000020: 821c 0bbf a0be 0dbf 4e4b 133e 1274 203d
00000030: 8d23 abbe 12bf 003f 3544 a53e fe51 ca3d
00000040: 457d 1b3f 0037 a23e b785 83bf 6ab3 f93d
00000050: 00e1 923d bff2 3dbf b8d9 1dbe 4ab9 d8bd
00000060: e073 9c3d 3ea7 2f3e e6eb 683d 1b3a b53e
00000070: 6ac0 cdbe dd2e a53e 5465 913e 6a21 64be
00000080: e9dd 5d3e e77d db3e 8854 973e 6321 33be
00000090: 41c4 db3e 315e 26bf 79c1 ff3d 2741 c1be
000000a0: c142 fabd a5c2 333d 644a b83f 15b0 8abe
000000b0: f16c 5bbe 21a3 143e ec6b e43d 6bff 10bf
000000c0: c6b8 b73c b252 c33e 9b8b 513e e491 4dbd
000000d0: 5726 d03e e7cc 8cbe ce3c 383e e438 883d
000000e0: 4872 683e 960e 153f 25ca a4bd a129 89be
000000f0: 84d2 313e 5ab0 d1bd 7671 68be b844 313b
00000100: 028c c9be fde0 05bf 2b56 c93e b875 2abd
00000110: 3aec 0dbd 80ad fe3e a6da 0ebd d713 0cbf
00000120: 23a3 f7be dbaf 8e3d 8c09 f23b ef1f a73e
00000130: 55ce 09be e1cf f23d 469d a03d efdb 83be
00000140: 52bb aabd 2573 603e e97f 81bf a88f b63e
00000150: 638a 863e c0fc 883e eb9c 9dbe 3afd ad3e
00000160: 169d cebe 5857 63bd 3c7a 663e 1239 f73d
00000170: 0ea1 3fbe 8002 2abd b16e 38be fb8c 793d
00000180: e61a f63a b0c7 ae3e a07b 303e a445 b73d
00000190: 356d e23e 4440 1dbe e619 ab3e f1a5 0ebf
000001a0: c72d d6be 213c 94be 3684 1a3f f287 2bbe
000001b0: 07ba 093e a255 e93e e560 5dbe 43a3 adbe
000001c0: 7129 e0bb e5e3 f63e 0a64 61be 7ff4 b5be
000001d0: c738 0c3f 2a33 d5be ef2f 41be f646 a03e
000001e0: 06ce df3c 6945 8c3e 9de1 b73d f63b 01be
000001f0: 523e ec3e 3b47 3cbd 7226 d3bd 4268 49be
00000200: 368d 9b3e 8aaa 0f3f 753d 99be dc68 09bf
00000210: 5147 a2bc 46d6 14be 2605 9a3d 2d35 263e
00000220: d220 8d3e 3a1a 403d 9f79 e83d cd8a e9be
00000230: 9002 e13e 7533 8ebd 94b5 4f3d f82d 4f3e
00000240: ec46 dc3c 9607 5fbe b7c1 dc3e e102 12be
00000250: fde6 aabd 5731 5d3e f8b8 33be a699 e03e
00000260: e81c 0ebf 81d8 ffbe 2ec2 6e3c ea9b 903e
00000270: 9398 85be 650a 013e ea92 20bd 4a9e 91bc
00000280: d8ce 9e3e 262e a4bd 84f7 47bd 7d75 783e
00000290: 189c 063e 4b98 48be 3696 f5be d761 e43e
000002a0: c749 ebbe 20a0 a43d 68e1 a43e d897 15be
000002b0: 2eca 30be 5301 ac3d 8890 b73e 287b 183e
000002c0: 00d2 a9bd e3c3 1abe ff88 373e b923 97be
000002d0: 35f8 d0bb 0374 e1bd 7589 1ebe 50cb ad3e
000002e0: 2297 53bd 6e1f c13d 8ec4 11be de8e f13e
000002f0: 801f 84be 820a d83e fde7 bfbd a8f0 97be
00000300: fcb5 aa3e 547a dfbc c1da 493f 60ad 303e
00000310: 27ec 013f e589 6bbc 9caf adbc e7c5 293d
00000320: 5d5c 4ebe 9aaa 03be 5a03 1d3f 2b6a 363e
00000330: 851d 483e f00a 96be a8ad b43d f428 c3be
00000340: 7d3d bbbe 5455 59bd e1db 17bf 59eb 033f
00000350: 24b5 37be e21c 003d 5159 bbbc 9422 6d3e
00000360: f06a 5d3e ab56 1e3e 9ee0 0abe 6e64 e03d
00000370: df95 eb3e 401b 09bf 072e e0be 1288 293e
00000380: 8bac f73d facb ddbd c50c 093f f4c4 733b
00000390: ffe0 c93e 2142 8dbe 7a29 77be 70c1 18be
000003a0: fcfe e1bd a1a9 c83e 480a e23e abd7 93be
000003b0: bdee f2bd c0b2 a2be 0a5a 53bb 0506 e9be
000003c0: 4f1a c43e cad6 f23e 45a3 17be a0af b9be
000003d0: 7a85 d33e c098 88be 5219 04be af01 a9bd
000003e0: 209f 593e 8db5 c73e 2e74 a6bc e654 debe
000003f0: d353 5e3d 64c8 96be 60d0 00be d117 a13d

rnn.bias_ih_l0 f4 [32]
0.13531874 0.53808373 -0.2597258 0.28854826 0.026818393 0.08920477 -0.42285112 -0.27240574
0.3083584 0.32289344 0.18291017 0.18622681 0.0509296 0.3245938 0.14136384 0.14069293
-0.50911015 -0.24945495 0.124901876 0.15003367 -0.3671074 0.50735724 0.13409284 0.27589336
-0.19160019 0.54270905 0.19859669 -0.18401563 -0.12353071 0.09764998 -0.4905381 -0.08398434
00000000: ff90 0a3e dbbf 093f c8fa 84be 99bc 933e
00000010: 3fb2 db3c feb0 b63d f17f d8be c478 8bbe
00000020: 27e1 9d3e 4a52 a53e ce4c 3b3e 3eb2 3e3e
00000030: 8e9b 503d 2931 a63e afc1 103e cf11 103e
00000040: 0b55 02bf 1e71 7fbe 8ecc ff3d 6da2 193e
00000050: 80f5 bbbe 2ae2 013f a24f 093e e541 8d3e
00000060: d732 44be fbee 0a3f ee5c 4b3e 986e 3cbe
00000070: abfd fcbd b6fc c73d cf27 fbbe fbff abbd

rnn.bias_hh_l0 f4 [32]
0.21539149 0.31225038 -0.5219243 0.22053027 0.042905968 0.39213935 -0.51565504 -0.4093508
0.10544236 0.15449114 -0.14651002 0.2522313 -0.26860985 0.19378035 -0.38358483 -0.38474104
-0.13216206 -0.4864113 -0.2577426 0.468424 -0.35020727 0.42848718 -0.36856493 0.16952333
0.22387461 0.4979169 0.043571126 -0.18046856 0.10267434 0.21756014 -0.16084503 -0.28025964
00000000: 968f 5c3e 48df 9f3e d59c 05bf b0d2 613e
00000010: 2bbe 2f3d 7dc6 c83e f801 04bf 6e96 d1be
00000020: 2af2 d73d ed32 1e3e b906 16be 7624 813e
00000030: 3b87 89be 5b6e 463e 3b65 c4be c7fc c4be
00000040: 7e55 07be e70a f9be d7f6 83be 45d5 ef3e
00000050: 5e4e b3be ac62 db3e 8bb4 bcbe 8697 2d3e
00000060: 633f 653e f7ee fe3e a377 323d c0cc 38be
00000070: ed46 d23d 16c8 5e3e 8fb4 24be 317e 8fbe

out.weight f4 [1, 8]
-0.10027526 -0.33362156 0.1408677 0.15686972 -0.13500707 0.33720738 0.09139668 0.08430047
00000000: 1e5d cdbd 72d0 aabe 9f3f 103e 75a2 203e
00000010: 4b3f 0abe 72a6 ac3e 2f2e bb3d baa5 ac3d
