ckpt/219.ckpt (torch_old, 3319 bytes, 5 tensors)

rnn.weight_ih_l0 f4 [32, 7]
0.42895707 0.30666453 0.59520686 0.38599047 0.34794486 0.05270389 0.56633055 0.39680004
0.5749671 0.7818211 0.6948171 0.38724324 0.29230747 0.31273594 -0.4736928 -0.10686557
-0.8479809 -0.8069534 -0.42542496 0.8012547 0.5495487 0.7022962 0.6367431 0.15797818
-0.011775259 0.061902914 0.4592009 0.27533546 0.22611926 0.13510658 0.13697183 -0.038337566
0.48962927 -0.19595866 0.610726 0.81193066 -0.019778123 0.56731987 0.8015719 0.5992464
-0.47278333 -0.6670295 0.0032956493 -0.40594468 -0.11293845 -0.3366653 -0.52738136 -0.37179714
-0.292692 -0.04059839 0.057107486 -0.42617455 -0.48389372 0.12512451 -0.09308562 -0.07198685
0.3082831 0.07786087 0.04849097 0.15298274 0.18385196 0.4336968 0.40811363 0.5550182
0.5832866 -0.06282148 0.27914348 0.32571426 0.34640828 0.37269092 -0.6275879 0.21020317
-0.4879553 -0.40975758 -0.23061186 0.5151874 1.1836863 0.3172923 0.20206209 0.2829501
0.15599963 0.2522782 0.48540142 0.37283486 -0.30088905 0.1078999 0.18872146 0.051615715
0.05226847 -0.4552782 0.6125167 0.3741827 0.39862594 0.2611701 0.6627381 0.02377628
-0.45086506 -0.531199 0.07217045 0.09367962 0.1286177 -0.114670925 -0.2899007 -0.29459572
0.1940064 -0.48231265 0.05213864 -0.35647038 -0.47641018 0.12882209 -0.45885766 -0.15240237
-0.3376011 -0.45730436 0.025589809 -0.47447798 -0.3936534 0.018101618 -0.2828451 0.017391698
-0.46988863 -0.10680428 -0.35452038 -0.3484747 -0.5995429 -0.47811502 0.15501425 0.12231671
-0.051268063 0.28275388 0.2832414 -0.19146083 -0.68618244 0.085415095 0.3012546 0.42509165
0.028453723 0.096965544 0.16427512 -0.07893066 0.03905967 -0.20437258 -0.23968634 -0.12845197
-0.47466487 -0.34833503 -0.07463481 0.12595938 0.5493596 0.2810456 0.30739543 0.08304911
-0.12422573 0.20498145 0.0716798 -0.2722876 -0.009411132 -0.44234893 -0.20085403 0.09232898
0.03697803 0.4999066 0.27301612 -0.10517699 -0.0069990926 -0.013958566 0.14571846 0.062139925
0.016822433 0.3248971 0.1439924 -0.18702023 0.52998835 -0.13322811 0.18063204 -0.34993893
-0.22462283 0.12002594 0.5623474 0.5186087 -0.18036443 0.2278612 -0.5857271 0.40066844
-0.19571865 -0.36530617 -0.72331023 0.51250464 0.3206131 0.07446129 0.21945715 -0.17025037
-0.16914167 0.18857525 -0.29851744 -0.013328832 0.4332946 0.3083841 0.4176231 0.28811026
0.69972146 0.03594034 0.016251476 0.0038105352 0.022725575 0.208314 -0.03542891 0.26624477
0.21102259 0.56752235 -0.4841204 -0.1774105 -0.4452071 0.03793029 -0.60829335 -0.24994616
-0.09649138 0.000412226 -0.41355625 0.108642325 0.09215881 -0.34861133 -0.26333654 -0.5118234
00000000: 43a0 db3e 2203 9d3e 7a5f 183f 8ba0 c53e
00000010: d425 b23e 09e0 573d 0afb 103f 6029 cb3e
00000020: 0b31 133f 6d25 483f 89df 313f bf44 c63e
00000030: 53a9 953e ed1e a03e dd87 f2be 56dc dabd
00000040: 4715 59bf 7f94 4ebf 4dd1 d9be 071f 4d3f
00000050: 39af 0c3f afc9 333f 9901 233f 08c5 213e
00000060: 04ed 40bc e98d 7d3d 611c eb3e c5f8 8c3e
00000070: cf8b 673e 6159 0a3e 5842 0c3e da07 1dbd
00000080: b0b0 fa3e 63a9 48be 8a58 1c3f b0da 4f3f
00000090: bb05 a2bc e03b 113f d133 4d3f 3668 193f
000000a0: a810 f2be 72c2 2abf d2fb 573b fbd7 cfbe
000000b0: 464c e7bd 655f acbe 7702 07bf 325c bebe
000000c0: badb 95be 7f4a 26bd 8ae9 693d 8d33 dabe
000000d0: ebc0 f7be a420 003e aca3 bebd d76d 93bd
000000e0: 48d7 9d3e 8575 9f3d 789e 463d 82a7 1c3e
000000f0: b043 3c3e 820d de3e 45f4 d03e ac15 0e3f
00000100: 4552 153f 8ca8 80bd e5eb 8e3e 05c4 a63e
00000110: 6d5c b13e 58d1 be3e 9aa9 20bf 803f 573e
00000120: 47d5 f9be bfcb d1be 8425 6cbe 52e3 033f
00000130: 0883 973f 2374 a23e 5de9 4e3e d6de 903e
00000140: 5ebe 1f3e 9c2a 813e 8986 f83e 36e4 be3e
00000150: 210e 9abe 9ffa dc3d 3340 413e 006b 533d
00000160: 7717 563d 391a e9be e5cd 1c3f e094 bf3e
00000170: b318 cc3e 16b8 853e 34a9 293f 79c6 c23c
00000180: c9d7 e6be a8fc 07bf 1ace 933d 1adb bf3d
00000190: 5cb4 033e 97d8 eabd dd6d 94be 40d5 96be
000001a0: 9da9 463e aff1 f6be 548f 553d 4983 b6be
000001b0: 09ec f3be f0e9 033e 64ef eabe 5e0f 1cbe
000001c0: 0dda acbe cc23 eabe b8a1 d13c c7ee f2be
000001d0: f08c c9be d849 943c 13d1 90be 0979 8e3c
000001e0: 3e95 f0be 34bc dabd b283 b5be 476b b2be
000001f0: a57b 19bf 7ecb f4be 0ebc 1e3e 2f81 fa3d
00000200: 76fe 51bd 1ec5 903e 0405 913e 4f0e 44be
00000210: a7a9 2fbf 1cee ae3d 0b3e 9a3e 9da5 d93e
00000220: c817 e93c df95 c63d bd37 283e 66a6 a1bd
00000230: 08fd 1f3d 0c47 51be 5670 75be ea88 03be
00000240: 4607 f3be f858 b2be 23da 98bd 7ffb 003e
00000250: d5a2 0c3f 35e5 8f3e ef62 9d3e a715 aa3d
00000260: 0f6a febd a8e6 513e dccc 923d 4869 8bbe
00000270: 2631 1abc 8f7b e2be aeac 4dbe fa16 bd3d
00000280: 4676 173d c2f3 ff3e c5c8 8b3e 0967 d7bd
00000290: a558 e5bb 78b2 64bc 3837 153e 6f86 7e3d
000002a0: 33cf 893c ea58 a63e be72 133e 3b82 3fbe
000002b0: 51ad 073f f36c 08be 9bf7 383e 322b b3be
000002c0: 8703 66be 29d0 f53d 00f6 0f3f 8ac3 043f
000002d0: 74b1 38be 7254 693e 36f2 15bf 6a24 cd3e
000002e0: 786a 48be 6909 bbbe dc2a 39bf 8133 033f
000002f0: 6627 a43e 297f 983d 60b9 603e 1d56 2ebe
00000300: 7933 2dbe df19 413e 47d7 98be 2c61 5abc
00000310: cad8 dd3e 85e4 9d3e b2d2 d53e 3083 933e
00000320: f220 333f 2e36 133d d121 853c 2cba 793b
00000330: fc2a ba3c 4450 553e e81d 11bd 3c51 883e
00000340: 4e16 583e 2549 113f a1de f7be 19ab 35be
00000350: 2ff2 e3be cb5c 1b3d 1db9 1bbf e3f1 7fbe
00000360: 469d c5bd 0a20 d839 a5bd d3be de7f de3d
00000370: c2bd bc3d 2f7d b2be 0cd4 86be dc06 03bf

rnn.weight_hh_l0 f4 [32, 8]
-0.19796418 -0.053925805 0.16790907 0.49556455 0.11450993 -0.11574454 0.30479303 -0.5269731
-0.54068935 -0.55171686 0.14406252 0.036662165 -0.3308558 0.4985632 0.3231625 0.09816966
0.58684915 0.2917768 -1.0287924 0.1392823 0.05984079 -0.71239334 -0.15964781 -0.09472412
0.078330345 0.17364794 0.057370126 0.35217032 -0.39982665 0.319533 0.2849003 -0.22406375
0.2986015 0.5449469 0.27396774 -0.2501061 0.45406726 -0.7193272 0.20351845 -0.4717939
-0.100895956 0.07060893 1.4537103 -0.29072353 -0.20770578 0.124800526 0.119841255 -0.58660436
0.0029424632 0.3657396 0.20733908 -0.033765417 0.38874763 -0.2551576 0.17922743 0.06787141
0.2275227 0.5836255 -0.07718582 -0.26988935 0.173758 -0.10062948 -0.22687478 0.002685883
-0.39203507 -0.521158 0.3943013 -0.043007165 -0.03329863 0.4948822 -0.033557676 -0.5490869
-0.47980684 0.07314708 0.007964994 0.32285517 -0.1304795 0.11218138 0.0791406 -0.2586749
-0.11536159 0.18466651 -0.988695 0.3765679 0.22912122 0.3158709 -0.3137616 0.35032496
-0.40192086 -0.05364711 0.22563532 0.11928233 -0.1854619 -0.043801297 -0.17948066 0.0600418
-0.0038484526 0.34590867 0.15119195 0.08416842 0.41657996 -0.13696727 0.3624882 -0.57845646
-0.42390886 -0.29088596 0.61764747 -0.16442475 0.1250668 0.46585444 -0.21381712 -0.3453407
-0.017154835 0.47678632 -0.21894385 -0.34775388 0.5362773 -0.40693986 -0.18887123 0.31343195
0.026836473 0.27408084 0.09091155 -0.12642182 0.46145362 -0.044637885 -0.10307367 -0.19667163
0.30328092 0.5607446 -0.29943377 -0.53628594 -0.020429678 -0.14447115 0.07504119 0.16263819
0.2746673 0.046192713 0.11346617 -0.45516285 0.43794495 -0.06798776 0.05060211 0.20246065
0.009244107 -0.22550373 0.45687106 -0.13415316 -0.09924056 0.23298213 -0.17226127 0.43662736
-0.5545898 -0.49938393 0.014596872 0.2818944 -0.26010263 0.1253147 -0.03916334 -0.017828414
0.29845184 -0.093341984 -0.042954396 0.25270525 0.1209063 -0.18195659 -0.48312074 0.45205945
-0.45312345 0.08640021 0.33446634 -0.1524924 -0.16815852 0.07550032 0.35925496 0.14719187
-0.082621254 -0.15052618 0.17992432 -0.29600194 -0.0037093458 -0.10871826 -0.15472886 0.33939302
-0.051361077 0.09461765 -0.14173588 0.4713599 -0.25748938 0.42186782 -0.09367649 -0.2967794
0.35744554 0.009475453 0.7916134 0.14821392 0.5149733 -0.03031524 0.0068315836 0.009696526
-0.18068475 -0.09487326 0.6214361 0.15319236 0.20299618 -0.29624513 0.100509934 -0.39989477
-0.35450605 -0.042676363 -0.5548398 0.49746764 -0.15951465 0.021305053 -0.020794008 0.23105268
0.2336585 0.18177003 -0.1243929 0.09186809 0.4649644 -0.5445361 -0.42216524 0.14732416
0.13175759 -0.08647878 0.524452 -0.0089180935 0.39207694 -0.27922243 -0.21219294 -0.16885534
-0.08155301 0.4368544 0.41711265 -0.31651667 -0.11042146 -0.33583468 0.021268751 -0.48393965
0.36182308 0.45600912 -0.14509432 -0.3450132 0.39436632 -0.24464163 -0.12980862 -0.080959745
0.21181493 0.39073128 -0.016848573 -0.43515813 0.05305688 -0.29130125 -0.12571765 0.078714505
00000000: 1fb7 4abe 4ee1 5cbd 5bf0 2b3e a3ba fd3e
00000010: 2f84 ea3d 790b edbd d50d 9c3e b6e7 06bf
00000020: 9e6a 0abf 513d 0dbf 2085 133e 112b 163d
00000030: ee65 a9be ad43 ff3e 8e75 a53e 2d0d c93d
00000040: bf3b 163f c563 953e 78af 83bf 05a0 0e3e
00000050: 9e1b 753d 695f 36bf b77a 23be b8fe c1bd
00000060: a96b a03d c4d0 313e f0fc 6a3d ab4f b43e
00000070: 14b6 ccbe d499 a33e 74de 913e f870 65be
00000080: 4ce2 983e a481 0b3f 8045 8c3e e80d 80be
00000090: 817b e83e d425 38bf 2467 503e f88e f1be
000000a0: 8aa2 cebd 6a9b 903d 2e13 ba3f b7d9 94be
000000b0: d3b0 54be 6b97 ff3d 556f f53d b42b 16bf
000000c0: 57d6 403b 3942 bb3e b250 543e 9b4d 0abd
000000d0: ee09 c73e 04a4 82be 6587 373e 2a00 8b3d
000000e0: b6fb 683e 7b68 153f 9913 9ebd f02e 8abe
000000f0: 9eed 313e d416 cebd dd51 68be a405 303b
00000100: d2b8 c8be 9c6a 05bf dce1 c93e 4828 30bd
00000110: 2564 08bd 3361 fd3e c673 09bd f690 0cbf
00000120: 3ea9 f5be 23ce 953d 9b7f 023c 464d a53e
00000130: 6b9c 05be 5abf e53d 7814 a23d 0971 84be
00000140: b342 ecbd 3819 3d3e 1e1b 7dbf 82cd c03e
00000150: c19e 6a3e d5b9 a13e 5ca5 a0be cb5d b33e
00000160: 92c8 cdbe 12bd 5bbd f20c 673e 4b4a f43d
00000170: b9e9 3dbe fd68 33bd c7c9 37be 64ee 753d
00000180: 5236 7cbb f11a b13e 10d2 1a3e 7e60 ac3d
00000190: f849 d53e 2641 0cbe 0e98 b93e b915 14bf
000001a0: 950a d9be 01ef 94be 251e 1e3f f65e 28be
000001b0: 8311 003e 7984 ee3e e0f2 5abe 7fd0 b0be
000001c0: 4c88 8cbc 561d f43e d132 60be cc0c b2be
000001d0: 7849 093f 6c5a d0be 7667 41be 277a a03e
000001e0: 2ad8 db3c 5354 8c3e d62f ba3d b974 01be
000001f0: a643 ec3e 37d6 36bd 4a18 d3bd 4a64 49be
00000200: a347 9b3e f58c 0f3f 624f 99be 094a 09bf
00000210: 245c a7bc 3ff0 13be 32af 993d a08a 263e
00000220: 31a1 8c3e 9234 3d3d f460 e83d 1b0b e9be
00000230: 523a e03e 2b3d 8bbd 2844 4f3d d851 4f3e
00000240: 9874 173c 73ea 66be 01eb e93e 725f 09be
00000250: a23e cbbd de92 6e3e 4265 30be 9f8d df3e
00000260: 99f9 0dbf 40af ffbe b827 6f3c 7654 903e
00000270: 2c2c 85be 7f52 003e bd69 20bd e50c 92bc
00000280: aece 983e 152a bfbd f3f0 2fbd 9562 813e
00000290: b99d f73d d452 3abe 9a5b f7be 5674 e73e
000002a0: ccff e7be 98f2 b03d 2c3f ab3e f826 1cbe
000002b0: bf31 2cbe e99f 9a3d 44f0 b73e 77b9 163e
000002c0: 5535 a9bd 8923 1abe 153e 383e 918d 97be
000002d0: 7f18 73bb aea7 debd 3e71 1ebe ecc4 ad3e
000002e0: fe5f 52bd e6c6 c13d 3623 11be 1656 f13e
000002f0: a6d5 83be 0fff d73e 76d9 bfbd 78f3 97be
00000300: 1a03 b73e ee3e 1b3c 2da7 4a3f 64c5 173e
00000310: 4ad5 033f ab57 f8bc 7adb df3b 2ede 1e3c
00000320: 6c05 39be e94c c2bd 7016 1f3f 75de 1c3e
00000330: 3bde 4f3e 71ad 97be 27d8 cd3d 02bf ccbe
00000340: d181 b5be 69cd 2ebd fb09 0ebf 14b4 fe3e
00000350: cf57 23be ef87 ae3c 3258 aabc 1399 6c3e
00000360: 2c44 6f3e ec21 3a3e b4c1 febd 5625 bc3d
00000370: d00f ee3e b866 0bbf 0b26 d8be 25dc 163e
00000380: 76eb 063e c91b b1bd 7c42 063f 321d 12bc
00000390: 4fbe c83e 3ef6 8ebe 1b49 59be 6ae8 2cbe
000003a0: 4405 a7bd 61ab df3e ca8f d53e 790e a2be
000003b0: a524 e2bd 86f2 abbe ce3b ae3c f0c6 f7be
000003c0: e040 b93e 077a e93e 9b93 14be 92a5 b0be
000003d0: 62ea c93e 5683 7abe 8dec 04be 39ce a5bd
000003e0: 03e6 583e ee0d c83e 0506 8abc 0ccd debe
000003f0: 2c52 593d 7025 95be 21bc 00be 1235 a13d

rnn.bias_ih_l0 f4 [32]
0.14180462 0.55098975 -0.23615372 0.29928178 -0.016538765 0.0848121 -0.42216066 -0.2679128
0.30645397 0.31998923 0.20931627 0.18439567 0.046253175 0.3231922 0.14377816 0.1406984
-0.5111429 -0.2543996 0.12828034 0.15281707 -0.36545578 0.50587255 0.13521324 0.27714902
-0.20893611 0.5423795 0.18995206 -0.1891294 -0.11554848 0.08731966 -0.4890993 -0.0796542
00000000: 3b35 113e aa0d 0d3f 48d2 71be 763b 993e
00000010: 4e7c 87bc f7b1 ad3d 7125 d8be de2b 89be
00000020: 89e7 9c3e a1d5 a33e 0157 563e 38d2 3c3e
00000030: f873 3d3d 7379 a53e 953a 133e 3e13 103e
00000040: 43da 02bf aa40 82be ec5b 033e 147c 1c3e
00000050: 051d bbbe dd80 013f 5775 0a3e 7ae6 8d3e
00000060: 59f3 55be 62d9 0a3f cb82 423e 23ab 41be
00000070: aea4 ecbd a6d4 b23d 396b fabe be21 a3bd

rnn.bias_hh_l0 f4 [32]
0.22187737 0.3251564 -0.49835208 0.23126383 -0.00045120227 0.3877467 -0.5149643 -0.40485787
0.10353786 0.15158696 -0.12010394 0.2504002 -0.27328622 0.1923788 -0.38117048 -0.38473555
-0.13419457 -0.491356 -0.25436413 0.47120732 -0.34855565 0.42700243 -0.36744463 0.17077892
0.20653869 0.4975876 0.034926523 -0.18558232 0.110656574 0.20722984 -0.15940629 -0.27592933
00000000: d233 633e e67a a63e 0128 ffbe 6dd0 6c3e
00000010: 588f ecb9 bc86 c63e b3d4 03bf 8849 cfbe
00000020: a80b d43d 9d39 1b3e 0ef9 f5bd 7434 803e
00000030: 2cec 8bbe f3fe 443e c728 c3be 0ffc c4be
00000040: 4d6a 09be 0393 fbbe 043c 82be 1642 f13e
00000050: e375 b2be 10a0 da3e b421 bcbe abe0 2e3e
00000060: e17e 533e cdc3 fe3e 1d0f 0f3d 4b09 3ebe
00000070: ea9f e23d 0f34 543e 673b 23be 9c46 8dbe

out.weight f4 [1, 8]
-0.0997111 -0.32310677 0.14098476 0.15355103 -0.16022938 0.35305756 0.09121391 0.08719756
00000000: 5535 ccbd 406e a5be 4f5e 103e 7b3c 1d3e
00000010: 2c13 24be f6c3 b43e 5cce ba3d a294 b23d
