ckpt/239.ckpt (torch_old, 3319 bytes, 5 tensors)

rnn.weight_ih_l0 f4 [32, 7]
0.44229642 0.3134338 0.60410696 0.3934023 0.3583534 0.05466662 0.56655455 0.41280568
0.58435 0.79369277 0.7054179 0.39912352 0.29689547 0.31488296 -0.49623993 -0.10477179
-0.85423875 -0.80645233 -0.43276423 0.8129334 0.56796265 0.7169405 0.64578056 0.1686381
-0.0024263212 0.073294476 0.46341273 0.27636033 0.2584293 0.18806058 0.10078326 -0.13537535
0.49322852 -0.20772348 0.72951347 0.8503982 -0.015703082 0.5990451 0.8187473 0.6258915
-0.5155041 -0.6705884 0.0070928773 -0.40615112 -0.10875571 -0.33132437 -0.5256236 -0.37456903
-0.2963643 -0.034373034 0.061683193 -0.42227247 -0.48056522 0.12954114 -0.088899866 -0.07105491
0.3085385 0.07733659 0.04815665 0.15241006 0.18411964 0.43257087 0.4073314 0.55532736
0.58245593 -0.063423246 0.27818587 0.326074 0.34475613 0.37158233 -0.6179283 0.2172211
-0.46394056 -0.38622102 -0.21685132 0.51568437 1.2086672 0.31667545 0.20146428 0.28225967
0.15499331 0.25216514 0.48479483 0.37242556 -0.24839488 0.15532334 0.22223553 0.045283202
0.097819336 -0.46229497 0.6936558 0.39340603 0.40543574 0.28089058 0.67066425 0.037482373
-0.47901332 -0.53120244 0.07608025 0.09541289 0.13182415 -0.1112229 -0.28753513 -0.29451752
0.19324936 -0.48213145 0.05242875 -0.35651922 -0.47656643 0.12893924 -0.45818016 -0.15233417
-0.34087583 -0.4590378 0.023293994 -0.47651196 -0.39608958 0.01740621 -0.2831985 0.012562183
-0.47331834 -0.11061225 -0.35801724 -0.35226914 -0.601831 -0.47884724 0.17455354 0.15140828
-0.035224 0.27659285 0.30306262 -0.18921208 -0.69515777 0.08842443 0.3032902 0.4274339
0.030568022 0.0992818 0.16552669 -0.07847424 0.0396866 -0.2078567 -0.23664652 -0.12252516
-0.47525263 -0.3533181 -0.08127934 0.13043995 0.5504716 0.28421548 0.30940172 0.086150795
-0.12764978 0.20385335 0.07063548 -0.27172968 -0.009997721 -0.44315636 -0.20121685 0.09544116
0.0386906 0.50117755 0.27408424 -0.10418385 -0.0061454107 -0.0129777035 0.14659812 0.06255452
0.017026993 0.3350621 0.12521741 -0.22235598 0.52212554 -0.13477436 0.21280062 -0.34595332
-0.20734258 0.09970342 0.5226354 0.51507527 -0.16928962 0.2665652 -0.61184263 0.3906211
-0.22537616 -0.38742578 -0.7434395 0.51811475 0.3096961 0.08274616 0.22950582 -0.17914867
-0.18935776 0.19048458 -0.29355046 0.017831976 0.47175077 0.33598727 0.4241221 0.27435434
0.72060734 0.04743012 0.052861985 0.007896688 0.04482069 0.18295881 -0.08050582 0.2575665
0.2211032 0.62000567 -0.48038092 -0.17701645 -0.44022557 0.044022076 -0.6062021 -0.25270388
-0.10006314 0.0062568714 -0.4093367 0.112213045 0.095226966 -0.34456083 -0.25921047 -0.5110517
00000000: ad74 e23e 657a a03e c1a6 1a3f 076c c93e
00000010: 197a b73e 1bea 5f3d b809 113f 445b d33e
00000020: f697 153f 732f 4b3f 4496 343f eb59 cc3e
00000030: af02 983e 5738 a13e 2913 febe 9892 d6bd
00000040: 64af 5abf a973 4ebf 4693 ddbe 671c 503f
00000050: 0066 113f 6a89 373f e051 253f 77af 2c3e
00000060: ea02 1fbb 6a1b 963d 6f44 ed3e 1a7f 8d3e
00000070: d850 843e f492 403e 7467 ce3d d69f 0abe
00000080: 7388 fc3e 77b5 54be 65c1 3a3f b2b3 593f
00000090: c0a3 80bc 055b 193f 6c99 513f 6d3a 203f
000000a0: 14f8 03bf aeab 2bbf 5e6b e83b 0af3 cfbe
000000b0: 50bb debd 59a3 a9be 458f 06bf 83c7 bfbe
000000c0: 10bd 97be bdca 0cbd 84a7 7c3d 1934 d8be
000000d0: a50c f6be 6fa6 043e 2211 b6bd 3d85 91bd
000000e0: c2f8 9d3e a562 9e3d e83f 453d 6211 1c3e
000000f0: dc89 3c3e ee79 dd3e be8d d03e ef29 0e3f
00000100: d51b 153f 0ce4 81bd 616e 8e3e 2cf3 a63e
00000110: e083 b03e 0a40 be3e 8d30 1ebf 356f 5e3e
00000120: 9e89 edbe c3be c5be 460e 5ebe e403 043f
00000130: 9bb5 9a3f 4923 a23e a74c 4e3e 5784 903e
00000140: 91b6 1e3e ca1b 813e 0737 f83e 90ae be3e
00000150: 3a5b 7ebe 150d 1f3e b691 633e e17a 393d
00000160: 8155 c83d edb1 ecbe 6d93 313f 846c c93e
00000170: 4695 cf3e e4d0 8f3e a7b0 2b3f 1e87 193d
00000180: 3c41 f5be e2fc 07bf f6cf 9b3d d567 c33d
00000190: e9fc 063e d5c8 e3bd ce37 93be 00cb 96be
000001a0: 29e3 453e efd9 f6be 87bf 563d b089 b6be
000001b0: 8400 f4be a608 043e 9796 eabe 7dfd 1bbe
000001c0: 4787 aebe 0107 ebbe 0cd3 be3c 60f9 f3be
000001d0: 41cc cabe 7897 8e3c 65ff 90be 9dd1 4d3c
000001e0: c856 f2be ad88 e2bd 094e b7be 9f5c b4be
000001f0: 9911 1abf 772b f5be 2abe 323e c60a 1b3e
00000200: 0b47 10bd 949d 8d3e 062b 9b3e d0c0 41be
00000210: dcf5 31bf de17 b53d da48 9b3e 9ed8 da3e
00000220: ca69 fa3c 4254 cb3d d47f 293e 1ab7 a0bd
00000230: 6b8e 223d 63d8 54be 7753 72be 79ee fabd
00000240: 5054 f3be 1ce6 b4be c875 a6bd 0d92 053e
00000250: b5eb 0c3f b184 913e e769 9e3e d46f b03d
00000260: a0b6 02be efbe 503e 56a9 903d 2720 8bbe
00000270: 7bcd 23bc 64e5 e2be ca0b 4ebe a876 c33d
00000280: 097a 1e3d 2c4d 003f c554 8c3e 585e d5bd
00000290: 715f c9bb 6fa0 54bc d11d 163e 961c 803d
000002a0: 317c 8b3c 428d ab3e fe38 003e 49b1 63be
000002b0: 05aa 053f 4a02 0abe 68e8 593e cb20 b1be
000002c0: 9d51 54be 4f31 cc3d 6fcb 053f f9db 033f
000002d0: 425a 2dbe 3c7b 883e b8a1 1cbf 7dff c73e
000002e0: 02c9 66be ac5c c6be 0d52 3ebf 2ba3 043f
000002f0: 7d90 9e3e d276 a93d 9303 6b3e c072 37be
00000300: 00e7 41be 640e 433e 3f4c 96be 5d14 923c
00000310: 5189 f13e 8606 ac3e 8826 d93e 2c78 8c3e
00000320: b979 383f 1646 423d cf85 583d 1c61 013c
00000330: e695 373d 8e59 3b3e 3ce0 a4bd c2df 833e
00000340: e168 623e b1b8 1e3f 7df4 f5be cd43 35be
00000350: 3f65 e1be 7e50 343d 1030 1bbf 6762 81be
00000360: e7ed ccbd 7106 cd3b 9494 d1be f4cf e53d
00000370: 5b06 c33d 476a b0be 3cb7 84be 49d4 02bf

rnn.weight_hh_l0 f4 [32, 8]
-0.19663289 -0.052460764 0.16840002 0.49433225 0.11581692 -0.11792822 0.30605602 -0.5287732
-0.5390817 -0.55051744 0.14413178 0.03514325 -0.32887095 0.49595198 0.32339576 0.097783685
0.5725281 0.27730694 -1.0089183 0.14707355 0.05036153 -0.6893122 -0.16122344 -0.09020496
0.07943526 0.174897 0.05754292 0.35112232 -0.39871514 0.31774482 0.2854702 -0.2248442
0.36264962 0.63858056 0.27226102 -0.30912074 0.4625541 -0.77289635 0.27216896 -0.5444506
-0.08210821 0.091015026 1.4609873 -0.30864733 -0.19925864 0.10643105 0.12608069 -0.60048145
-0.010905815 0.3542774 0.20918225 -0.021590665 0.3770899 -0.24142447 0.17863251 0.068911575
0.22485831 0.5827747 -0.0755227 -0.26818272 0.17060867 -0.09695419 -0.22686122 0.0028342018
-0.39113155 -0.5200941 0.39512584 -0.04382191 -0.032605924 0.493459 -0.032718595 -0.5502472
-0.47756028 0.0752613 0.00811705 0.3207323 -0.12825936 0.10839507 0.079606935 -0.25939214
-0.13962032 0.16070043 -0.95959765 0.3888112 0.20208241 0.35425872 -0.3165625 0.35586405
-0.40098676 -0.05252144 0.22591658 0.118423365 -0.18455432 -0.045134075 -0.1790674 0.05948336
-0.010906159 0.34685212 0.146788 0.08160465 0.38763437 -0.11944209 0.38704404 -0.5932767
-0.42398205 -0.28949845 0.61525095 -0.16451696 0.120849535 0.4676531 -0.21228635 -0.3497862
-0.025136791 0.4725226 -0.21820393 -0.34155005 0.5279223 -0.3997913 -0.18906216 0.31375095
0.02549332 0.2736545 0.09149733 -0.12551576 0.45993698 -0.042985063 -0.10307385 -0.19661959
0.30296734 0.56047153 -0.2995006 -0.5360014 -0.020794006 -0.14394844 0.07494009 0.1628407
0.27408823 0.04575925 0.11345062 -0.4545706 0.43706065 -0.06711572 0.050534263 0.20254648
-0.00085973286 -0.23080471 0.45988062 -0.1261813 -0.10600407 0.23868644 -0.17131348 0.43683928
-0.55426854 -0.499191 0.014605863 0.2815624 -0.2596203 0.12489097 -0.039138813 -0.017861458
0.2906662 -0.10245846 -0.038809452 0.25960407 0.11461047 -0.17311822 -0.4859285 0.4563138
-0.44969684 0.08942726 0.33659986 -0.15561365 -0.1658734 0.070538834 0.35964972 0.14630446
-0.083375975 -0.1507318 0.1799748 -0.29570913 -0.0025706515 -0.10673935 -0.1546688 0.33940133
-0.051528696 0.09460488 -0.14146587 0.4714352 -0.25755048 0.42215183 -0.09366892 -0.29676738
0.37144777 0.03137119 0.7949096 0.13433087 0.5162796 -0.039425 0.024984878 -0.0072572045
-0.16899513 -0.075464204 0.62722737 0.13946952 0.20231064 -0.29767323 0.10853623 -0.40872666
-0.34422153 -0.028210862 -0.5100394 0.47957847 -0.1443489 0.011722462 -0.017658915 0.22755165
0.24303514 0.19739321 -0.10309554 0.08179763 0.4653477 -0.5483189 -0.41148907 0.13764994
0.13774273 -0.0734073 0.52296054 -0.016199226 0.38810438 -0.27969262 -0.19176452 -0.17932145
-0.06370084 0.46609557 0.41140792 -0.33360595 -0.109919704 -0.34611356 0.038952496 -0.5004385
0.34669375 0.44264725 -0.14296995 -0.3319575 0.381938 -0.22907911 -0.1304994 -0.07976698
0.20859642 0.38956764 -0.015142456 -0.43295568 0.049404424 -0.28702396 -0.12573105 0.0789069
00000000: 225a 49be 19e1 56bd 0e71 2c3e 1e19 fd3e
00000010: 6c31 ed3d 5a84 f1bd 60b3 9c3e ae5d 07bf
00000020: 4201 0abf b6ee 0cbf 4897 133e 5ef2 0f3d
00000030: c661 a8be 6bed fd3e 2194 a53e d042 c83d
00000040: 3491 123f 2dfb 8d3e 3c24 81bf 739a 163e
00000050: e447 4e3d c476 30bf c217 25be 61bd b8bd
00000060: f4ae a23d 3318 333e 20b2 6b3d 4ec6 b33e
00000070: 6424 ccbe 73af a23e 2629 923e 8f3d 66be
00000080: 36ad b93e 047a 233f cc65 8b3e 1345 9ebe
00000090: e4d3 ec3e 89dc 45bf bb59 8b3e 1d61 0bbf
000000a0: 5928 a8bd 1666 ba3d a201 bb3f 0607 9ebe
000000b0: 750a 4cbe 86f8 d93d 4c1b 013e 27b9 19bf
000000c0: 4eae 32bc d963 b53e df33 563e e8de b0bc
000000d0: ed11 c13e fa37 77be 71eb 363e 8321 8d3d
000000e0: 4241 663e b930 153f a5ab 9abd 3f4f 89be
000000f0: 0ab4 2e3e eb8f c6bd 4f4e 68be 04be 393b
00000100: 6542 c8be e324 05bf ef4d ca3e 9a7e 33bd
00000110: ca8d 05bd a8a6 fc3e ef03 06bd 00dd 0cbf
00000120: c882 f4be 9922 9a3d 60fd 043c 0637 a43e
00000130: 6c56 03be 3cfe dd3d f608 a33d 0ccf 84be
00000140: a1f8 0ebe a78e 243e 31a8 75bf 4312 c73e
00000150: b1ee 4e3e 6661 b53e 7b14 a2be d033 b63e
00000160: 234e cdbe b920 57bd ad56 673e f387 f23d
00000170: cffb 3cbe 82de 38bd 725d 37be d3a4 733d
00000180: bfaf 32bc 9a96 b13e 984f 163e 5720 a73d
00000190: 0378 c63e 0e9e f4bd a32a c63e fbe0 17bf
000001a0: 2d14 d9be 2439 94be 1681 1d3f 2277 28be
000001b0: f67f f73d 3a70 ef3e 9861 59be 2d17 b3be
000001c0: aceb cdbc 7bee f13e da70 5fbe a6df aebe
000001d0: ea25 073f 72b1 ccbe 8399 41be f7a3 a03e
000001e0: 5ed7 d03c 711c 8c3e f462 bb3d 3487 00be
000001f0: dc7c eb3e 1b11 30bd 6218 d3bd a556 49be
00000200: 891e 9b3e 107b 0f3f 2558 99be 6337 09bf
00000210: 3158 aabc 3867 13be 317a 993d b6bf 263e
00000220: 4b55 8c3e 0d6e 3b3d cc58 e83d 7abd e8be
00000230: 6ac6 df3e f773 89bd 04fd 4e3d 5868 4f3e
00000240: b25f 61ba 1258 6cbe 7975 eb3e ac35 01be
00000250: a918 d9bd 386a 743e cd6c 2fbe 66a9 df3e
00000260: 8be4 0dbf f695 ffbe 6e4d 6f3c f228 903e
00000270: f4ec 84be d6c6 ff3d 0550 20bd 3152 92bc
00000280: 33d2 943e bed5 d1bd a9f6 1ebd d3ea 843e
00000290: e5b8 ea3d e745 31be 9fcb f8be f6a1 e93e
000002a0: aa3e e6be a425 b73d d156 ac3e 2f59 1fbe
000002b0: b7da 29be aa76 903d 0224 b83e d6d0 153e
000002c0: 06c1 aabd 7059 1abe 504b 383e 3067 97be
000002d0: 6078 28bb 299a dabd 7f61 1ebe 03c6 ad3e
000002e0: c10f 53bd 34c0 c13d 6edc 10be f45f f13e
000002f0: a8dd 83be 4924 d83e 7ed5 bfbd e5f1 97be
00000300: 672e be3e 147f 003d 327f 4b3f 088e 093e
00000310: e62a 043f 1c7c 21bd 16ad cc3c d8cd edbb
00000320: 0f0d 2dbe fa8c 9abd f991 203f 19d1 0e3e
00000330: 852a 4f3e a068 98be 3e48 de3d 9f44 d1be
00000340: ce3d b0be 771a e7bc f191 02bf 4f8b f53e
00000350: 33d0 13be 920f 403c 6ea9 90bc 4d03 693e
00000360: 34de 783e 7221 4a3e c123 d3bd 8485 a73d
00000370: 0e42 ee3e a15e 0cbf b2ae d2be 1bf4 0c3e
00000380: 6e0c 0d3e 9156 96bd bee0 053f 3db4 84bc
00000390: 9eb5 c63e df33 8fbe eb5d 44be 0ba0 37be
000003a0: 9675 82bd 14a4 ee3e 0fa4 d23e 66ce aabe
000003b0: 951d e1bd cc35 b1be a78c 1f3d bd1c 00bf
000003c0: d881 b13e a9a2 e23e b766 12be 55f6 a9be
000003d0: 618d c33e b793 6abe a2a1 05be df5c a3bd
000003e0: 4d9a 553e 6975 c73e 1018 78bc 5eac ddbe
000003f0: 4b5c 4a3d cef4 92be a4bf 00be f199 a13d

rnn.bias_ih_l0 f4 [32]
0.1458996 0.5586441 -0.22352786 0.30593756 -0.050603326 0.07832951 -0.42103454 -0.26402748
0.30532938 0.31822035 0.2269365 0.18327995 0.045061085 0.32019064 0.1457171 0.14092927
-0.5124309 -0.25739384 0.1307864 0.15457918 -0.3649643 0.50564635 0.1361724 0.27812493
-0.2177964 0.5442957 0.17738105 -0.19042552 -0.10798783 0.08196989 -0.48739213 -0.07595176
00000000: b466 153e 4d03 0f3f 7de4 64be d9a3 9c3e
00000010: 6f45 4fbd 396b a03d d791 d7be 9c2e 87be
00000020: 2254 9c3e c7ed a23e 0b62 683e bdad 3b3e
00000030: f991 383d 07f0 a33e dd36 153e c34f 103e
00000040: ac2e 03bf 20c9 83be dfec 053e 014a 1e3e
00000050: 9adc babe 0a72 013f c770 0b3e 6466 8e3e
00000060: 0506 5fbe f756 0b3f 61a3 353e e8fe 42be
00000070: b928 ddbd d4df a73d 768b f9be 998c 9bbd

rnn.bias_hh_l0 f4 [32]
0.22597234 0.33281073 -0.48572627 0.23791958 -0.03451576 0.38126412 -0.51383823 -0.40097255
0.10241338 0.14981811 -0.10248373 0.24928449 -0.27447826 0.18937723 -0.3792315 -0.3845046
-0.13548249 -0.49435022 -0.251858 0.47296938 -0.34806418 0.42677632 -0.36648557 0.17175475
0.1976784 0.4995039 0.022355514 -0.18687844 0.11821722 0.2018801 -0.15769911 -0.27222696
00000000: 4b65 673e 2b66 aa3e 1db1 f8be 31a1 733e
00000010: 6660 0dbd 0d35 c33e e78a 03bf 464c cdbe
00000020: 1bbe d13d eb69 193e fde2 d1bd 6f44 7f3e
00000030: 6a88 8cbe 1bec 413e a22a c2be c9dd c4be
00000040: ecbb 0abe 791b fdbe 88f3 80be 0b29 f23e
00000050: 7835 b2be 6d82 da3e ffa3 bbbe 7ae0 2f3e
00000060: 356c 4a3e fabe ff3e e922 b73c 105d 3fbe
00000070: df1b f23d a8b9 4e3e e07b 21be 5561 8bbe

out.weight f4 [1, 8]
-0.099796 -0.31695992 0.14474806 0.15284196 -0.17909074 0.36334443 0.09121646 0.09028379
00000000: d861 ccbd 9248 a2be d638 143e 9a82 1c3e
00000010: 9063 37be 4808 ba3e b2cf ba3d b5e6 b83d
