ckpt/249.ckpt (torch_old, 3319 bytes, 5 tensors)

rnn.weight_ih_l0 f4 [32, 7]
000000 26 bc e5 3e 7e 24 a2 3e 0c bf 1b 3f 01 3f cb 3e
       0.44870108 0.31668466 0.6083839 0.39696506
000010 8e 09 ba 3e 23 d2 63 3d f5 10 11 3f 52 31 d7 3e
       0.36335415 0.055620324 0.566665 0.42029816
000020 05 b7 16 3f f6 9a 4c 3f 85 da 35 3f 30 33 cf 3e
       0.58873016 0.7992395 0.7103656 0.4046874
000030 0e 1a 99 3e 6c ba a1 3e 5b 64 01 bf 6f 1f d0 bd
       0.2990269 0.3158754 -0.50543755 -0.101622455
000040 1d ef 5a bf 8f 75 4e bf 17 81 de be 62 3e 51 3f
       -0.8552111 -0.8064813 -0.43457863 0.81735814
000050 7e 3c 13 3f 78 56 39 3f 62 6e 26 3f a5 ee 31 3e
       0.5751418 0.72397566 0.6501218 0.17376192
000060 8c 59 07 3b 78 52 a1 3d 26 4e ee 3e aa bf 8d 3e
       0.002065274 0.07877058 0.46543998 0.2768529
000070 89 84 90 3e da 57 5c 3e b9 04 a6 3d cf 26 43 be
       0.28226116 0.21517888 0.081063695 -0.19057773
000080 a8 58 fb 3e ea 90 5a be e8 71 48 3f 85 f5 5d 3f
       0.49091077 -0.21344343 0.7829881 0.8670276
000090 bb 11 a7 bc db 91 1c 3f 3b 4b 53 3f 7c 0d 23 3f
       -0.020394197 0.6116006 0.8253667 0.6369245
0000a0 01 38 09 bf 19 9a 2c bf ff e0 17 3c fb c3 cf be
       -0.5360108 -0.67422634 0.009269952 -0.4057921
0000b0 36 84 d9 bd 92 00 a8 be 9a 3f 06 bf b7 85 c0 be
       -0.1062092 -0.32812935 -0.524408 -0.37602016
0000c0 23 97 98 be 34 83 fd bc 32 92 83 3d 69 1a d7 be
       -0.29802808 -0.030946352 0.06424369 -0.42012337
0000d0 ad 0e f5 be 5b 1f 07 3e 58 42 b1 bd 45 c2 90 bd
       -0.4786276 0.13195555 -0.08655232 -0.07068304
0000e0 5e 11 9e 3e 28 eb 9d 3d b2 c5 44 3d ec d2 1b 3e
       0.30872625 0.07710868 0.0480401 0.15217179
0000f0 af ba 3c 3e 7b 36 dd 3e 29 5c d0 3e a6 39 0e 3f
       0.18430589 0.43205628 0.40695313 0.55556715
000100 70 04 15 3f da 5c 82 bd b6 37 8e 3e 5d 14 a7 3e
       0.58209896 -0.06365366 0.2777688 0.32632723
000110 de 1d b0 3e ea f9 bd 3e a9 79 1c bf 67 f2 64 3e
       0.34397787 0.37104732 -0.6112314 0.22358094
000120 07 61 e6 be 4b 71 bf be d6 b4 54 be 94 11 04 3f
       -0.449959 -0.37391123 -0.20772108 0.5158932
000130 c7 27 9c 3f b0 02 a2 3e b2 05 4e 3e 79 5d 90 3e
       1.2199639 0.31642675 0.2011936 0.28196314
000140 5d 3c 1e 3e 48 1b 81 3e 62 12 f8 3e e6 93 be 3e
       0.15452714 0.25216126 0.48451525 0.37222213
000150 82 f8 5d be 76 f6 38 3e 1e 66 76 3e 80 7e 26 3d
       -0.2167683 0.18062767 0.24062392 0.040647984
000160 c6 0a f6 3d 02 cc ee be b7 b9 3b 3f 4d da cd 3e
       0.120137736 -0.4664002 0.73330253 0.40205613
000170 d4 a4 cf 3e 71 2d 94 3e 38 8d 2c 3f 6e b6 31 3d
       0.4055544 0.2894092 0.6740298 0.04338687
000180 56 78 fc be 3a 22 08 bf eb 57 a0 3d 1b ad c5 3d
       -0.4931056 -0.53177226 0.07829269 0.09652158
000190 98 e1 08 3e ff b7 df bd 9b 81 92 be e5 c9 96 be
       0.13367307 -0.10923766 -0.28614506 -0.29450908
0001a0 5d 89 45 3e ed c2 f6 be 81 ac 57 3d 97 85 b6 be
       0.19290681 -0.48195592 0.052654747 -0.35648796
0001b0 3f 01 f4 be 7a 27 04 3e 65 60 ea be 19 f5 1b be
       -0.476572 0.12905684 -0.45776668 -0.15230216
0001c0 1d 57 af be d1 74 eb be 36 ba b5 3c 44 7a f4 be
       -0.3424615 -0.4598756 0.022183519 -0.4774953
0001d0 f4 66 cb be 13 d6 8b 3c ab 15 91 be 8f 39 28 3c
       -0.39726985 0.017069852 -0.28336844 0.010267629
0001e0 8b 2b f3 be c5 3a e6 bd e6 26 b8 be 0a 49 b5 be
       -0.47494158 -0.11241678 -0.35967177 -0.35407287
0001f0 f6 57 1a bf 01 58 f5 be b1 ae 38 3e d6 60 28 3e
       -0.6029047 -0.47918704 0.1803539 0.1644319
000200 81 30 f8 bc ee 79 8b 3e a4 c0 9e 3e 36 e8 40 be
       -0.030296566 0.27241462 0.31006348 -0.18838581
000210 af 14 33 bf 20 1a b8 3d df ca 9b 3e 51 6e db 3e
       -0.69953436 0.08989358 0.30428216 0.42857602
000220 20 6d 01 3d 53 a5 cd 3d 33 1f 2a 3e 6f 43 a0 bd
       0.03159821 0.10041299 0.16613464 -0.07825362
000230 ad 5d 22 3d 0f ae 56 be 44 cb 70 be 9a 78 f4 bd
       0.039640117 -0.20964836 -0.2351504 -0.119370654
000240 ad 7d f3 be 2b 69 b6 be 58 bb ac bd 05 cf 07 3e
       -0.4755682 -0.35627112 -0.084341705 0.13262565
000250 16 05 0d 3f 88 4a 92 3e c8 f1 9e 3e 1b 99 b3 3d
       0.55085886 0.28572488 0.3104384 0.08769437
000260 26 e0 03 be 12 6e 50 3e ca 7a 8f 3d 09 fd 8a be
       -0.12878475 0.20354488 0.07005842 -0.27146176
000270 0a 66 29 bc 61 22 e3 be ac 42 4e be d3 34 c7 3d
       -0.010339269 -0.44362167 -0.20142621 0.09726872
000280 fd 6a 22 3d 0c 7a 00 3f 23 a1 8c 3e 13 47 d4 bd
       0.039652813 0.5018623 0.27466688 -0.10365119
000290 0c de b9 bb 0e fb 4b bc e1 9a 16 3e 83 8d 80 3d
       -0.005672222 -0.012449993 0.14707519 0.06276991
0002a0 b0 70 9b 3c 5e 5e ad 3e 37 ab eb 3d c4 3c 75 be
       0.018974632 0.3386106 0.11507266 -0.23948961
0002b0 52 3c 04 3f 8f e1 09 be 61 e7 65 3e ab 44 ae be
       0.5165454 -0.1346495 0.22451545 -0.34036765
0002c0 3d 92 4d be 5a 8b b6 3d 7b 0a 01 3f 47 20 03 3f
       -0.20075317 0.08913298 0.50406617 0.51221126
0002d0 5e a1 26 be dc 00 90 3e ed cc 1f bf 8f 34 c8 3e
       -0.16272494 0.28125656 -0.62422067 0.391026
0002e0 54 88 75 be 29 72 cc be 5f d0 40 bf f3 8b 04 3f
       -0.23977786 -0.39930847 -0.7531795 0.51776046
0002f0 58 e5 9a 3e 17 79 b5 3d ad 7c 6f 3e e6 40 3c be
       0.302531 0.08860987 0.23387404 -0.18384132
000300 68 f4 4b be 58 ed 42 3e 48 a1 94 be 18 ec ef 3c
       -0.19917452 0.19035852 -0.29029298 0.029287383
000310 e4 97 fb 3e b8 f4 b1 3e d9 01 da 3e 2b 5e 88 3e
       0.4913932 0.34757018 0.42579535 0.26634344
000320 23 48 3a 3f 11 5d 5d 3d 50 52 89 3d 4e 87 40 3c
       0.7276632 0.054043833 0.06705153 0.011751009
000330 50 6e 5f 3d da c5 2c 3e fb b6 d4 bd 49 3f 80 3e
       0.05454856 0.1687235 -0.10386463 0.25048283
000340 f6 79 67 3e 56 e6 23 3f 50 de f4 be 5f 8a 34 be
       0.22605118 0.6402334 -0.4782586 -0.1763091
000350 89 db df be 79 1b 43 3d ee d2 1a bf 2c 1f 82 be
       -0.4372218 0.04763362 -0.60478103 -0.25414407
000360 96 19 d0 bd f0 e7 1a 3c bd 5e d0 be 8b d0 e9 3d
       -0.1016113 0.009454712 -0.4069728 0.114167295
000370 a8 aa c6 3d b7 49 af be fa 87 83 be 74 c0 02 bf
       0.09700519 -0.34235927 -0.2568968 -0.5107491

rnn.weight_hh_l0 f4 [32, 8]
000000 06 bb 48 be 1a 17 54 bd db a1 2c 3e 35 ce fc 3e
       -0.19602594 -0.051779844 0.16858618 0.49376073
000010 06 60 ee 3d b8 8f f3 bd 80 02 9d 3e bc 95 07 bf
       0.11639409 -0.118926466 0.3066597 -0.5296285
000020 2a d0 09 bf 87 c9 0c bf a0 9b 13 3e 15 02 0d 3d
       -0.5383326 -0.54995006 0.14414835 0.034425814
000030 03 eb a7 be 7c 4d fd 3e d3 a2 a5 3e 48 e1 c7 3d
       -0.32796487 0.49473178 0.32350788 0.09759766
000040 24 c2 10 3f 43 b0 8a 3e 9d 82 7e bf 8a 95 19 3e
       0.56546235 0.27087602 -0.9941805 0.14998451
000050 16 a8 3a 3d df 66 2d bf ea 5f 25 be 6f 92 b5 bd
       0.045570455 -0.67735094 -0.1614987 -0.088658206
000060 8e b9 a3 3d 21 b2 33 3e a9 e2 6b 3d 13 86 b3 3e
       0.07994376 0.1754842 0.057589207 0.35063228
000070 3f e4 cb be 24 43 a2 3e 38 4d 92 3e 93 9f 66 be
       -0.39822575 0.3169185 0.28574538 -0.2252181
000080 a8 87 cb 3e 61 b3 30 3f 6a c3 8d 3e 00 de ae be
       0.39751935 0.6902371 0.27688152 -0.34153748
000090 73 35 ed 3e da 41 4d bf e4 c7 9f 3e f5 54 15 bf
       0.4632984 -0.80178607 0.31207192 -0.5833276
0000a0 f4 38 91 bd e3 14 d2 3d 45 8a bb 3f ab 93 a3 be
       -0.07090941 0.1025789 1.4651572 -0.319486
0000b0 25 c0 45 be 4a 5f c2 3d 59 a8 04 3e 14 9a 1b bf
       -0.19311579 0.09490831 0.12954845 -0.6078198
0000c0 d8 10 95 bc f2 41 b2 3e 2a 0c 57 3e dd 19 75 bc
       -0.018196508 0.34815937 0.21000734 -0.01495978
0000d0 5f 31 be 3e ed f0 6f be c7 8e 36 3e d5 4f 8e 3d
       0.37147042 -0.2343175 0.17827903 0.069488205
0000e0 0b fc 63 3e 1a f1 14 3f 91 83 99 bd 46 5e 88 be
       0.22264116 0.5818039 -0.074957974 -0.26634425
0000f0 4c 40 2c 3e e5 5d c1 bd 23 53 68 be 0b 52 42 3b
       0.16821402 -0.09441737 -0.22687964 0.0029650952
000100 70 0d c8 be c1 04 05 bf b1 81 ca 3e 3f 06 35 bd
       -0.39072752 -0.5196038 0.39552072 -0.04419541
000110 2a 63 04 bd 46 53 fc 3e 6a 57 04 bd e1 00 0d bf
       -0.032321133 0.49282283 -0.032309927 -0.55079466
000120 06 fc f3 be de 2b 9c 3d e1 38 05 3c ac b5 a3 3e
       -0.47653216 0.076255545 0.008131237 0.31974542
000130 f8 5d 02 be 33 6b da 3d 90 81 a3 3d 6c fc 84 be
       -0.12731159 0.10664978 0.079836965 -0.25973833
000140 1b c6 1b be ae 57 18 3e 2f 49 71 bf 53 1e ca 3e
       -0.1521229 0.14877197 -0.94252294 0.3947626
000150 ba a2 40 3e b3 a7 bf 3e ea b4 a2 be 83 81 b7 3e
       0.18812075 0.37432632 -0.3177865 0.35840997
000160 53 15 cd be 35 ec 54 bd ab 71 67 3e 17 b2 f1 3d
       -0.40055332 -0.051983077 0.22601955 0.11801546
000170 5b 94 3c be 00 6a 3b bd f9 26 37 be 26 86 72 3d
       -0.18415968 -0.045755386 -0.1788596 0.059209965
000180 dd 5e 78 bc 61 9d b1 3e 69 2c 19 3e 10 be a4 3d
       -0.015159336 0.34690383 0.14958347 0.08044064
000190 8a ef bc 3e c4 f7 de bd 15 88 cd 3e 01 c5 19 bf
       0.36901504 -0.10887101 0.40142885 -0.6006623
0001a0 ec a9 d8 be cb 93 93 be e8 d6 1c 3f 4c 27 29 be
       -0.4231714 -0.28823695 0.6126542 -0.16518897
0001b0 5d 92 f4 3d f8 4a ef 3e 45 9d 58 be 03 42 b4 be
       0.11941979 0.46736884 -0.21153744 -0.35206613
0001c0 26 58 f2 bc d4 b3 f0 3e 67 1c 5f be 25 0a ad be
       -0.029583048 0.47012198 -0.21788178 -0.33796802
0001d0 44 07 06 3f ff ac ca be 30 b8 41 be 33 bc a0 3e
       0.52354836 -0.3958511 -0.18917918 0.31393585
0001e0 a5 9a c8 3c 1d ea 8b 3e fa d0 bb 3d 1c 5e ff bd
       0.024487803 0.27327052 0.091707185 -0.12469122
0001f0 1f de ea 3e f1 a6 2b bd 33 1c d3 bd b8 4b 49 be
       0.4587259 -0.041907255 -0.10308113 -0.1965779
000200 6e 0b 9b 3e a0 72 0f 3f 7d 5b 99 be 96 2e 09 bf
       0.30282158 0.5603428 -0.29952613 -0.5358671
000210 b1 b6 ab bc 66 27 13 be c8 60 99 3d 43 d9 26 3e
       -0.020961137 -0.14370498 0.07489163 0.16293816
000220 e3 31 8c 3e 29 96 3a 3d 94 56 e8 3d bd 98 e8 be
       0.2738181 0.04555336 0.113446385 -0.4542903
000230 ef 91 df 3e fe 9d 88 bd 9c da 4e 3d 37 73 4f 3e
       0.43666026 -0.066707596 0.05050145 0.20258795
000240 ed 7e ba bb f6 5a 6f be af 38 ea 3e 6a 85 f8 bd
       -0.0056914003 -0.23374543 0.4574637 -0.12134822
000250 1d 25 de bd 99 02 76 3e 5b 61 2f be fc f6 df 3e
       -0.108469225 0.24024428 -0.17126982 0.43743122
000260 9f da 0d bf d8 89 ff be 32 58 6f 3c 30 14 90 3e
       -0.55411714 -0.49909854 0.01460843 0.28140402
000270 fb cf 84 be c2 5d ff 3d 82 43 20 bd e5 73 92 bc
       -0.25939927 0.12469055 -0.03912688 -0.017877528
000280 ac dc 92 3e 73 38 db bd 62 8c 18 bd de b3 86 3e
       0.28683984 -0.10704126 -0.037243254 0.26309103
000290 4a 01 e5 3d 90 fa 2c be d4 98 f9 be 46 bd ea 3e
       0.111818865 -0.16892457 -0.4874941 0.4584753
0002a0 98 7c e5 be 24 ac b9 3d 59 00 ac 3e 73 9c 20 be
       -0.4482162 0.09066036 0.33594015 -0.1568468
0002b0 eb de 28 be 96 ac 8b 3d 39 3a b8 3e 49 70 15 3e
       -0.16491286 0.068200275 0.3598192 0.14593615
0002c0 c5 29 ac bd a1 a9 1a be 32 35 38 3e a7 31 97 be
       -0.084064044 -0.15103771 0.17989042 -0.2953007
0002d0 01 2b 12 bb 72 dd d7 bd 48 59 1e be 66 c8 ad 3e
       -0.0022303464 -0.10540284 -0.15463746 0.33941954
0002e0 06 de 53 bd cd 96 c1 3d 45 c7 10 be 8e 74 f1 3e
       -0.05172541 0.09452591 -0.14138515 0.47159237
0002f0 fc f1 83 be b8 44 d8 3e 9a d5 bf bd e3 ef 97 be
       -0.25770557 0.42239928 -0.09366913 -0.29675207
000300 a1 74 c1 3e 87 cb 29 3d 4b 02 4c 3f 20 2b 03 3e
       0.37784293 0.041453864 0.79691 0.1280942
000310 8b 1c 04 3f ad 7a 32 bd c7 61 0a 3d bf 63 69 bc
       0.51606053 -0.043574024 0.033784654 -0.014244973
000320 17 12 28 be b5 78 89 bd bb 3c 21 3f 4b fe 08 3e
       -0.1641315 -0.06712476 0.6298329 0.13378255
000330 a5 0a 4d 3e 60 8c 98 be c2 27 e6 3d 18 cb d2 be
       0.20023592 -0.29794598 0.11238052 -0.41170573
000340 0a 69 ad be 59 48 9d bc e6 a4 f7 be 05 76 f0 3e
       -0.338692 -0.019199537 -0.48367995 0.46965042
000350 38 59 0c be 20 c2 db 3b 09 3d 80 bc 9e 63 66 3e
       -0.13705909 0.006706491 -0.015654104 0.22498938
000360 de 2a 7d 3e 5b 82 51 3e 42 6b b8 bd c2 29 9e 3d
       0.24723384 0.20459883 -0.09004833 0.077228084
000370 9e 0d ee 3e dd c2 0c bf 3e f2 cf be 6b de 08 3e
       0.46494764 -0.5498484 -0.40614504 0.13366096
000380 d9 a9 0f 3e 73 4b 8a bd 61 58 06 3f d6 6f 9f bc
       0.14029635 -0.06752672 0.52478606 -0.019462507
000390 3e 59 c5 3e 13 0e 8f be 19 ce 39 be f7 d9 3b be
       0.3854465 -0.27940425 -0.18145026 -0.18344866
0003a0 50 09 62 bd 91 f5 f5 3e 50 2e d3 3e 8a fb ae be
       -0.055184662 0.48038915 0.4124627 -0.34176284
0003b0 3c 64 e3 bd fc 93 b3 be 80 38 45 3d 6e ee 01 bf
       -0.111031026 -0.3507384 0.048149586 -0.5075444
0003c0 4b 6c ad 3e 72 fa de 3e 1f 64 11 be 7e 55 a6 be
       0.33871683 0.4355045 -0.1419835 -0.324871
0003d0 2a 74 c0 3e 3f 43 62 be e0 0c 06 be c6 03 a2 bd
       0.37588626 -0.22095965 -0.13090849 -0.07910876
0003e0 52 1b 53 3e 36 e6 c6 3e 93 01 6f bc 4c a1 dc be
       0.2061589 0.38847512 -0.014587778 -0.4309181
0003f0 8f e3 3f 3d 85 8b 91 be e7 c7 00 be 7d e9 a1 3d
       0.046847876 -0.28426757 -0.12576257 0.079058625

rnn.bias_ih_l0 f4 [32]
000000 ce 6b 17 3e b5 ec 0f 3f 77 62 5f be 00 47 9e 3e
       0.14787218 0.5622056 -0.21814905 0.30913544
000010 58 26 8b bd eb b0 96 3d cd 28 d7 be 04 0a 86 be
       -0.06794423 0.07357963 -0.42023316 -0.26179516
000020 2d 10 9c 3e bd 80 a2 3e 71 49 71 3e f8 21 3b 3e
       0.3048109 0.31738845 0.23563172 0.18274677
000030 00 3b 38 3d 8f e5 a2 3e b5 57 16 3e e7 82 10 3e
       0.04497814 0.31815764 0.14681895 0.14112435
000040 6c 57 03 bf dd 81 84 be d9 66 07 3e 92 2a 1f 3e
       -0.5130527 -0.25880328 0.13222827 0.15543583
000050 da dc ba be c9 77 01 3f ed 00 0c 3e 6e ac 8e 3e
       -0.3649662 0.505734 0.13672228 0.27865928
000060 d7 89 62 be 0c e3 0b 3f 7f a0 2d 3e 7a fb 42 be
       -0.22122894 0.5464332 0.16955756 -0.19041243
000070 7c 9a d3 bd 4a d3 a3 3d a1 f8 f8 be c2 33 97 bd
       -0.103322 0.079992846 -0.4862719 -0.07382919

rnn.bias_hh_l0 f4 [32]
000000 65 6a 69 3e f6 38 ac 3e 1c f0 f5 be 82 e7 76 3e
       0.22794493 0.33637208 -0.4803475 0.2411175
000010 a5 67 54 bd 79 c6 c0 3e 61 56 03 bf ae 27 cc be
       -0.051856656 0.37651423 -0.5130368 -0.39874023
000020 44 ae d0 3d d4 8f 18 3e 31 14 c0 bd aa b8 7e 3e
       0.101894885 0.14898616 -0.09378851 0.24875131
000030 4a 93 8c be 2e d7 3f 3e 36 9a c1 be 35 c4 c4 be
       -0.27456123 0.18734428 -0.37812966 -0.38430944
000040 e8 5e 0b be 36 d4 fd be 8d 36 80 be 52 99 f2 3e
       -0.13610423 -0.49575967 -0.2504162 0.473826
000050 b8 35 b2 be ef 8d da 3e eb 5b bb be 91 6c 30 3e
       -0.3480661 0.42686412 -0.36593565 0.17228915
000060 63 e8 46 3e 93 6b 00 3f af 17 6e 3c a2 59 3f be
       0.19424586 0.50164145 0.014532014 -0.18686536
000070 1c aa fb 3d 63 b3 4c 3e 35 56 20 be 20 4b 8a be
       0.12288305 0.19990306 -0.15657885 -0.2701044

out.weight f4 [1, 8]
000000 49 90 cc bd 31 d5 a0 be a0 f6 16 3e 83 91 1c 3e
       -0.09988458 -0.31412652 0.14742517 0.15289883
000010 9e 39 41 be 28 7b bc 3e 09 dc ba 3d e4 e6 bc 3d
       -0.18869635 0.3681271 0.091239996 0.092237264
