ckpt/259.ckpt (torch_old, 3320 bytes, 5 tensors)

rnn.weight_ih_l0 f4 [32, 7]
00000000: e4eb e83e 83c2 a33e 80cf 1c3f f304 cd3e
00000010: c186 bc3e a2a3 673d 0d18 113f dcdd da3e
00000020: 55c9 173f 96f6 4d3f 5410 373f dfed d13e
00000030: f423 9a3e bc35 a23e b27d 03bf 7922 c7bd
00000040: 7de2 5abf d686 4ebf 94f4 debe 6029 523f
00000050: 92c1 143f 5d18 3b3f ea83 273f 7c0d 373e
00000060: 093f d33b 5b45 ac3d 6c51 ef3e 6cfe 8d3e
00000070: 76ff 9f3e d630 793e 1695 7a3d 26b3 7fbe
00000080: 160c f93e 878e 5fbe 4da0 543f 90d9 613f
00000090: 646f ecbc 7848 1f3f 3dab 543f 1e8b 253f
000000a0: 236a 0ebf 4bde 2dbf 4195 3e3c 6c6e cfbe
000000b0: c19c d3bd 362b a6be 3ee0 05bf a347 c1be
000000c0: 975b 99be e1b8 dfbc b338 893d cdef d5be
000000d0: c0f8 f3be 04bf 093e 6414 acbd 9f16 90bd
000000e0: 062f 9e3e 4680 9d3d a96d 443d 819c 1b3e
000000f0: 58f4 3c3e 3af7 dc3e eb2b d03e f74c 0e3f
00000100: 7bef 143f f5bd 82bd 3906 8e3e bd3b a73e
00000110: c7bb af3e 5fb5 bd3e 799d 1abf be05 6d3e
00000120: f4d5 debe 0f2d b9be 6a77 4abe 181c 043f
00000130: f97a 9d3f 06e7 a13e bdc3 4d3e 7f3a 903e
00000140: dfc7 1d3e 391f 813e 95ef f73e 0c79 be3e
00000150: 6e2c 3abe c9ac 533e 99ce 843e 9f86 0d3d
00000160: ae94 103e 380d f1be 4b59 453f 500a d23e
00000170: 6fd6 ce3e df2d 983e 5655 2d3f 8af2 473d
00000180: badb 01bf 8669 08bf f447 a53d cc4b c83d
00000190: 06f9 0a3e ec3b dbbd 30b6 91be 85ca 96be
000001a0: 183a 453e c4a4 f6be 74d7 583d d27c b6be
000001b0: bcfb f3be 1651 043e fe22 eabe 71eb 1bbe
000001c0: 2a22 b0be f1df ebbe 23d9 ac3c 03f8 f4be
000001d0: 25fe cbbe 0f26 893c 512b 91be ade2 033c
000001e0: a0f8 f3be 94cb e9bd e8f7 b8be ab2d b6be
000001f0: 5a9b 1abf 5082 f5be 9329 3c3e 97f3 343e
00000200: 6fa6 ddbc 1e11 893e 9688 a13e 7159 40be
00000210: 192c 34bf 7911 bb3d dd4a 9c3e c701 dc3e
00000220: 7294 053d 22ee cf3d b0bb 2a3e 4ed2 9fbd
00000230: 50f7 203d 6393 58be f350 6fbe 2ccf edbd
00000240: 44ac f3be d415 b8be 0457 b2bd 4901 0a3e
00000250: 5a18 0d3f fe08 933e fa79 9f3e 0dbb b63d
00000260: b5bb 04be ec3d 503e 6d36 8e3d 6cda 8abe
00000270: b09f 2fbc e065 e3be 207f 4ebe dc55 cb3d
00000280: 05a2 263d 17a9 003f 2df2 8c3e 2b23 d3bd
00000290: 2558 a9bb 62e3 42bc 0d1f 173e de02 813d
000002a0: ddff b43c 33d8 ae3e 52e6 d53d 3b23 83be
000002b0: c095 023f ba0f 09be a6fa 6e3e e527 aabe
000002c0: 7d9d 47be 5fcf a03d 7c30 f93e 6e53 023f
000002d0: 1e18 1fbe 4203 963e e5de 22bf f93c ca3e
000002e0: 70fd 81be e9cb d2be 1249 43bf d2ea 033f
000002f0: 74b8 963e 7383 c33d 76c3 733e 3756 41be
00000300: d5ca 55be 7b21 423e 24a6 92be 455f 1c3d
00000310: 9af0 023f 3f3b b73e e659 da3e 4506 843e
00000320: 3b90 3b3f f716 7b3d 1613 a03d fb5a 893c
00000330: 996e 823d 8415 1d3e e1ab 02be fa85 773e
00000340: e0c0 6c3e 3200 283f b1b2 f3be e57b 33be
00000350: f41f debe b299 533d 3864 1abf e2de 82be
00000360: 48d2 d2bd 9753 523c 8110 cfbe 250b ee3d
00000370: 1ca5 ca3d 6418 aebe 2e41 82be 0caf 02bf
0.4549247 0.31984338 0.6125412 0.40042838 0.3682156 0.056552537 0.56677324 0.4274739
0.59291583 0.80454385 0.7150929 0.41001794 0.30105555 0.3168162 -0.5136367 -0.09723372
-0.85501844 -0.80674493 -0.43545973 0.82094383 0.58107865 0.7308405 0.6543566 0.17876238
0.0064467234 0.08411666 0.46741807 0.2773317 0.3124959 0.24335036 0.061177336 -0.24970683
0.48642033 -0.21831714 0.830571 0.882226 -0.028861709 0.62219954 0.8307379 0.646654
-0.556307 -0.6791732 0.011632265 -0.40513933 -0.10332633 -0.32454842 -0.5229529 -0.37749967
-0.2995269 -0.027309837 0.06700268 -0.41784516 -0.4765072 0.13451773 -0.08402327 -0.07035565
0.3089525 0.07690482 0.047956143 0.1519642 0.18452585 0.4315737 0.40658507 0.5558619
0.5817792 -0.06383888 0.27739123 0.32662764 0.3432295 0.37052438 -0.60396534 0.23146722
-0.43522608 -0.3616719 -0.19772115 0.5160537 1.2303153 0.3162157 0.200942 0.2816963
0.15408276 0.25219133 0.48424974 0.37201726 -0.18181011 0.20671381 0.25938872 0.034552213
0.14119217 -0.47080398 0.77089375 0.41023493 0.40397975 0.29722497 0.6770834 0.048815288
-0.507259 -0.53286016 0.080703646 0.09780082 0.13571557 -0.107047886 -0.2845931 -0.29451385
0.19260442 -0.4817258 0.052939847 -0.35642105 -0.47652996 0.12921557 -0.45729822 -0.15226533
-0.34401065 -0.4606929 0.021099633 -0.47845468 -0.39842334 0.01674178 -0.2835336 0.008049649
-0.47650623 -0.114157826 -0.36126637 -0.35581717 -0.603933 -0.47950983 0.18375234 0.17671047
-0.0270569 0.26770872 0.3154952 -0.18784119 -0.7037979 0.09134192 0.30525866 0.42970106
0.03261227 0.10152842 0.1667316 -0.07803784 0.039298356 -0.21149974 -0.23370723 -0.116117805
-0.47592366 -0.35954154 -0.08708003 0.13477053 0.5511528 0.28717798 0.31147748 0.08922396
-0.1296223 0.20336121 0.06943975 -0.27119768 -0.010719225 -0.44413662 -0.20165682 0.09928486
0.040681858 0.5025801 0.27528515 -0.10309442 -0.0051679784 -0.011895033 0.14757939 0.06299375
0.022094661 0.34149322 0.10444321 -0.25612816 0.5100975 -0.13384905 0.23337802 -0.33233562
-0.19493671 0.07852053 0.48669803 0.50908554 -0.15536544 0.2929936 -0.6362136 0.39499643
-0.2538867 -0.41171196 -0.7628337 0.5153018 0.29437602 0.09546556 0.23805031 -0.18880545
-0.20878156 0.18958084 -0.2864238 0.038176794 0.5114838 0.3578739 0.42646712 0.25786033
0.73266953 0.061301198 0.0781614 0.016767016 0.06368751 0.15340239 -0.12760879 0.24172202
0.23120451 0.656253 -0.47597268 -0.17527731 -0.43383753 0.051660247 -0.6030917 -0.2556067
-0.10294014 0.012837312 -0.4044228 0.116232194 0.09894773 -0.34002984 -0.25440353 -0.5104835

rnn.weight_hh_l0 f4 [32, 8]
00000000: 0a25 48be d86d 51bd fdc7 2c3e db86 fc3e
00000010: f875 ef3d cb7c f5bd 784f 9d3e 15cc 07bf
00000020: 34a1 09bf 9ba5 0cbf 6d9d 133e ed2b 0a3d
00000030: 5e7b a7be 9eb4 fc3e 2db1 a53e c881 c73d
00000040: 4af4 0e3f e59b 873e ca13 7abf 7218 1c3e
00000050: 2313 273d 4a45 2abf 8e65 25be 881f b3bd
00000060: 73b7 a43d c446 343e 01fd 6b3d 4348 b33e
00000070: 50a9 cbbe 06dc a13e ae70 923e 71ff 66be
00000080: 9368 de3e a0c6 3e3f 6336 923e ab80 c0be
00000090: fb62 ec3e 740e 55bf c948 b63e f8ac 1fbf
000000a0: 5196 6fbd bed7 eb3d 2612 bc3f e8bb a9be
000000b0: e729 3ebe 2c3c a73d cf77 083e b093 1dbf
000000c0: 6268 d3bc 70f4 ae3e 70c6 573e 9b04 01bc
000000d0: 1f6a bb3e e16d 68be c225 363e 6397 8f3d
000000e0: 9623 613e 3f9a 143f 57c1 98bd 7117 87be
000000f0: 5c57 293e 3447 bbbd 9b5c 68be 808b 4d3b
00000100: 5bdc c7be 5de6 04bf 0fb0 ca3e 6376 36bd
00000110: a961 03bd 0006 fc3e eeb1 02bd 6523 0dbf
00000120: e17c f3be c220 9e3d 28e0 043c 563a a33e
00000130: c180 01be ee09 d73d 51f9 a33d cf28 85be
00000140: 35a9 28be d646 0c3e bb9a 6cbf 6120 cd3e
00000150: 0d71 323e ae12 ca3e 0850 a3be 4bc7 b83e
00000160: f2de ccbe 92c4 52bd fe86 673e 40e2 f03d
00000170: 7736 3cbe d1da 3dbd edef 36be ba69 713d
00000180: 4e44 a1bc 8697 b13e 7d10 203e 2d51 a23d
00000190: 48f0 b13e 2253 c7bd 06b6 d53e 709e 1bbf
000001a0: 670a d8be f8c8 92be c816 1c3f a72c 2abe
000001b0: e179 f23d e0d7 ee3e 57e3 57be c86f b5be
000001c0: 7fee 0cbd 765b ef3e 19d4 5ebe c200 abbe
000001d0: 3fe0 043f 857f c8be b7db 41be 4bd7 a03e
000001e0: aa82 be3c 56a8 8b3e 911f bc3d 2826 fdbd
000001f0: 211b ea3e 0887 26bd b622 d3bd c53d 49be
00000200: 37f9 9a3e 826a 0f3f 0c5e 99be 1e26 09bf
00000210: dc00 adbc 94ea 12be 0648 993d 3cf2 263e
00000220: fd0f 8c3e 1fc5 393d 5855 e83d 4075 e8be
00000230: ef60 df3e 5dd1 87bd d9b8 4e3d e17d 4f3e
00000240: 95e0 2abc 8e96 72be 3bb9 e73e ac85 edbd
00000250: e62b e2bd 2fd6 763e 969f 2fbe 146a e03e
00000260: 0ad1 0dbf 037e ffbe 7b5e 6f3c f9ff 8f3e
00000270: a6b4 84be 50f8 fe3d 2b37 20bd 2795 92bc
00000280: 2ced 903e eaa0 e4bd 6772 14bd 5a80 883e
00000290: 94ca df3d 47d4 28be 2c75 fabe 2dda eb3e
000002a0: 98c9 e4be b7e6 bb3d 872a ab3e e7b1 21be
000002b0: 6afa 27be c8f4 863d 7e4e b83e 041a 153e
000002c0: adff adbd 241d 1bbe 8111 383e f9e5 96be
000002d0: c00d 06bb dca5 d4bd 6650 1ebe 06cc ad3e
000002e0: c6f8 54bd 6654 c13d fcbb 10be 9993 f13e
000002f0: f00f 84be 106e d83e 1bd7 bfbd 0aed 97be
00000300: 0787 c43e 2abf 503d 7090 4c3f 308d fa3d
00000310: 90f2 033f 8580 42bd e68f 2d3d 1361 a5bc
00000320: 1fd4 23be a4e0 74bd 2ed1 213f 6b12 043e
00000330: 76ea 493e c184 98be f0bb ed3d a1c8 d3be
00000340: d186 aabe c0ce 16bc 0215 e9be 7c2a eb3e
00000350: 0469 05be 6023 fe3a 6993 5bbc 1548 633e
00000360: 0895 803e 0f80 583e e48d 9bbd 9775 953d
00000370: eab3 ed3e 4a1a 0dbf ad37 cdbe 9c69 053e
00000380: 92fd 113e 985b 7ebd 1648 073f 700b b8bc
00000390: c3cf c33e 21c3 8ebe 4138 2fbe c53c 3fbe
000003a0: 664a 40bd 3027 fd3e 4414 d53e eb03 b3be
000003b0: cc32 e7bd 53c8 b5be 8fd0 6b3d 2c85 03bf
000003c0: d728 a93e 251f db3e 247d 10be fe77 a2be
000003d0: 536f bd3e 65a5 59be 0f86 06be 548f a0bd
000003e0: 4010 503e e62a c63e a374 69bc 9743 dbbe
000003f0: 1dc8 333d a2ee 8fbe c9d4 00be fd4d a23d
-0.1954538 -0.051130146 0.16873164 0.49321637 0.11692423 -0.11986693 0.30724692 -0.5304578
-0.537616 -0.54940194 0.14415522 0.033733297 -0.3271131 0.4935655 0.32361737 0.09741551
0.55841506 0.26486126 -0.97686446 0.152437 0.040789735 -0.66511977 -0.16152021 -0.087462485
0.08042803 0.1760512 0.05761433 0.3501607 -0.39777613 0.31613177 0.28601593 -0.2255838
0.4343916 0.7452183 0.2855712 -0.37598166 0.46169266 -0.8322518 0.35602406 -0.62373304
-0.058492962 0.11515759 1.4693038 -0.33151174 -0.18570672 0.08165774 0.13326953 -0.6155348
-0.02580661 0.34170866 0.21071792 -0.007874633 0.366044 -0.22698165 0.17787841 0.070112966
0.21986231 0.5804786 -0.07458752 -0.26385072 0.16537231 -0.0914444 -0.22691576 0.0031363666
-0.39035305 -0.51914006 0.39587447 -0.044546496 -0.032075558 0.49223328 -0.03190797 -0.5513213
-0.47556213 0.07721092 0.008110084 0.31880444 -0.12646772 0.10499941 0.08006538 -0.26007697
-0.16470797 0.13698897 -0.924236 0.40063766 0.17425938 0.39467376 -0.31896996 0.36089548
-0.40013844 -0.051456995 0.22610089 0.11761904 -0.18380152 -0.046351258 -0.17864962 0.05893872
-0.01968589 0.34685916 0.1563129 0.07925639 0.34753633 -0.09732653 0.41740435 -0.6078863
-0.42195436 -0.28668952 0.6097226 -0.16618596 0.11839653 0.46649075 -0.21082817 -0.35436845
-0.034407135 0.46749467 -0.21760596 -0.33399016 0.5190467 -0.3915979 -0.18931471 0.31414255
0.023255665 0.27276868 0.09185708 -0.12360793 0.45723823 -0.04065612 -0.10309355 -0.1965247
0.3026826 0.56021893 -0.29954565 -0.5357379 -0.021118574 -0.14347297 0.074844405 0.16303343
0.27355948 0.045354005 0.11344403 -0.45401955 0.43628642 -0.0663173 0.050469253 0.20262863
-0.010429521 -0.23690245 0.45258507 -0.115977615 -0.11043529 0.24105142 -0.17150721 0.4383093
-0.55397093 -0.49900827 0.014609928 0.2812498 -0.25919074 0.124497056 -0.039115112 -0.017893387
0.28305948 -0.111635044 -0.036241915 0.26660424 0.109273106 -0.16487227 -0.4891752 0.46064892
-0.44685054 0.09174865 0.33430883 -0.1579052 -0.16404119 0.06589657 0.35997385 0.14560705
-0.08496032 -0.15147835 0.17975427 -0.2947233 -0.0020454973 -0.10383198 -0.15460357 0.3394472
-0.05199506 0.09439926 -0.1413421 0.4718292 -0.2579341 0.4227147 -0.093672 -0.29673034
0.38384268 0.05096356 0.79907894 0.12233961 0.51541996 -0.047485847 0.04237356 -0.02018789
-0.15998887 -0.059784546 0.6320981 0.12897651 0.19718346 -0.29788783 0.11608112 -0.41364005
-0.33305982 -0.0092045665 -0.4552384 0.4593085 -0.13028342 0.0019389205 -0.013401845 0.22195466
0.25113702 0.211426 -0.07595423 0.07297819 0.46426326 -0.5511824 -0.4008154 0.13028568
0.14256886 -0.06209907 0.5284437 -0.022466391 0.38244447 -0.27883247 -0.17111303 -0.18675525
-0.046945952 0.4944396 0.41617024 -0.34963927 -0.112889856 -0.35504398 0.057571944 -0.5137508
0.3303897 0.427972 -0.14110237 -0.31732172 0.36998996 -0.212545 -0.13137077 -0.07839838
0.20318699 0.38704604 -0.014249 -0.42825004 0.043892015 -0.2811175 -0.12581171 0.07925031

rnn.bias_ih_l0 f4 [32]
00000000: d162 193e 24cb 103f 495d 5abe a7df 9f3e
00000010: 063d aebd e7ca 8a3d f7a6 d6be 87cb 84be
00000020: f2cf 9b3e 0a18 a23e 4710 7a3e b199 3a3e
00000030: e5dc 383d 83b7 a13e 2595 173e 80c4 103e
00000040: 217f 03bf 3d33 85be 61fd 083e 3907 203e
00000050: d4f2 babe a683 013f e49c 0c3e acf6 8e3e
00000060: aa59 65be 29a9 0c3f 90c6 243e 857d 42be
00000070: 4cd4 c8bd bfdf a03d 374a f8be eb78 92bd
0.14979102 0.5655997 -0.21324648 0.3122532 -0.08507733 0.06776982 -0.4192426 -0.2593653
0.30432087 0.31658965 0.24420272 0.18222691 0.045132536 0.3158532 0.14802988 0.14137459
-0.5136586 -0.26015654 0.13377906 0.15627755 -0.36513388 0.50591505 0.13731724 0.2792257
-0.22397485 0.5494562 0.1609137 -0.18993194 -0.098061174 0.07855176 -0.4849412 -0.071519695

rnn.bias_hh_l0 f4 [32]
00000000: 6861 6b3e d0f5 ad3e 866d f3be d518 7a3e
00000010: 824a 8dbd f7cc bd3e 7615 03bf 31e9 cabe
00000020: 5dad cf3d 6ebe 173e 8986 aebd 6330 7e3e
00000030: 0c7f 8cbe 1a7b 3d3e 7efb c0be 67a3 c4be
00000040: bbfd 0bbe 9685 febe 93d6 7ebe a707 f33e
00000050: b24b b2be ada5 da3e ed0d bbbe 0f01 313e
00000060: 9018 443e b031 013f 90f1 c03b addb 3ebe
00000070: 2438 033e 9f39 4b3e 5cf9 1ebe 6c1c 89be
0.22986376 0.33976603 -0.47544497 0.24423535 -0.06898977 0.37070438 -0.5120462 -0.39631036
0.10140488 0.14818737 -0.08521754 0.24823146 -0.2744068 0.18503991 -0.37691873 -0.38405916
-0.13671009 -0.49711293 -0.24886541 0.47466776 -0.34823376 0.42704526 -0.36534062 0.1728556
0.19149995 0.5046644 0.0058881715 -0.18638487 0.12814385 0.198462 -0.1552481 -0.26779497

out.weight f4 [1, 8]
00000000: d5c9 ccbd 9e75 9fbe 3423 1a3e 50e9 1c3e
00000010: 1cff 4abe 97c7 be3e a9ef ba3d 8580 c13d
-0.09999434 -0.31144422 0.15052491 0.15323377 -0.19823879 0.3726165 0.09127743 0.09448341
