ckpt/279.ckpt (torch_old, 3320 bytes, 5 tensors)

rnn.weight_ih_l0 f4 [32, 7]
0	0x3eef012c	0.46680582
1	0x3ea6d802	0.32586676
2	0x3f1ed76a	0.62047446
3	0x3ed066c4	0.40703404
4	0x3ec14806	0.37750262
5	0x3d6eef14	0.05833347
6	0x3f11253f	0.5669746
7	0x3ee1c148	0.44092774
8	0x3f19c967	0.6007294
9	0x3f50805f	0.8144588
10	0x3f395286	0.72391546
11	0x3ed70c9c	0.42001808
12	0x3e9c103d	0.3048114
13	0x3ea31834	0.31854403
14	0xbf072c4e	-0.5280198
15	0xbdae0fdf	-0.08499121
16	0xbf5a086b	-0.85169095
17	0xbf4eca35	-0.80777293
18	0xbedeb12e	-0.43494552
19	0x3f537f9a	0.8261658
20	0x3f17000a	0.58984435
21	0x3f3e7d6d	0.74410135
22	0x3f299b68	0.66252756
23	0x3e40f07d	0.18841739
24	0x3c7415b7	0.014897755
25	0x3dc16fc6	0.09445147
26	0x3ef14439	0.47122362
27	0x3e8e75c0	0.2782421
28	0x3eca2137	0.39478466
29	0x3e9c10d0	0.30481577
30	0x3cc32ef6	0.023826104
31	0xbec12a0b	-0.3772739
32	0x3ef2a944	0.47394764
33	0xbe657a10	-0.22409844
34	0x3f675e1c	0.90377975
35	0x3f68e26e	0.90970504
36	0xbd5cf839	-0.05394766
37	0x3f2392fa	0.63896143
38	0x3f569ae6	0.83830106
39	0x3f29ca7c	0.6632459
40	0xbf1915c3	-0.5979883
41	0xbf3145a5	-0.69246894
42	0x3c8b57c2	0.01700962
43	0xbece52a2	-0.4029742
44	0xbdc55eae	-0.09637199
45	0xbea1cfe4	-0.3160392
46	0xbf04eb68	-0.519217
47	0xbec2beab	-0.38036093
48	0xbe9a9014	-0.30188048
49	0xbc9ecb73	-0.019384122
50	0x3d95cb16	0.07314126
51	0xbed368e7	-0.41290972
52	0xbef186bd	-0.4717311
53	0x3e0f7e78	0.14013088
54	0xbda08b42	-0.07839061
55	0xbd8ef069	-0.06979448
56	0x3e9e77b5	0.30950704
57	0x3d9ccee5	0.076566495
58	0x3d4418bd	0.047875155
59	0x3e1b44ed	0.15163012
60	0x3e3d7f27	0.18505536
61	0x3edc83a7	0.43069193
62	0x3ecfcf85	0.40588012
63	0x3f0e7d25	0.55659705
64	0x3f14cbdb	0.5812356
65	0xbd83421d	-0.064090945
66	0x3e8db095	0.27673784
67	0x3ea79b03	0.32735452
68	0x3eaf0111	0.341805
69	0x3ebd2fe0	0.36950588
70	0xbf16d490	-0.58918095
71	0x3e80708f	0.25085875
72	0xbecf2708	-0.40459466
73	0xbead1e8b	-0.33812365
74	0xbe34a38a	-0.1764051
75	0x3f041fed	0.51611215
76	0x3f9fc005	1.2480475
77	0x3ea1bc83	0.31589136
78	0x3e4d4d1d	0.20048948
79	0x3e8ffe3a	0.28123647
80	0x3e1cec10	0.15324426
81	0x3e81332d	0.25234357
82	0x3ef7ad8c	0.48374593
83	0x3ebe41e1	0.37159637
84	0xbdd178fb	-0.10228153
85	0x3e85949c	0.26089942
86	0x3e97b94d	0.2963356
87	0x3c9113b1	0.017709585
88	0x3e362df1	0.17790963
89	0xbef5de0e	-0.48020977
90	0x3f5614ed	0.8362568
91	0x3eda26eb	0.42607817
92	0x3ecbc3a0	0.39797688
93	0x3e9fabdc	0.31185806
94	0x3f2ecf28	0.68284845
95	0x3d71e5b5	0.059056956
96	0xbf093914	-0.5360272
97	0xbf09544a	-0.5364424
98	0x3db09ff5	0.086242594
99	0x3dcea8e7	0.10090809
100	0x3e0fe0b3	0.1405056
101	0xbdd0bf56	-0.101927444
102	0xbe8fd295	-0.2809035
103	0xbe96c729	-0.29448822
104	0x3e44c861	0.19217063
105	0xbef65448	-0.48111176
106	0x3d5be988	0.05368951
107	0xbeb65ec6	-0.3561918
108	0xbef3dfaf	-0.47631595
109	0x3e04c54c	0.12965888
110	0xbee990d6	-0.45618314
111	0xbe1bd12a	-0.15216509
112	0xbeb1a8bc	-0.34699047
113	0xbeecad62	-0.4622603
114	0x3c9bce6b	0.019019326
115	0xbef5e917	-0.48029396
116	0xbecd211f	-0.40064332
117	0x3c840336	0.016114812
118	0xbe915468	-0.2838471
119	0x3b7b64d1	0.0038359652
120	0xbef57c59	-0.47946432
121	0xbdf08c1b	-0.11745473
122	0xbeba82ee	-0.36428016
123	0xbeb7e047	-0.35913298
124	0xbf1b1957	-0.6058554
125	0xbef5d051	-0.48010495
126	0x3e3d3a51	0.18479277
127	0x3e4ce54f	0.2000935
128	0xbcc5d311	-0.024148496
129	0x3e83b64e	0.25725025
130	0x3ea58902	0.3233109
131	0xbe4012bc	-0.18757147
132	0xbf3640bf	-0.71192545
133	0x3dc0e26b	0.09418186
134	0x3e9d4535	0.30716863
135	0x3edd226a	0.43190318
136	0x3d0db38c	0.034595057
137	0x3dd4694f	0.103716485
138	0x3e2bec1f	0.16789292
139	0xbd9ef7d6	-0.07762115
140	0x3d1a19a9	0.037622128
141	0xbe5ca410	-0.2154696
142	0xbe6c9cf3	-0.23106746
143	0xbde00b00	-0.10939598
144	0xbef42632	-0.4768539
145	0xbebbd598	-0.36686397
146	0xbdbad169	-0.09121973
147	0x3e0e4565	0.1389366
148	0x3f0d314f	0.55153364
149	0x3e946f7a	0.289913
150	0x3ea0821d	0.3134927
151	0x3dbcdae7	0.0922144
152	0xbe05f6c4	-0.13082415
153	0x3e5012b7	0.20319639
154	0x3d8b58e8	0.06804067
155	0xbe8a96d4	-0.27068198
156	0xbc3e9762	-0.011632772
157	0xbee4069e	-0.445363
158	0xbe4f0ed6	-0.20220503
159	0x3dd4af7e	0.10385035
160	0x3d2fcb0d	0.042918254
161	0x3f010dce	0.5041169
162	0x3e8da2e3	0.27663335
163	0xbdd0b698	-0.10191077
164	0xbb8567f1	-0.0040712287
165	0xbc2f39cd	-0.010694933
166	0x3e183e48	0.14867508
167	0x3d81fe58	0.0634734
168	0x3d01e877	0.031715836
169	0x3eb1482e	0.3462538
170	0x3da7f204	0.08200458
171	0xbe932bc0	-0.28744316
172	0x3efdc214	0.49562132
173	0xbe059b83	-0.13047604
174	0x3e79294d	0.24332161
175	0xbe9e76e0	-0.3095007
176	0xbe3cab8d	-0.18424816
177	0x3d6c1c7b	0.05764435
178	0x3ee98d2d	0.4561552
179	0x3f00d7c9	0.5032926
180	0xbe0df0e9	-0.13861431
181	0x3e9dfbfc	0.3085631
182	0xbf28dca8	-0.65961695
183	0x3ed30965	0.41218105
184	0xbe903454	-0.28164923
185	0xbee056b2	-0.43816143
186	0xbf484efb	-0.78245515
187	0x3f012858	0.50452185
188	0x3e8ceb3f	0.2752323
189	0x3de4fbb7	0.11180823
190	0x3e7c5116	0.24640307
191	0xbe4c7459	-0.19966258
192	0xbe689de3	-0.22716479
193	0x3e3f1162	0.18658975
194	0xbe8dcd57	-0.27695724
195	0x3d495acd	0.04915886
196	0x3f0dc849	0.55383736
197	0x3ec05eac	0.3757223
198	0x3ed9c2e9	0.42531517
199	0x3e767bbf	0.24070643
200	0x3f3cf206	0.738068
201	0x3d9e952e	0.077432975
202	0x3dba2faa	0.090911224
203	0x3cf57122	0.029961172
204	0x3da614f6	0.08109467
205	0x3df4c683	0.119519256
206	0xbe33e609	-0.1756822
207	0x3e615bdb	0.22007696
208	0x3e78706f	0.2426164
209	0x3f2d1640	0.67612076
210	0xbef10fce	-0.4708237
211	0xbe3063b2	-0.1722553
212	0xbed9f87e	-0.42572397
213	0x3d7a8358	0.061160415
214	0xbf194a08	-0.5987859
215	0xbe844b00	-0.2583847
216	0xbdd689d7	-0.104755096
217	0x3ca552e8	0.020181134
218	0xbecc27e6	-0.3987419
219	0x3df72b30	0.12068784
220	0x3dd3979c	0.103316516
221	0xbeab7da9	-0.3349431
222	0xbe7ed0b1	-0.24884297
223	0xbf0290ea	-0.5100237

rnn.weight_hh_l0 f4 [32, 8]
0	0xbe470fdc	-0.19439644
1	0xbd4c6d7a	-0.049909092
2	0x3e2cf487	0.16890155
3	0x3efc0111	0.49219564
4	0x3df161a3	0.11786201
5	0xbdf9080c	-0.12159738
6	0x3e9de44b	0.30838236
7	0xbf0834b9	-0.5320545
8	0xbf09487d	-0.53626233
9	0xbf0c60c8	-0.54835176
10	0x3e139b04	0.14414603
11	0x3d04be27	0.032407906
12	0xbea6aee4	-0.32555306
13	0x3efb9581	0.491375
14	0x3ea5cd2a	0.3238309
15	0x3dc6c6f3	0.09705915
16	0x3f0b40b3	0.543956
17	0x3e81bedb	0.25340924
18	0xbf6fb134	-0.93629766
19	0x3e2084f1	0.15675713
20	0x3cff3ea8	0.031157807
21	0xbf23b4d0	-0.6394777
22	0xbe24fcc4	-0.16112047
23	0xbdaf69b2	-0.08565082
24	0x3da69727	0.08134299
25	0x3e356512	0.17714337
26	0x3d6c01af	0.057618793
27	0x3eb2d1b8	0.34925628
28	0xbecb407d	-0.39697638
29	0x3ea11a3c	0.31465328
30	0x3e92b6cb	0.28655085
31	0xbe67bb9f	-0.22630166
32	0x3f03ab84	0.5143359
33	0x3f5d8958	0.86537695
34	0x3ea17ec9	0.31542042
35	0xbee6fc99	-0.45114592
36	0x3ee75368	0.4518082
37	0xbf65f164	-0.8982146
38	0x3eea4fb2	0.45763928
39	0xbf359e30	-0.709445
40	0xbcf87b45	-0.030332217
41	0x3e12d00a	0.14337173
42	0x3fbce0c5	1.4756094
43	0xbeb795b3	-0.358564
44	0xbe2bf8c9	-0.16794123
45	0x3d4e5bb0	0.05038041
46	0x3e10db97	0.14146267
47	0xbf21e6c3	-0.6324274
48	0xbd2daae8	-0.042399317
49	0x3ea7a1ac	0.32740533
50	0x3e58bc3f	0.2116556
51	0x3c04c61f	0.008103876
52	0x3eb63673	0.35588416
53	0xbe58522c	-0.21125096
54	0x3e35231a	0.17689171
55	0x3d928f36	0.071562216
56	0x3e59df33	0.2127655
57	0x3f13ac1d	0.576845
58	0xbd98568d	-0.07438383
59	0xbe8397ba	-0.25701696
60	0x3e227d5c	0.15868133
61	0xbdacad13	-0.08431449
62	0xbe687ca9	-0.22703804
63	0x3b6c1974	0.0036025913
64	0xbec78407	-0.38967916
65	0xbf04ae11	-0.51828104
66	0x3ecaf4a5	0.39639774
67	0xbd3917f5	-0.045188863
68	0xbd01cd93	-0.03169019
69	0x3efb7b14	0.4911734
70	0xbcfeec3e	-0.031118508
71	0xbf0d6507	-0.5523228
72	0xbef2911c	-0.47376335
73	0x3da1d9f2	0.07902898
74	0x3c02c769	0.007982113
75	0x3ea2521d	0.31703272
76	0xbe000ee8	-0.12505686
77	0x3dd0c863	0.10194471
78	0x3da4e861	0.08052135
79	0xbe857f93	-0.26073894
80	0xbe428514	-0.18996078
81	0x3de93c6b	0.11388477
82	0xbf628cb3	-0.8849594
83	0x3ed3204a	0.41235572
84	0x3e17282f	0.14761423
85	0x3edf24de	0.43582815
86	0xbea496e7	-0.3214638
87	0x3ebb6028	0.365968
88	0xbecc7721	-0.39934638
89	0xbd4e880e	-0.05042272
90	0x3e67a740	0.22622395
91	0x3def4ca5	0.11684541
92	0xbe3b9340	-0.1831789
93	0xbd428070	-0.04748577
94	0xbe367e38	-0.17821586
95	0x3d6f2dfc	0.058393463
96	0xbceef54f	-0.029169707
97	0x3eb17ee7	0.3466713
98	0x3e3a34df	0.18184231
99	0x3d9d38fb	0.07676884
100	0x3e9773aa	0.29580432
101	0xbd93176b	-0.07182201
102	0x3ee8c5ef	0.4546351
103	0xbf1f0db2	-0.6213027
104	0xbed68e40	-0.41905403
105	0xbe910f71	-0.28332093
106	0x3f1a989b	0.6038911
107	0xbe2c9f79	-0.16857709
108	0x3defe394	0.11713329
109	0x3eed9b79	0.4640768
110	0xbe56ca0e	-0.20975515
111	0xbeb7be2d	-0.3588728
112	0xbd3a8e39	-0.04554579
113	0x3eec33c7	0.46133253
114	0xbe5e713b	-0.21722881
115	0xbea625d0	-0.32450724
116	0x3f027898	0.5096526
117	0xbec38136	-0.38184518
118	0xbe42363b	-0.18966
119	0x3ea11945	0.31464592
120	0x3ca4e464	0.020128436
121	0x3e8af765	0.27141872
122	0x3dbc675e	0.09199403
123	0xbdf726ec	-0.12067971
124	0x3ee837dd	0.4535512
125	0xbd1a2971	-0.037637178
126	0xbdd33773	-0.103133105
127	0xbe491867	-0.19638215
128	0x3e9ad70d	0.30242196
129	0x3f0f5b18	0.55998373
130	0xbe996109	-0.29956844
131	0xbf091606	-0.5354923
132	0xbcaf5da7	-0.021406962
133	0xbe12790b	-0.14303987
134	0x3d99180d	0.074752904
135	0x3e2722d5	0.16321881
136	0x3e8bcfed	0.27307072
137	0x3d383379	0.044970963
138	0x3de8553c	0.11344382
139	0xbee83141	-0.45350078
140	0x3edf0826	0.43560904
141	0xbd8650d0	-0.065583825
142	0x3d4e76a5	0.050406117
143	0x3e4f92c2	0.20270827
144	0xbca1bd06	-0.019743454
145	0xbe79b17c	-0.24384111
146	0x3edf3ffb	0.436035
147	0xbdd49d88	-0.10381609
148	0xbde804ba	-0.113290265
149	0x3e769168	0.24078906
150	0xbe30de54	-0.17272311
151	0x3ee1a758	0.44072986
152	0xbf0dbea6	-0.5536903
153	0xbeff66f1	-0.49883226
154	0x3c6f60fe	0.014610527
155	0x3e8fd8af	0.28095004
156	0xbe848245	-0.25880638
157	0x3dfe367e	0.12412737
158	0xbd201ead	-0.039091755
159	0xbc92d728	-0.01792486
160	0x3e8d1654	0.27556098
161	0xbdf7aea0	-0.12093854
162	0xbd153245	-0.036424894
163	0x3e8c2c43	0.2737752
164	0x3dd6c587	0.10486894
165	0xbe20d3c9	-0.1570579
166	0xbefc6297	-0.49293968
167	0x3eee1ecd	0.46507874
168	0xbee37ac0	-0.44429588
169	0x3dbfdcb3	0.09368267
170	0x3ea86c55	0.3289515
171	0xbe23898d	-0.1597044
172	0xbe265a0f	-0.16245292
173	0x3d7ac9a6	0.061227463
174	0x3eb873a5	0.3602573
175	0x3e147d68	0.14500964
176	0xbdb2ce77	-0.08730786
177	0xbe1c5e78	-0.15270412
178	0x3e37bdcc	0.17943496
179	0xbe96189b	-0.29315647
180	0xbb09411c	-0.002094335
181	0xbdccdea7	-0.10003405
182	0xbe1e3a15	-0.15451844
183	0x3eadd63a	0.33952504
184	0xbd57fe64	-0.05273284
185	0x3dc08b03	0.094015144
186	0xbe10c173	-0.14136295
187	0x3ef1ee92	0.47252327
188	0xbe84630b	-0.25856814
189	0x3ed8d895	0.4235274
190	0xbdbfddae	-0.09368454
191	0xbe97e4e4	-0.29666817
192	0x3eca1509	0.39469174
193	0x3d8bfcb0	0.06835306
194	0x3f4dc877	0.8038401
195	0x3de5e488	0.112252295
196	0x3f03665f	0.5132808
197	0xbd5fa1d6	-0.0545977
198	0x3d71c3a9	0.059024487
199	0xbcee1b72	-0.029065821
200	0xbe1d7b98	-0.15379179
201	0xbd4488eb	-0.047982138
202	0x3f22affa	0.6354977
203	0x3df9ce62	0.121975675
204	0x3e4167b9	0.18887223
205	0xbe97f6e3	-0.29680547
206	0x3dfc21d0	0.12311137
207	0xbed43b96	-0.4145171
208	0xbea4bfe8	-0.32177663
209	0x3c58866e	0.013215644
210	0xbec93f04	-0.3930589
211	0x3ee01f6d	0.43773976
212	0xbdf34715	-0.11878792
213	0xbbbc8e58	-0.0057542734
214	0xbc07745f	-0.008267491
215	0x3e5bda6c	0.2147004
216	0x3e842655	0.25810495
217	0x3e6564d1	0.2240174
218	0xbd3a5704	-0.04549314
219	0x3d85fe21	0.06542612
220	0x3eecaebb	0.4622706
221	0xbf0da14d	-0.5532425
222	0xbec7be56	-0.39012402
223	0x3e006071	0.1253679
224	0x3e15d1be	0.14630792
225	0xbd575c7d	-0.052578438
226	0x3f0a7e4b	0.5409896
227	0xbce2b49f	-0.027674017
228	0x3ec05346	0.37563533
229	0xbe8dced1	-0.2769685
230	0xbe19e819	-0.15029944
231	0xbe43804c	-0.1909191
232	0xbd004dba	-0.031324126
233	0x3f05939f	0.52178377
234	0x3edcac13	0.43100032
235	0xbeba9e40	-0.3644886
236	0xbdf275cc	-0.11838874
237	0xbeb9b052	-0.36267334
238	0x3d9e312c	0.077242225
239	0xbf05f90f	-0.5233316
240	0x3e9fe125	0.3122646
241	0x3ed29554	0.41129553
242	0xbe0f2afa	-0.13981238
243	0xbe99cc8a	-0.30038863
244	0x3eb7ae9b	0.358754
245	0xbe471e80	-0.19445229
246	0xbe07af21	-0.132504
247	0xbd9d3573	-0.0767621
248	0x3e487352	0.19575241
249	0x3ec437e0	0.3832388
250	0xbc682839	-0.014169746
251	0xbed79c1f	-0.42111298
252	0x3d17e6aa	0.037085213
253	0xbe8c2586	-0.27372378
254	0xbe00fbdc	-0.12596077
255	0x3da357ff	0.07975768

rnn.bias_ih_l0 f4 [32]
0	0x3e1d20a2	0.1534448
1	0x3f12681f	0.57190126
2	0xbe51139a	-0.20417634
3	0x3ea2f213	0.31825313
4	0xbdf1bd2b	-0.11803659
5	0x3d5930d1	0.05302507
6	0xbed5406f	-0.4165072
7	0xbe8201e5	-0.2539207
8	0x3e9b595e	0.3034162
9	0x3ea15164	0.3150741
10	0x3e85a3ff	0.26101682
11	0x3e398f3e	0.18121049
12	0x3d3d1351	0.046161
13	0x3e9f384d	0.31097642
14	0x3e1a7fd9	0.15087833
15	0x3e1171ea	0.14203611
16	0xbf03caff	-0.5148162
17	0xbe868046	-0.2626974
18	0x3e0c5e57	0.13707863
19	0x3e21b539	0.15791787
20	0xbebb50e6	-0.36585158
21	0x3f01a248	0.50638247
22	0x3e0def38	0.13860786
23	0x3e8f9787	0.28045294
24	0xbe68fbfb	-0.22752373
25	0x3f0ed59c	0.5579469
26	0x3e111555	0.14168294
27	0xbe4015b7	-0.18758284
28	0xbdafec40	-0.08589983
29	0x3d9e5bb5	0.077323355
30	0xbef67fcd	-0.4814438
31	0xbd87de88	-0.06634241

rnn.bias_hh_l0 f4 [32]
0	0x3e6f1f39	0.23351754
1	0x3eb12fc8	0.34606767
2	0xbeeec8ad	-0.46637478
3	0x3e801eda	0.25023538
4	0xbdd0caa7	-0.10194903
5	0x3eb64057	0.35595962
6	0xbf026234	-0.50931096
7	0xbec81f8f	-0.39086577
8	0x3dcdd2fa	0.10050006
9	0x3e16311b	0.1466717
10	0xbd8c1716	-0.06840341
11	0x3e7d25f0	0.24721503
12	0xbe8bf840	-0.27337837
13	0x3e387cb5	0.18016322
14	0xbebf8626	-0.37407035
15	0xbec44cb0	-0.38339758
16	0xbe0d2d34	-0.13786775
17	0xbeffd29f	-0.4996538
18	0xbe7b759d	-0.24556585
19	0x3ef3dea8	0.4763081
20	0xbeb2a9c4	-0.34895146
21	0x3edae2f5	0.4275128
22	0xbeba64c4	-0.36405003
23	0x3e3242c5	0.17408283
24	0x3e40763f	0.18795107
25	0x3f035e23	0.51315516
26	0xbc5a9ad4	-0.013342578
27	0xbe3c73df	-0.18403576
28	0x3e0fac26	0.14030513
29	0x3e49f79c	0.19723362
30	0xbe1b6481	-0.15175058
31	0xbe8675d3	-0.26261768

out.weight f4 [1, 8]
0	0xbdcd567d	-0.10026262
1	0xbe9ce665	-0.30644527
2	0x3e21a76c	0.15786523
3	0x3e1e60f2	0.15466669
4	0xbe5e1120	-0.2168622
5	0x3ec2f28b	0.3807567
6	0x3dbb4335	0.09143678
7	0x3dcc6d1f	0.09981751
