ckpt/299.ckpt (torch_old, 3320 bytes, 5 tensors)

rnn.weight_ih_l0 f4 [32, 7]
0.47788715 0.33146268 0.62785643 0.41316965 0.38617238 0.059967406 0.5671386 0.4532397
0.60782486 0.82348406 0.73192316 0.4291779 0.30817008 0.32006663 -0.54104114 -0.06805356
-0.84493047 -0.808779 -0.43159673 0.8302402 0.59581923 0.7567639 0.6703061 0.19762039
0.022936624 0.104331106 0.47481012 0.2790774 0.50610954 0.37565836 -0.00710066 -0.5120973
0.46226698 -0.22452341 0.946351 0.9355399 -0.08441286 0.6523515 0.84270304 0.6777943
-0.64397734 -0.708987 0.023727627 -0.39956668 -0.08728272 -0.30519202 -0.51399416 -0.38261402
-0.30321485 -0.01051653 0.0801348 -0.40747637 -0.46627426 0.14649314 -0.07198428 -0.06933322
0.31016263 0.07630486 0.047881633 0.15137626 0.1856737 0.4298917 0.405212 0.55747825
0.5807837 -0.06422722 0.2761809 0.32820886 0.34044006 0.3685073 -0.5756176 0.27405238
-0.37337214 -0.3162508 -0.15441753 0.51593477 1.2619048 0.3156582 0.2000823 0.2808406
0.15243974 0.25259042 0.48324555 0.37114912 -0.010131879 0.31826276 0.33055484 -0.003330492
0.20717491 -0.4903665 0.88608813 0.44285315 0.3920544 0.32725257 0.68941575 0.070013
-0.56553656 -0.5410523 0.093077905 0.1048699 0.14655697 -0.09549879 -0.2761694 -0.29422155
0.19202608 -0.4803129 0.054670922 -0.35586083 -0.47596171 0.13027135 -0.454826 -0.15202118
-0.3497959 -0.46372694 0.017069342 -0.4820139 -0.40273517 0.015534513 -0.2841334 -8.5291125e-05
-0.4821962 -0.12050704 -0.36706194 -0.3622214 -0.60759825 -0.48063186 0.18096162 0.22381726
-0.023415787 0.24624753 0.3300715 -0.18843481 -0.71939903 0.09694865 0.30902156 0.4340424
0.036517657 0.10584952 0.16900872 -0.07722571 0.034584694 -0.21994933 -0.22883591 -0.102526955
-0.47825888 -0.37469783 -0.093375534 0.14293547 0.5517482 0.29242077 0.31531504 0.09507152
-0.1320861 0.20303284 0.06630888 -0.27020577 -0.012860074 -0.44697505 -0.20294346 0.1090326
0.045373864 0.5057924 0.278133 -0.10064031 -0.002872049 -0.009359533 0.14988866 0.06399983
0.045222294 0.35086372 0.058409814 -0.315499 0.48065904 -0.12565851 0.24494609 -0.27995706
-0.17348658 0.03738066 0.43133062 0.49935043 -0.120475635 0.31589624 -0.6837098 0.43809614
-0.31013346 -0.46721017 -0.8035898 0.48749363 0.25217754 0.13084815 0.25531286 -0.21193738
-0.24413805 0.18255797 -0.2657391 0.052993514 0.6007604 0.39219257 0.42221648 0.22595853
0.74099207 0.094567135 0.09229017 0.045914385 0.09834681 0.081108116 -0.2237847 0.1944052
0.25564137 0.6821571 -0.46444735 -0.16782174 -0.41519973 0.073172495 -0.5928106 -0.26040092
-0.10522302 0.028367601 -0.39226645 0.12557371 0.10830249 -0.32919374 -0.24250071 -0.50963324
00000000: a0ad f43e 7ab5 a93e 33bb 203f f98a d33e
00000010: 63b8 c53e 62a0 753d ff2f 113f 090f e83e
00000020: 699a 1b3f dacf 523f 515f 3b3f 35bd db3e
00000030: 78c8 9d3e c6df a33e ac81 0abf aa5f 8bbd
00000040: 5d4d 58bf 240c 4fbf 3ffa dcbe 9f8a 543f
00000050: 9c87 183f 47bb 413f 2e99 2b3f 005d 4a3e
00000060: 96e5 bb3c 8cab d53d 501a f33e 3ce3 8e3e
00000070: 6590 013f 4b56 c03e a7ac e8bb cf18 03bf
00000080: 42ae ec3e 77e9 65be 0f44 723f 8b7f 6f3f
00000090: a6e0 acbd 8200 273f 63bb 573f ed83 2d3f
000000a0: b3db 24bf 2c80 35bf 7160 c23c 0194 ccbe
000000b0: 48c1 b2bd 2142 9cbe 1f95 03bf fce5 c3be
000000c0: fa3e 9bbe 864d 2cbc b71d a43d bea0 d0be
000000d0: 80bb eebe 4c02 163e 7f6c 93bd 93fe 8dbd
000000e0: a3cd 9e3e b945 9c3d 881f 443d 6102 1b3e
000000f0: 3f21 3e3e c41a dc3e f277 cf3e e5b6 0e3f
00000100: 3eae 143f 9089 83bd 9567 8d3e fe0a a83e
00000110: 294e ae3e fdac bc3e ad5b 13bf 9850 8c3e
00000120: a22a bfbe a0eb a1be a11f 1ebe 4d14 043f
00000130: 1986 a13f f49d a13e 60e2 4c3e 57ca 8f3e
00000140: 2a19 1c3e 8853 813e f66b f73e 4207 be3e
00000150: 2e00 26bc 56f3 a23e 7c3e a93e 6244 5abb
00000160: a925 543e 5111 fbbe acd6 623f a6bd e23e
00000170: 5bbb c83e a68d a73e 8d7d 303f fa62 8f3d
00000180: 01c7 10bf 6782 0abf a19f be3d 08c6 d63d
00000190: 0813 163e df94 c3bd 1366 8dbe 35a4 96be
000001a0: 7ca2 443e 93eb f5be 9eee 5f3d 6433 b6be
000001b0: 41b1 f3be da65 053e f4de e8be 71ab 1bbe
000001c0: 7318 b3be 9e6d edbe 01d5 8b3c 87ca f6be
000001d0: 4e33 cebe 7884 7e3c ef79 91be 53de b2b8
000001e0: 6ce2 f6be 65cc f6bd 8bef bbbe 1575 b9be
000001f0: 8f8b 1bbf 6115 f6be 014e 393e 5a30 653e
00000200: 77d2 bfbc 5028 7c3e 22ff a83e 0ef5 40be
00000210: 892a 38bf 048d c63d 1338 9e3e ce3a de3e
00000220: 8a93 153d a2c7 d83d 9f10 2d3e 8328 9ebd
00000230: aea8 0d3d 663a 61be f653 6abe a7f9 d1bd
00000240: 59de f4be 65d8 bfbe ac3b bfbd ad5d 123e
00000250: 5f3f 0d3f 2db8 953e f970 a13e dbb4 c23d
00000260: 9441 07be d7e7 4f3e f3cc 873d 6958 8abe
00000270: 0fb3 52bc ead9 e4be 69d0 4fbe 7c4c df3d
00000280: f2d9 393d 9c7b 013f 7367 8e3e 821c cebd
00000290: fd38 3cbb ba58 19bc 6a7c 193e 5812 833d
000002a0: 033b 393d 69a4 b33e 213f 6f3d 1689 a1be
000002b0: f118 f63e a0ac 00be 26d3 7a3e 8856 8fbe
000002c0: 77a6 31be 771c 193d 5ed7 dc3e dcaa ff3e
000002d0: eebb f6bd 27bd a13e 9b07 2fbf 234e e03e
000002e0: d0c9 9ebe 2c36 efbe 10b8 4dbf c498 f93e
000002f0: 6a1d 813e 0ffd 053e 5eb8 823e 1d06 59be
00000300: 53ff 79be 7af0 3a3e f50e 88be ba0f 593d
00000310: 6fcb 193f 77cd c83e c22c d83e ac61 673e
00000320: a8b1 3d3f 6aac c13d a102 bd3d b910 3c3d
00000330: 0d6a c93d 031c a63d d127 65be 2812 473e
00000340: 6de3 823e d9a1 2e3f 0bcc edbe 76d9 2bbe
00000350: 0f95 d4be 76db 953d 6fc2 17bf 4553 85be
00000360: 2b7f d7bd 2c63 e83c 26d7 c8be 6596 003e
00000370: b2cd dd3d 158c a8be 1b52 78be 5377 02bf

rnn.weight_hh_l0 f4 [32, 8]
-0.19342345 -0.048763946 0.16892107 0.49123943 0.11867061 -0.12316963 0.30948812 -0.53360337
-0.53498477 -0.5473438 0.14411415 0.031134745 -0.3241465 0.48933738 0.32404137 0.0967066
0.52792746 0.24122645 -0.8903061 0.16181429 0.021005277 -0.6112118 -0.16067427 -0.08371426
0.08222002 0.17821294 0.057586458 0.34837222 -0.39627388 0.31325975 0.2870931 -0.22702363
0.60234815 0.9988644 0.36092156 -0.5347515 0.4331393 -0.9702896 0.5814657 -0.80394876
0.0013962507 0.17533049 1.4763994 -0.38854912 -0.14821665 0.01448151 0.15054767 -0.65174913
-0.061906684 0.31020224 0.21179315 0.027624482 0.34681416 -0.19317077 0.1755426 0.07342469
0.20392635 0.57210106 -0.07470444 -0.24804093 0.15114343 -0.07586243 -0.2272146 0.0042312667
-0.38907692 -0.5174876 0.39663157 -0.0457719 -0.031420585 0.49023074 -0.030333107 -0.55328107
-0.472088 0.08077283 0.007770221 0.31534958 -0.123943835 0.09913464 0.080985464 -0.26139566
-0.21555644 0.091008686 -0.84278876 0.42449707 0.12302825 0.47770962 -0.32452327 0.37166825
-0.39857018 -0.04937488 0.22634166 0.11606576 -0.18265007 -0.048579913 -0.17774835 0.05782455
-0.039257627 0.34567988 0.22163555 0.074543625 0.23161969 -0.043112103 0.4996049 -0.6323541
-0.41702673 -0.28092924 0.59913915 -0.17027512 0.11601397 0.4631958 -0.20976137 -0.36270404
-0.059586164 0.45339105 -0.21711317 -0.31213254 0.49970144 -0.36968902 -0.19015323 0.31533286
0.016176822 0.26964226 0.09198089 -0.116813034 0.44911805 -0.03396054 -0.10318887 -0.19619103
0.3021797 0.55976135 -0.2995721 -0.5352602 -0.02166572 -0.14264153 0.07466369 0.16340029
0.27260816 0.044601478 0.11344828 -0.45300093 0.43500638 -0.06490029 0.050343454 0.20278734
-0.028976507 -0.25147626 0.41160807 -0.09016105 -0.11548576 0.23870878 -0.17473592 0.44363883
-0.5534182 -0.49865818 0.014609164 0.28065428 -0.25845543 0.12377415 -0.03906802 -0.017956771
0.2679696 -0.13060184 -0.039913364 0.2812993 0.101345636 -0.14940183 -0.4973945 0.4698165
-0.44171587 0.095608085 0.32217604 -0.1614303 -0.16092256 0.056335453 0.36054012 0.14439185
-0.09019885 -0.1542179 0.1792757 -0.2912951 -0.0025859482 -0.09546912 -0.15438442 0.33961472
-0.05368424 0.09349182 -0.1415 0.4734576 -0.25935987 0.42452598 -0.09370201 -0.2965847
0.40409544 0.08379003 0.809365 0.10390481 0.51046467 -0.060625315 0.07539836 -0.034496106
-0.14988388 -0.039335646 0.6376193 0.117934376 0.17881417 -0.29469115 0.12994644 -0.4121781
-0.31084394 0.038070567 -0.32427037 0.4152237 -0.110199146 -0.0093928715 -0.0023853816 0.2062719
0.26402313 0.235332 -0.012368783 0.05903509 0.45965648 -0.5543404 -0.37903845 0.122655615
0.14888437 -0.044954468 0.5592903 -0.03167995 0.3677153 -0.27404365 -0.12909052 -0.19205095
-0.016826233 0.548183 0.45463842 -0.37816274 -0.12568444 -0.36883315 0.09865119 -0.5294457
0.29106107 0.3913293 -0.13933054 -0.27985847 0.34838042 -0.17369956 -0.1340435 -0.074679114
0.18658175 0.37833023 -0.014684377 -0.4118419 0.029548503 -0.2650655 -0.1261678 0.08043145
00000000: cc10 46be b4bc 47bd a5f9 2c3e bc83 fb3e
00000010: 9409 f33d 5c40 fcbd 3a75 9e3e 3b9a 08bf
00000020: c3f4 08bf b91e 0cbf a992 133e 4b0e ff3c
00000030: 88f6 a5be 6e8a fa3e c0e8 a53e 1c0e c63d
00000040: 4126 073f 1104 773e 1aeb 63bf a5b2 253e
00000050: 4213 ac3c 6078 1cbf cc87 24be 6272 abbd
00000060: f862 a83d 747d 363e c7df 6b3d d85d b23e
00000070: 69e4 cabe 9563 a03e defd 923e e278 68be
00000080: 7d33 1a3f 94b5 7f3f b6ca b83e 79e5 08bf
00000090: 6fc4 dd3e e664 78bf f0da 143f 96cf 4dbf
000000a0: 6602 b73a d689 333e a8fa bc3f e9ef c6be
000000b0: 1bc6 17be db43 6d3c 2b29 1a3e 08d9 26bf
000000c0: dd91 7dbd d4d2 9e3e 4ee0 583e bd4c e23c
000000d0: a091 b13e 8fce 45be 70c1 333e af5f 963d
000000e0: 12d2 503e 3775 123f a4fe 98bd 71fe 7dbe
000000f0: 58c5 1a3e c35d 9bbd f2aa 68be 70a6 8a3b
00000100: 1735 c7be 117a 04bf 4b13 cb3e 517b 3bbd
00000110: dfb2 00bd 86ff fa3e 237d f8bc d4a3 0dbf
00000120: 85b5 f1be 3a6c a53d 579d fe3b 8075 a13e
00000130: 44d6 fdbd 1a07 cb3d b5db a53d a7d5 85be
00000140: d4ba 5cbe c362 ba3d 01c1 57bf ae57 d93e
00000150: 3cf6 fb3d 5b96 f43e ea27 a6be 4d4b be3e
00000160: 6411 ccbe 503d 4abd 1cc6 673e e3b3 ed3d
00000170: 9f08 3bbe bbfb 46bd aa03 36be 6fd9 6c3d
00000180: 9bcc 20bd f4fc b03e 6ef4 623e 54aa 983d
00000190: b62d 6d3e 5196 30bd 37cc ff3e f5e1 21bf
000001a0: 8784 d5be f5d5 8fbe 2f61 193f 9a5c 2ebe
000001b0: bb98 ed3d 0028 ed3e afcb 56be 58b4 b9be
000001c0: 9f10 74bd df22 e83e ea52 5ebe d6cf 9fbe
000001d0: ded8 ff3e e147 bdbe 87b7 42be 4f73 a13e
000001e0: 4185 843c 8d0e 8a3e 7a60 bc3d ac3b efbd
000001f0: cdf2 e53e 351a 0bbd b054 d3bd 4de6 48be
00000200: 4cb7 9a3e 854c 0f3f 8461 99be d006 09bf
00000210: 4f7c b1bc 9f10 12be 47e9 983d 6852 273e
00000220: 4c93 8b3e 0ab0 363d 9257 e83d bdef e7be
00000230: 28b9 de3e 71ea 84bd f034 4e3d 7ca7 4f3e
00000240: 2460 edbc 7fc1 80be 4bbe d23e 5ba6 b8bd
00000250: cc83 ecbd 1370 743e f9ed 32be a124 e33e
00000260: d1ac 0dbf 2050 ffbe 465b 6f3c ebb1 8f3e
00000270: 4554 84be 4d7d fd3d ca05 20bd 141a 93bc
00000280: 5033 893e 7dbc 05be 327c 23bd 7606 903e
00000290: 4d8e cf3d cbfc 18be 7eaa febe ca8b f03e
000002a0: 9528 e2be 2cce c33d 42f4 a43e fc4d 25be
000002b0: e2c8 24be 01c0 663d b798 b83e 75db 133e
000002c0: 2dba b8bd 4ceb 1dbe 0d94 373e a224 95be
000002d0: 0379 29bb 5085 c3bd f316 1ebe fbe1 ad3e
000002e0: 01e4 5bbd a478 bf3d 60e5 10be 0969 f23e
000002f0: d1ca 84be 785b d93e d7e6 bfbd f3d9 97be
00000300: 99e5 ce3e 1b9a ab3d 8b32 4f3f 0ccc d43d
00000310: d0ad 023f 4052 78bd 756a 9a3d ca4b 0dbd
00000320: 297b 19be 6a1e 21bd 053b 233f 9487 f13d
00000330: 101b 373e c2e1 96be ae10 053e 0209 d3be
00000340: f026 9fbe e2ef 1b3d c406 a6be 3398 d43e
00000350: 17b0 e1bd 8fe4 19bc 1054 1cbb f138 533e
00000360: 0a2e 873e dffa 703e 70a6 4abc c7ce 713d
00000370: 1858 eb3e 41e9 0dbf 5411 c2be de32 fb3d
00000380: 2575 183e 2d22 38bd a62d 0f3f d6c2 01bd
00000390: 2e45 bc3e 734f 8cbe 4e30 04be 01a9 44be
000003a0: 2bd7 89bc b955 0c3f 5ec6 e83e 8c9e c1be
000003b0: 6cb3 00be b3d7 bcbe a309 ca3d c189 07bf
000003c0: f505 953e 505c c83e aaac 0ebe 9c49 8fbe
000003d0: eb5e b23e 4cde 31be b342 09be 5df1 98bd
000003e0: 490f 3f3e 80b4 c13e be96 70bc f1dc d2be
000003f0: b40f f23c aab6 87be 2232 01be 3eb9 a43d

rnn.bias_ih_l0 f4 [32]
0.15681197 0.57756865 -0.19465527 0.3239266 -0.1490572 0.034402784 -0.41226944 -0.24773821
0.30258632 0.31362963 0.27775225 0.180191 0.04896811 0.3069959 0.15454501 0.1428912
-0.5158908 -0.26501817 0.14033069 0.15949935 -0.36678675 0.5067069 0.13993973 0.28179407
-0.22889444 0.56872755 0.120615825 -0.18357447 -0.07174214 0.07803684 -0.47628003 -0.060453635
00000000: 5193 203e 8adb 133f b653 47be b5d9 a53e
00000010: 73a2 18be efe9 0c3d fb14 d3be 16af 7dbe
00000020: 98ec 9a3e 1094 a03e 8b35 8e3e fd83 383e
00000030: c992 483d 912e 9d3e 0c41 1e3e 1252 123e
00000040: 6b11 04bf 76b0 87be d9b2 0f3e cc53 233e
00000050: 79cb bbbe 8bb7 013f 5c4c 0f3e 5047 903e
00000060: 4e63 6abe 2198 113f 6e05 f73d f2fa 3bbe
00000070: 8bed 92bd c7d1 9f3d fada f3be 3b9e 77bd

rnn.bias_hh_l0 f4 [32]
0.23688471 0.35173506 -0.45685375 0.25590885 -0.1329696 0.33733746 -0.5050731 -0.3846833
0.099670194 0.14522721 -0.051667962 0.24619554 -0.27057117 0.17618261 -0.3704037 -0.38254243
-0.13894227 -0.5019744 -0.24231379 0.47788954 -0.34988663 0.42783728 -0.36271814 0.1754239
0.18658036 0.5239358 -0.034409743 -0.1800274 0.15446281 0.19794706 -0.14658684 -0.25672886
00000000: e891 723e 9e16 b43e bce8 e9be 7c06 833e
00000010: 2f29 08be 7fb7 ac3e 784c 01bf 36f5 c4be
00000020: e31f cc3d 71b6 143e c9a1 53bd af1a 7c3e
00000030: 4e88 8abe 3769 343e 8ea5 bdbe 9adc c3be
00000040: e246 0ebe 6581 00bf 1b21 78be f0ad f43e
00000050: 5724 b3be 7d0d db3e 31b6 b9be 53a2 333e
00000060: ec0e 3f3e a820 063f 3bf1 0cbd 1a59 38be
00000070: 802b 1e3e a2b2 4a3e dc1a 16be f771 83be

out.weight f4 [1, 8]
-0.100509994 -0.3016663 0.16679722 0.1568219 -0.23492414 0.3880168 0.09185233 0.10606768
00000000: 2fd8 cdbd 0174 9abe e4cc 2a3e ec95 203e
00000010: f48f 70be 23aa c63e 131d bc3d 033a d93d
