ckpt/309.ckpt (torch_old, 3320 bytes, 5 tensors)

rnn.weight_ih_l0 f4 [32, 7]
000000 18 5b f7 3e 2d 0e ab 3e e7 9e 21 3f bf 04 d5 3e
       0.48311687 0.33409253 0.6313309 0.41605183
000010 06 d1 c7 3e 1f b7 78 3d 3b 34 11 3f 15 00 eb 3e
       0.3902666 0.060721513 0.5672032 0.458985
000020 fa 71 1c 3f 9c e2 53 3f 84 52 3c 3f da ed dd 3e
       0.61111414 0.82767653 0.7356341 0.4334553
000030 c8 91 9e 3e de 39 a4 3e 9e 23 0c bf 00 f8 6b bd
       0.30970597 0.320754 -0.5474185 -0.057609558
000040 7d 1c 57 bf fd 17 4f bf 93 7f db be f1 19 55 3f
       -0.84027845 -0.8089598 -0.4287077 0.8324271
000050 15 28 19 3f 88 4b 43 3f 4c 8e 2c 3f 53 e6 4e 3e
       0.59826785 0.76287127 0.6740463 0.20205049
000060 bb 89 db 3c 01 70 df 3d dd f9 f3 3e f1 15 8f 3e
       0.026799073 0.10910035 0.47651568 0.27946427
000070 91 26 12 3f 2a 7c d4 3e 9f 97 a3 bc cf 7b 14 bf
       0.570901 0.4150098 -0.01996976 -0.58001417
000080 ba b2 ea 3e 26 bd 64 be 38 31 75 3f e2 c9 72 3f
       0.45839483 -0.2233778 0.95778227 0.948393
000090 71 de cc bd 5d 8f 28 3f 63 10 58 3f 5c 4d 2f 3f
       -0.10003365 0.65843755 0.84400004 0.68477416
0000a0 ab 55 2b bf 26 d1 37 bf 65 a4 e4 3c c8 68 cb be
       -0.66927594 -0.7180351 0.02791042 -0.3972838
0000b0 93 1d a7 bd 19 df 98 be f3 b4 02 bf 2e 41 c4 be
       -0.08159938 -0.2985771 -0.51057357 -0.38330978
0000c0 02 61 9b be 6c 75 ba bb 58 fa ab 3d 26 23 cf be
       -0.3034745 -0.0056902673 0.08397359 -0.40456504
0000d0 33 35 ed be 8b 9a 19 3e bc 4b 8c bd 14 9a 8d bd
       -0.4632965 0.1500036 -0.06850383 -0.06914154
0000e0 a7 fb 9e 3e 4b 0c 9c 3d 4f 39 44 3d 3f e6 1a 3e
       0.3105137 0.07619532 0.047906216 0.15126894
0000f0 ac 77 3e 3e 06 e9 db 3e b2 4d cf 3e 0c d6 0e 3f
       0.18600339 0.4295122 0.40488964 0.5579536
000100 d8 a0 14 3f ca 9e 83 bd ff 45 8d 3e 0a 47 a8 3e
       0.5805793 -0.06426771 0.27592465 0.32866699
000110 45 f6 ad 3e fe 6b bc 3e 46 d2 11 bf 80 ef 92 3e
       0.3397695 0.36801142 -0.56961477 0.2869835
000120 c5 1a b7 be c4 9c 9c be 04 a4 12 be 41 12 04 3f
       -0.3576261 -0.30588353 -0.1432038 0.51590353
000130 c7 3b a2 3f 0b 91 a1 3e ee ae 4c 3e c5 b1 8f 3e
       1.2674493 0.31555972 0.19988605 0.28065315
000140 d3 af 1b 3e c8 66 81 3e e6 49 f7 3e 46 e8 bd 3e
       0.1520379 0.25273728 0.48298568 0.37091273
000150 db 34 24 3d 7a 4b b2 3e 8b f1 b0 3e 3d d7 69 bc
       0.04008947 0.3482321 0.34559283 -0.014272508
000160 39 34 60 3e 90 f1 fd be 0e d2 67 3f 4f 6d e7 3e
       0.21894921 -0.4959836 0.90554893 0.45200583
000170 f3 cb c7 3e fd ed ab 3e f0 80 31 3f ce 0a 9c 3d
       0.39022788 0.33580008 0.6933737 0.07619248
000180 49 9a 14 bf 38 1e 0b bf 04 0c c7 3d 0d ac db 3d
       -0.5804792 -0.54342985 0.09719089 0.107261755
000190 86 da 19 3e 68 9d bb bd bd e7 8b be 61 7b 96 be
       0.15024766 -0.09160882 -0.2732524 -0.29391006
0001a0 f9 af 44 3e 1d af f5 be 95 4b 62 3d d3 19 b6 be
       0.19207753 -0.47985163 0.055247862 -0.35566577
0001b0 c7 94 f3 be 39 c7 05 3e 99 7a e8 be d7 93 1b be
       -0.47574446 0.13064279 -0.45406035 -0.15193115
0001c0 38 c7 b3 be 81 c8 ed be cc 44 84 3c 0c 35 f7 be
       -0.3511293 -0.46442035 0.016146086 -0.4828266
0001d0 b5 b5 ce be 92 12 7a 3c 48 8b 91 be d9 da fd ba
       -0.40373006 0.015263217 -0.28426576 -0.001936759
0001e0 75 8a f7 be e2 bc f9 bd 94 9a bc be 55 34 ba be
       -0.48347822 -0.1219423 -0.36836684 -0.3636805
0001f0 59 c0 1b bf a9 34 f6 be ab 54 36 3e ea 1b 72 3e
       -0.60840374 -0.48087052 0.17805736 0.23643461
000200 be 16 bd bc 0e a5 76 3e 3a 03 ab 3e 77 f8 41 be
       -0.023082133 0.24086401 0.334009 -0.18942438
000210 20 09 39 bf 7f 53 c9 3d a1 ae 9e 3e cf c3 de 3e
       -0.7227955 0.09830379 0.30992606 0.43508765
000220 2a 6b 19 3d a0 eb da 3d 3e 9e 2d 3e 27 c5 9d bd
       0.037455715 0.10689473 0.16954896 -0.077036195
000230 ac 6c 05 3d ae c7 63 be 8a 5b 69 be 64 fc ca bd
       0.03257434 -0.2224414 -0.22788826 -0.09911421
000240 00 5c f5 be 01 d8 c1 be 08 17 c0 bd 91 57 14 3e
       -0.47921753 -0.3786011 -0.09379393 0.14486529
000250 24 44 0d 3f ce 50 96 3e e9 da a1 3e 38 80 c5 3d
       0.551821 0.29358524 0.31612328 0.096435964
000260 14 1b 08 be 57 c0 4f 3e c8 a1 85 3d f6 3c 8a be
       -0.1329158 0.20288216 0.06524998 -0.26999635
000270 4e aa 5f bc f0 5e e5 be 1d 4f 50 be 1c 0b e5 3d
       -0.013651444 -0.44798994 -0.2034268 0.111837596
000280 d3 44 3f 3d 0a b6 01 3f 6f d1 8e 3e 5a bf cc bd
       0.046696495 0.50668395 0.2789416 -0.09997435
000290 3e cb 12 bb 16 77 0d bc 56 26 1a 3e c3 a5 83 3d
       -0.0022398974 -0.008634349 0.15053686 0.06428101
0002a0 c8 43 59 3d 7d e9 b4 3e 91 7f 3d 3d af 03 a8 be
       0.053043157 0.35334387 0.046264235 -0.3281531
0002b0 b4 69 f2 3e 14 10 fc bd c6 53 79 3e b3 15 87 be
       0.4734627 -0.12307754 0.24348363 -0.26383743
0002c0 64 f0 2b be 97 fc df 3c 3f 7d d7 3e 42 17 ff 3e
       -0.1679092 0.027342124 0.42087743 0.49822432
0002d0 93 2a e4 bd b1 82 a2 3e 16 53 32 bf 19 f4 e7 3e
       -0.11140933 0.31740335 -0.6965803 0.4530342
0002e0 6e 79 a6 be 58 38 f7 be 3e a8 50 bf 34 55 f4 3e
       -0.32514518 -0.48285174 -0.8150672 0.47721255
0002f0 6d da 74 3e 0b 60 10 3e 04 28 85 3e 1b ed 5f be
       0.23911448 0.14099137 0.26007092 -0.21867792
000300 d6 07 81 be 59 c1 38 3e 65 f7 84 be da f6 58 3d
       -0.2520129 0.18042506 -0.25969997 0.05296979
000310 8d 5e 20 3f c9 28 cd 3e e0 40 d7 3e a1 cb 61 3e
       0.62644273 0.4007018 0.42041683 0.22050335
000320 00 32 3e 3f 5b 05 d3 3d 29 58 b7 3d 65 6f 5d 3d
       0.74295044 0.10303756 0.08952362 0.054061312
000330 94 2a db 3d 23 ba 75 3d ac 9d 7d be af ca 38 3e
       0.107014805 0.059991967 -0.24767178 0.18046068
000340 72 73 86 3e 1b 60 2e 3f 5f c4 eb be 00 e5 28 be
       0.26259953 0.68115395 -0.46048257 -0.16493607
000350 49 3b d1 be ae c8 a4 3d 38 c3 16 bf 86 91 85 be
       -0.40865543 0.08046089 -0.5889163 -0.26087588
000360 71 d4 d6 bd 7f 68 06 3d 62 05 c7 be 50 43 03 3e
       -0.10489739 0.0328145 -0.38871294 0.12818646
000370 a3 5f e3 3d d5 ec a6 be 9e c8 74 be 2d 6c 02 bf
       0.11102226 -0.32602564 -0.23904654 -0.50946313

rnn.weight_hh_l0 f4 [32, 8]
000000 24 97 45 be 7f 79 45 bd d2 ee 2c 3e 38 47 fb 3e
       -0.19295937 -0.04821157 0.16887978 0.49077773
000010 a8 c9 f3 3d ca c3 fd bd 55 bd 9e 3e 7d cc 08 bf
       0.11903697 -0.123908594 0.31003824 -0.53437024
000020 42 cc 08 bf 67 fe 0b bf b8 8c 13 3e 38 f1 f9 3c
       -0.5343667 -0.5468506 0.14409149 0.03051053
000030 71 a0 a5 be 37 0b fa 3e 98 f6 a5 3e 72 b1 c5 3d
       -0.3234897 0.4883668 0.324147 0.09652986
000040 96 d4 04 3f a6 e5 6f 3e 52 a9 5d bf 61 22 29 3e
       0.5188688 0.23427448 -0.8658649 0.16517021
000050 cd ac 7e 3c 18 7d 18 bf 33 79 24 be 52 b4 a8 bd
       0.015544129 -0.5956588 -0.16061859 -0.08237518
000060 c8 46 a9 3d 15 0a 37 3e ea c5 6b 3d 9e 23 b2 3e
       0.082654536 0.1787494 0.057561792 0.347928
000070 ad b9 ca be d3 0a a0 3e 8a 22 93 3e d3 d9 68 be
       -0.39594784 0.31258258 0.2873729 -0.22739343
000080 0a 26 26 3f 34 f8 88 3f 96 17 c7 3e b2 5c 14 bf
       0.64901793 1.0700746 0.38885182 -0.5795394
000090 b0 32 d7 3e 95 03 81 bf 4b 59 27 3f ec 0e 5b bf
       0.4203086 -1.0079218 0.65370625 -0.85569644
0000a0 03 ec 95 3c 35 2e 45 3e 5e a8 bc 3f 1d 04 cf be
       0.018301016 0.19255908 1.4738882 -0.40432826
0000b0 58 87 0d be 18 df 93 bb c9 19 1f 3e c1 96 29 bf
       -0.13821161 -0.004512679 0.1553718 -0.6624566
0000c0 30 2d 96 bd 4d 96 99 3e f3 9a 58 3e 18 0b 21 3d
       -0.073328376 0.29997483 0.21152858 0.03931722
0000d0 dd 7e af 3e c8 26 3b be ff da 32 3e 61 c3 98 3d
       0.34276477 -0.18276513 0.17466353 0.074591406
0000e0 9c bc 4b 3e a4 c3 11 3f bc 90 99 bd 4a b1 78 be
       0.19896168 0.5693915 -0.07498309 -0.2428638
0000f0 a1 b7 16 3e b8 e3 91 bd 32 c6 68 be 19 ed 96 3b
       0.14718486 -0.07123512 -0.22731856 0.004605901
000100 e8 0f c7 be 1e 61 04 bf 50 14 cb 3e a1 9d 3c bd
       -0.38879323 -0.5171069 0.39663935 -0.046048764
000110 ed 49 00 bd c9 c5 fa 3e 3e 3b f5 bc c6 c2 0d bf
       -0.0313205 0.48979023 -0.029935475 -0.55375326
000120 2f 4b f1 be 86 2e a7 3d 06 5c fa 3b 2e 09 a1 3e
       -0.47127673 0.081631705 0.0076403646 0.31452316
000130 84 e1 fc bd 98 49 c8 3d e4 58 a6 3d 18 01 86 be
       -0.12347701 0.09779662 0.08122423 -0.2617271
000140 7c 32 6a be e4 9e a2 3d 55 14 52 bf 11 a5 dc 3e
       -0.22870821 0.07940462 -0.82062274 0.43094686
000150 b5 5f e4 3d 99 91 ff 3e b5 1f a7 be 44 f8 bf 3e
       0.11151067 0.4991577 -0.32641378 0.374941
000160 c1 dd cb be 39 05 48 bd 53 d8 67 3e 72 e0 ec 3d
       -0.39817622 -0.048833106 0.22641115 0.11566247
000170 c5 c9 3a be ea 35 49 bd 51 c1 35 be f2 9d 6b 3d
       -0.18241031 -0.049123682 -0.17749526 0.057523675
000180 11 ed 36 bd 09 57 b0 3e 02 da 7b 3e c9 15 97 3d
       -0.044659678 0.34441403 0.24594882 0.07377202
000190 77 28 47 3e 5c 78 e0 bc cc 75 06 3f 36 fb 22 bf
       0.1944903 -0.027401142 0.52523494 -0.6366457
0001a0 13 64 d5 be 76 a1 8f be fd eb 18 3f f1 94 2e be
       -0.41677913 -0.28052872 0.5973509 -0.17049004
0001b0 73 1d ec 3d 42 9a ed 3e b0 7e 57 be 43 71 ba be
       0.115290545 0.46406752 -0.21044421 -0.36414537
0001c0 08 ae 8b bd 20 9a e5 3e 4d 5e 5e be d7 d7 9b be
       -0.06820303 0.4484415 -0.2171566 -0.3043811
0001d0 d2 2d fd 3e 6f 80 b9 be aa 0e 43 be 18 ae a1 3e
       0.4944902 -0.362308 -0.19048563 0.31578135
0001e0 e1 e8 63 3c fe 86 89 3e 3f 4e bc 3d 40 9b ea bd
       0.013910503 0.26860803 0.09194612 -0.11455393
0001f0 0c b2 e4 3e 2c 9a 02 bd cf 65 d3 bd 66 c8 48 be
       0.4466709 -0.03188531 -0.10322153 -0.19607696
000200 20 a8 9a 3e 7b 45 0f 3f fa 60 99 be 75 ff 08 bf
       0.30206394 0.55965394 -0.299568 -0.53514796
000210 4c 78 b2 bc 5f df 11 be 05 d2 98 3d 0a 6a 27 3e
       -0.021785878 -0.14245366 0.07461933 0.16349044
000220 d9 75 8b 3e aa f1 35 3d 88 59 e8 3d 83 cf e7 be
       0.27238348 0.044419922 0.11345202 -0.45275506
000230 96 94 de 3e 4f 3f 84 bd d5 13 4e 3d e2 b1 4f 3e
       0.43472737 -0.06457388 0.050311882 0.202827
000240 60 94 09 bd 52 d1 82 be 53 27 cb 3e 71 c8 a9 bd
       -0.033588767 -0.25550324 0.3967844 -0.08290184
000250 23 ce ee bd 6f e9 72 3e ac 3e 34 be 3d e9 e3 3e
       -0.11660411 0.2372186 -0.17602032 0.44513884
000260 f3 a3 0d bf a6 44 ff be 8c 56 6f 3c 6d 9e 8f 3e
       -0.5532829 -0.49857062 0.014608037 0.28050557
000270 76 3e 84 be fa 22 fd 3d f6 f8 1f bd 66 3c 93 bc
       -0.25828904 0.12360187 -0.039055787 -0.017973136
000280 54 37 87 3e 27 e0 0a be de c4 2f bd d2 0a 92 3e
       0.264094 -0.1356207 -0.042912357 0.2852388
000290 c2 b1 cc 3d 08 17 15 be be fa ff be 34 dd f1 3e
       0.09994842 -0.14559567 -0.4999599 0.47239077
0002a0 6b 75 e1 be 6c f1 c5 3d ba 20 a3 3e 3a 42 26 be
       -0.44034895 0.09665188 0.31860906 -0.16236201
0002b0 06 fd 23 be 7f 5f 5c 3d 61 ac b8 3e c9 80 13 3e
       -0.1601449 0.05380201 0.36069015 0.14404596
0002c0 b2 f3 bb bd 4a bb 1e be d9 a5 37 3e f1 a9 94 be
       -0.091773406 -0.15501133 0.1793436 -0.29035905
0002d0 1f bf 42 bb 2e 4d be bd de fc 1d be 45 e7 ad 3e
       -0.0029715968 -0.092920646 -0.15428492 0.33965507
0002e0 d8 15 5e bd fb db be 3d b5 ff 10 be 33 af f2 3e
       -0.05422005 0.09319302 -0.14160044 0.4739929
0002f0 37 03 85 be 1d a3 d9 3e 6e eb bf bd a7 d3 97 be
       -0.25979015 0.42507258 -0.093710765 -0.29653665
000300 1d 0c d1 3e 65 15 ba 3d 70 02 50 3f e1 6d cd 3d
       0.40829554 0.09086112 0.8125372 0.10030723
000310 e7 49 02 3f eb 63 81 bd 9c 62 ab 3d f4 1c 14 bd
       0.50894016 -0.06317886 0.083684176 -0.036160424
000320 c6 1a 18 be 2b ed 12 bd 24 66 23 3f 21 1e ef 3d
       -0.14853963 -0.035870712 0.6382773 0.116756685
000330 47 b5 31 3e 65 3b 96 be 58 a2 08 3e e7 ff d1 be
       0.17354308 -0.2934219 0.13343179 -0.4101555
000340 2f 84 9c be 18 4a 51 3d c0 0a 93 be fa ae ce 3e
       -0.30569598 0.051096052 -0.2871914 0.40367872
000350 f7 1a db bd ab 57 14 bc c4 6a 5c 3a c6 99 4e 3e
       -0.106985025 -0.009054105 0.00084082433 0.20175847
000360 57 80 88 3e bb 52 76 3e 09 30 ac 3b 91 55 66 3d
       0.26660416 0.24054997 0.0052547497 0.056233946
000370 34 94 ea 3e 7a f1 0d bf a5 0e bf be a1 e2 f9 3d
       0.45816195 -0.5544659 -0.3731586 0.12201429
000380 77 41 19 3e 44 e3 2b bd b6 e9 11 3f 67 c1 07 bd
       0.14966379 -0.041964784 0.5699724 -0.033143427
000390 22 fb b9 3e 96 50 8b be 84 52 f2 bd 9a 1f 44 be
       0.36324412 -0.2720992 -0.11832145 -0.1915268
0003a0 23 36 23 bc df a3 0f 3f 17 71 f0 3e 98 ed c4 be
       -0.009961638 0.5610942 0.4696128 -0.3846252
0003b0 ba ea 04 be 1b 1c be be 06 15 e2 3d 62 0d 08 bf
       -0.12980166 -0.37130818 0.11039166 -0.5314542
0003c0 75 b2 8e 3e 2c 4f c2 3e f7 c6 0e be 1f 06 89 be
       0.27870527 0.37951028 -0.13943087 -0.26762483
0003d0 e0 e8 af 3e 65 b1 25 be 81 48 0a be 76 49 96 bd
       0.34357357 -0.16180952 -0.1350422 -0.0733823
0003e0 15 c9 39 3e 28 45 c0 3e a6 19 77 bc a8 20 d0 be
       0.18143113 0.37552762 -0.015081799 -0.40649915
0003f0 ab f0 d1 3c 37 4a 85 be 13 52 01 be 06 8b a5 3d
       0.025627455 -0.26033184 -0.12628965 0.08083157

rnn.bias_ih_l0 f4 [32]
000000 3c 2e 22 3e 4c 86 14 3f 87 be 41 be dd 3c a7 3e
       0.1583795 0.5801742 -0.18920337 0.32663622
000010 1e cf 27 be 61 97 c2 3c fa 93 d1 be 36 40 7a be
       -0.16387603 0.023753824 -0.4093321 -0.24438557
000020 bb b8 9a 3e 67 37 a0 3e 40 95 92 3e 01 fb 37 3e
       0.30219063 0.3129227 0.28629494 0.17966844
000030 de d7 52 3d c6 89 9c 3e dd 95 20 3e ef d2 12 3e
       0.0514754 0.30573863 0.15682168 0.14338277
000040 77 32 04 bf f0 3d 88 be 74 3a 11 3e 1a 1d 24 3e
       -0.51639503 -0.26609755 0.14182454 0.16026726
000050 2e 07 bc be c7 b9 01 3f 55 f5 0f 3e 12 a4 90 3e
       -0.36724228 0.506741 0.1405843 0.28250176
000060 c2 6f 6a be 45 15 13 3f 1f 95 e0 3d bb 61 39 be
       -0.22894195 0.5745433 0.109659426 -0.18103687
000070 8c ec 82 bd fe a3 a1 3d 10 11 f2 be c3 83 6a bd
       -0.06392774 0.07892607 -0.47278643 -0.057254564

rnn.bias_hh_l0 f4 [32]
000000 d3 2c 74 3e 1f 6c b5 3e 25 1e e7 be a4 69 84 3e
       0.23845224 0.35434052 -0.45140186 0.25861847
000010 da 55 17 be b7 43 a7 3e f9 8b 00 bf c6 3d c3 be
       -0.14778844 0.3266885 -0.5021358 -0.38133067
000020 7b 50 cb 3d 1e fd 13 3e 2b a4 30 bd b3 91 7b 3e
       0.0992746 0.14452025 -0.043125313 0.24567299
000030 ab 3f 89 be a3 1f 33 3e 22 7b bc be 2a 9c c3 be
       -0.26806387 0.17492537 -0.36812693 -0.3820508
000040 12 cb 0e be 20 c8 00 bf 80 99 76 be 98 12 f5 3e
       -0.13944653 -0.50305367 -0.24081993 0.47865748
000050 0c 60 b3 be f8 11 db 3e b8 61 b9 be d5 5b 34 3e
       -0.35034215 0.42787147 -0.36207366 0.17613156
000060 78 02 3f 3e cc 9d 07 3f d8 d1 39 bd e3 bf 35 be
       0.18653286 0.52975154 -0.04536614 -0.1774898
000070 ff 2b 26 3e bd 9b 4b 3e 05 87 12 be a9 ce 81 be
       0.1622772 0.19883628 -0.14309318 -0.25352982

out.weight f4 [1, 8]
000000 e4 fc cd bd d2 36 99 be 6b 08 30 3e 31 d4 21 3e
       -0.10058001 -0.29924637 0.17190711 0.15803601
000010 40 b9 79 be 88 66 c8 3e 67 e1 bc 3d 2a 20 e0 3d
       -0.24387074 0.39140725 0.092226796 0.10943635
