ckpt/329.ckpt (torch_old, 3320 bytes, 5 tensors)

rnn.weight_ih_l0 f4 [32, 7]
000000 38 66 fc 3e 4c 95 ad 3e dd 4a 23 3f a7 c9 d7 3e
       0.49296737 0.33902967 0.6378611 0.42146036
000010 43 c4 cb 3e 29 6c 7e 3d eb 3a 11 3f 92 7d f0 3e
       0.39798173 0.06211487 0.56730527 0.46970803
000020 20 02 1e 3f 82 e1 55 3f d3 15 3e 3f c9 04 e2 3e
       0.6172199 0.8354722 0.7425205 0.44144276
000030 29 03 a0 3e 5c dd a4 3e 7c 7f 0f bf db 90 03 bd
       0.3125241 0.32200134 -0.560539 -0.032120567
000040 c7 04 54 bf bd e2 4e bf 57 fb d6 be 6a 78 56 3f
       -0.8281979 -0.80814725 -0.41988632 0.8377749
000050 4a 4f 1a 3f 04 4f 46 3f 8c 65 2e 3f eb a0 57 3e
       0.60277236 0.7746432 0.681237 0.21057479
000060 a1 28 0c 3d 73 47 f2 3d 15 a3 f5 3e 0c 74 8f 3e
       0.034218434 0.11830034 0.47975984 0.28018224
000070 d3 8c 36 3f e6 39 00 3f da 7a 2a bd 62 26 36 bf
       0.7130863 0.50088346 -0.041621067 -0.7115232
000080 1e 24 ea 3e 52 9f 61 be 0d b3 77 3f dc 5d 79 3f
       0.4573068 -0.22033432 0.96757585 0.97408843
000090 b4 a0 05 be eb 68 2b 3f 0f 45 58 3f ef c6 32 3f
       -0.13049585 0.6695697 0.84480375 0.698348
0000a0 34 92 39 bf 8d c9 3c bf 07 c5 1f 3d 69 36 c8 be
       -0.72488713 -0.7374504 0.03900626 -0.39104012
0000b0 1e d7 88 bd 9c 5a 90 be 90 51 00 bf 76 49 c4 be
       -0.06681655 -0.2819413 -0.50124454 -0.38337296
0000c0 25 35 9b be 08 f6 9e 3b a1 4e bd 3d 0b ed cb be
       -0.30313984 0.0048511066 0.09243513 -0.39829287
0000d0 1d e4 e9 be 0b 9c 21 3e f1 dc 79 bd 66 fa 8c bd
       -0.4568185 0.15782182 -0.06100172 -0.06883697
0000e0 cb 5a 9f 3e 49 aa 9b 3d 5e 89 44 3d f1 b4 1a 3e
       0.31123957 0.07600839 0.047982566 0.15108086
0000f0 13 2a 3f 3e d5 89 db 3e 2c fc ce 3e ec 16 0f 3f
       0.18668394 0.42878595 0.40426767 0.5589435
000100 18 88 14 3f 90 b5 83 bd 11 07 8d 3e d5 c3 a8 3e
       0.5802016 -0.06431115 0.27544454 0.32961908
000110 4c 49 ad 3e 4e eb bb 3e 7a 31 0f bf 4d d4 a1 3e
       0.33844984 0.3670296 -0.5593487 0.31607285
000120 d7 a1 a6 be d9 47 92 be 0d 00 f5 bd 47 25 04 3f
       -0.3254535 -0.2857044 -0.119629 0.5161938
000130 f0 51 a3 3f c1 78 a1 3e 3c 48 4c 3e f0 80 8f 3e
       1.275938 0.3153744 0.1994943 0.2802806
000140 4f d9 1a 3e bd 90 81 3e 74 01 f7 3e c9 a6 bd 3e
       0.15121959 0.2530574 0.48243296 0.3704131
000150 de 71 14 3e 6c 8e d1 3e 3f 05 bc 3e 28 cf 10 bd
       0.14496562 0.40928972 0.36722752 -0.03535381
000160 8a 21 70 3e 5f 74 02 bf c7 90 6f 3f e5 9b f1 3e
       0.23450294 -0.5095882 0.9358029 0.4718925
000170 5e 7c c7 3e 74 a2 b5 3e 01 e9 33 3f bb 9c b8 3d
       0.38962072 0.35475504 0.7027741 0.09014269
000180 55 55 1c bf ea 57 0c bf bd 45 dc 3d 8f f0 e7 3d
       -0.61067706 -0.54821646 0.10755489 0.1132518
000190 84 7a 23 3e ed 96 a7 bd 6e 10 88 be 00 dc 95 be
       0.15964705 -0.08183084 -0.26575035 -0.2926941
0001a0 41 17 45 3e e5 27 f5 be d9 c9 67 3d ff df b5 be
       0.19247152 -0.47882 0.05658898 -0.35522458
0001b0 6c 53 f3 be f3 ae 06 3e 7b 9b e7 be 0c 58 1b be
       -0.47524583 0.13152675 -0.4523581 -0.15170306
0001c0 08 13 b5 be 76 74 ee be 42 e5 6b 3c 6f fe f7 be
       -0.35366082 -0.46573228 0.014397921 -0.48436305
0001d0 65 ad cf be a0 bb 71 3c 94 ab 91 be e6 d9 b1 bb
       -0.40561977 0.014754206 -0.28451216 -0.005427587
0001e0 b4 c5 f8 be d8 42 ff bd 5a db bd be 1f 9d bb be
       -0.48588336 -0.12463921 -0.37081414 -0.3664331
0001f0 1d 22 1c bf 9c 6d f6 be 0e dd 2e 3e aa 1a 87 3e
       -0.6098955 -0.481305 0.17076513 0.2638753
000200 10 4f b2 bc 71 6b 6c 3e 71 24 b0 3e 63 7f 45 be
       -0.021766216 0.2308786 0.34402803 -0.19286875
000210 db 80 3a bf 3a c2 ce 3d 0d 96 9f 3e 7c cf df 3e
       -0.7285287 0.100956395 0.31169167 0.43712986
000220 a0 ea 20 3d ad 1c df 3d ce b0 2e 3e 23 06 9d bd
       0.039286256 0.10894141 0.17059633 -0.07667186
000230 f1 17 e2 3c 67 82 69 be c0 d1 67 be 87 9e bd bd
       0.027599307 -0.22803651 -0.22638607 -0.09258752
000240 4e b6 f6 be d7 ae c5 be 40 fa bf bd 19 1e 18 3e
       -0.48185962 -0.38609955 -0.09373903 0.14855231
000250 5d 4a 0d 3f 3a 67 97 3e 53 8f a2 3e 52 c5 ca 3d
       0.55191594 0.29570943 0.31749973 0.09900917
000260 5b 55 0a be 7f 3e 4f 3e 0e 11 80 3d 25 13 8a be
       -0.13509123 0.20238684 0.06253253 -0.2696773
000270 b8 36 81 bc 7f b8 e6 be 15 ab 51 be 43 8d f1 3d
       -0.015773162 -0.45062634 -0.20475419 0.11794522
000280 59 3f 4b 3d 3e 32 02 3f 69 b6 8f 3e 9b e3 c9 bd
       0.04962096 0.50857913 0.28068855 -0.098578654
000290 b7 42 70 ba 11 08 e7 bb c6 8e 1b 3e 65 e2 84 3d
       -0.0009165215 -0.007050522 0.15191182 0.06488494
0002a0 4a 5f 8f 3d 24 ad b7 3e 07 fa af 3c 50 7c b3 be
       0.07000597 0.35874283 0.021481527 -0.3505578
0002b0 b5 b7 eb 3e 2e f3 f1 bd b1 23 73 3e 79 a6 6c be
       0.46038595 -0.11813961 0.23744084 -0.2311038
0002c0 92 48 20 be 63 fe ea 3b dc 7e ce 3e ce cd fe 3e
       -0.15652683 0.0071714385 0.4033116 0.49766392
0002d0 32 7a c0 bd 6f a4 a2 3e 3d 8b 39 bf c6 70 f8 3e
       -0.09398307 0.31766078 -0.72478086 0.4852354
0002e0 bf e7 b6 be 7d 30 04 bf 1e 15 57 bf 00 1c e8 3e
       -0.35723683 -0.5163649 -0.840166 0.45333862
0002f0 e7 fa 56 3e d8 ba 25 3e 28 65 8a 3e 91 e1 6e be
       0.20994149 0.16184556 0.270303 -0.23328234
000300 46 5f 88 be df c2 34 3e 6b 0e 7d be 13 15 4e 3d
       -0.26635188 0.17652462 -0.24712531 0.050313067
000310 26 a9 2e 3f a9 82 d6 3e 88 44 d5 3e b3 e3 5b 3e
       0.6822685 0.4189656 0.41653848 0.21473579
000320 50 f5 3f 3f dc cf f3 3d 59 c9 a0 3d 06 ff 8c 3d
       0.7498369 0.119048804 0.07850904 0.06884579
000330 30 23 fe 3d 33 1b 5f 3c b0 f5 96 be 4f b9 1a 3e
       0.12409055 0.013617325 -0.2948432 0.15109752
000340 41 b1 8d 3e c9 58 2c 3f ae 5e e6 be 8e fc 20 be
       0.27674296 0.67322975 -0.4499411 -0.15721342
000350 cf 90 c8 be 25 29 ca 3d b4 0e 14 bf 40 34 85 be
       -0.3917298 0.09871129 -0.57834935 -0.26016426
000360 b4 ed d2 bd b5 21 2e 3d ea 02 c3 be d3 05 09 3e
       -0.102992445 0.042512614 -0.3808816 0.13381128
000370 38 7e ef 3d ad 50 a3 be d7 23 6d be 50 58 02 bf
       0.11693996 -0.31897488 -0.23158203 -0.50916004

rnn.weight_hh_l0 f4 [32, 8]
000000 04 ae 44 be 38 19 41 bd 64 c1 2c 3e dc d1 fa 3e
       -0.19207007 -0.04714319 0.16870648 0.48988235
000010 1d 27 f5 3d 1e 4e 00 be 88 4e 9f 3e 5b 30 09 bf
       0.11970351 -0.125298 0.31114602 -0.5358941
000020 e1 7d 08 bf 45 bf 0b bf a5 7d 13 3e fa eb ef 3c
       -0.53317076 -0.5458873 0.14403398 0.029287327
000030 a4 ff a4 be fd 19 f9 3e a1 12 a6 3e b2 f7 c4 3d
       -0.32226288 0.4865264 0.32436088 0.09617557
000040 9e f9 fe 3e 08 15 5f 3e 07 7a 50 bf 4c 75 32 3e
       0.49799818 0.21785367 -0.814362 0.17427558
000050 0a cc 6b 3b 6d a4 0f bf 44 02 25 be 24 d0 a0 bd
       0.003597977 -0.5611027 -0.16114146 -0.078522
000060 d6 0e ab 3d 48 26 38 3e a4 81 6b 3d 71 ad b1 3e
       0.08352439 0.17983353 0.05749668 0.34702638
000070 6b 69 ca be 71 5d 9f 3e 93 6f 93 3e 35 a2 69 be
       -0.39533553 0.31125978 0.28796062 -0.22815783
000080 f5 f9 3e 3f 0e 05 9c 3f 04 52 e8 3e a5 85 2c bf
       0.74600154 1.2189043 0.45375073 -0.67391425
000090 e9 60 c6 3e da bc 8a bf af 1d 53 3f 5f 67 78 bf
       0.38745812 -1.0838883 0.8246717 -0.9703273
0000a0 44 a9 5d 3d 6f 0f 6b 3e ea 1a bb 3f ed f2 df be
       0.054116502 0.22955106 1.4617589 -0.43740025
0000b0 17 0e f2 bd b5 44 34 bd 9c 8c 29 3e e4 af 2f bf
       -0.11819094 -0.044010837 0.16557544 -0.6862776
0000c0 64 6d cf bd ee 9a 8c 3e c6 3e 57 3e a5 46 8c 3d
       -0.101282865 0.27461952 0.2102004 0.06849412
0000d0 57 f3 ab 3e f3 8d 21 be 2d 5e 30 3e f8 09 9f 3d
       0.3358409 -0.15776806 0.17223425 0.07765573
0000e0 48 96 40 3e f9 3b 10 3f 03 0d 9b bd a2 c7 6c be
       0.18807328 0.5634151 -0.07570841 -0.23123029
0000f0 2e 56 0e 3e a6 45 7b bd 4d 04 69 be 93 b5 b3 3b
       0.13900062 -0.06134572 -0.22755547 0.005484292
000100 e8 c8 c6 be d6 30 04 bf 4d fc ca 3e d1 cb 3e bd
       -0.38825154 -0.5163702 0.39645615 -0.046581093
000110 2e 6d ff bc f5 58 fa 3e cd 8a ee bc 36 00 0e bf
       -0.03117999 0.48895994 -0.02911892 -0.5546907
000120 ec 7b f0 be 15 a8 aa 3d 53 6e f0 3b 39 33 a0 3e
       -0.46969545 0.0833284 0.0073373704 0.3128908
000130 bf 4d fb bd bb 10 c3 3d 19 5d a7 3d f9 58 86 be
       -0.12270688 0.095246755 0.08172054 -0.26239756
000140 71 3b 83 be cc 64 62 3d 7b 1b 46 bf b3 e6 e3 3e
       -0.25631288 0.05527191 -0.7738568 0.44511947
000150 07 5e b7 3d d9 32 0b 3f f3 a0 a9 be 59 ef c3 3e
       0.08953481 0.5437446 -0.33130607 0.38268545
000160 ff 72 cb be 7f 5f 43 bd 89 03 68 3e f9 23 eb 3d
       -0.39736173 -0.047698494 0.22657599 0.114814706
000170 da 55 3a be 2c b0 4d bd 64 2e 35 be 76 f9 68 3d
       -0.18196812 -0.05021684 -0.17693478 0.05687853
000180 36 66 66 bd 7f da ad 3e 49 14 9b 3e ed f2 95 3d
       -0.05624982 0.33955762 0.30288914 0.07321725
000190 cd 3d e1 3d 52 13 de 3b 39 5d 15 3f 94 6d 24 bf
       0.10998116 0.0067772055 0.5834537 -0.642297
0001a0 5b f9 d5 be 33 17 90 be 88 45 18 3f ef 99 2d be
       -0.41791806 -0.281427 0.59481096 -0.16953252
0001b0 a2 a9 e8 3d d9 00 f0 3e 76 d0 5a be b2 5a bb be
       0.1136048 0.46875647 -0.21368584 -0.36592633
0001c0 16 0b b9 bd 62 ff de 3e 2f b5 5e be 55 73 91 be
       -0.090353176 0.43554217 -0.21748804 -0.28408304
0001d0 32 85 f7 3e 98 ed af be ce 09 44 be bc 4f a2 3e
       0.48343807 -0.34360957 -0.19144365 0.31701458
0001e0 29 0a 10 3c b9 52 88 3e 28 1c bc 3d 6e 00 e0 bd
       0.008791485 0.26625612 0.09185058 -0.10937582
0001f0 5a f4 e1 3e 2d 51 df bc e9 8c d3 bd ec 81 48 be
       0.44131738 -0.027260387 -0.10329611 -0.19580811
000200 1c 8b 9a 3e e1 37 0f 3f 9e 5e 99 be 37 f1 08 bf
       0.30184257 0.5594464 -0.29955 -0.53493065
000210 94 4d b4 bc c5 82 11 be 49 a3 98 3d 10 99 27 3e
       -0.022009648 -0.14210041 0.07453019 0.16366982
000220 a1 3c 8b 3e 41 7c 34 3d fe 5e e8 3d 1a 90 e7 be
       0.27194694 0.04406381 0.11346243 -0.45227128
000230 e0 50 de 3e e8 f9 82 bd 91 d0 4d 3d c4 c6 4f 3e
       0.43421078 -0.06395322 0.050247733 0.20290667
000240 bf 3e 2f bd 0d 23 87 be 09 46 b9 3e e3 86 8a bd
       -0.04278445 -0.2639393 0.36186245 -0.06764009
000250 27 10 f4 bd 8a 27 6f 3e a9 a4 37 be ba 69 e5 3e
       -0.11917143 0.23354927 -0.17933907 0.44807225
000260 4b 92 0d bf 82 2d ff be e4 49 6f 3c 0c 77 8f 3e
       -0.5530135 -0.49839407 0.014605019 0.28020513
000270 da 14 84 be b9 72 fc 3d 24 de 1f bd 2d 83 93 bc
       -0.25797158 0.12326569 -0.03903021 -0.018006885
000280 4b 2d 83 3e 3f 80 15 be 79 72 52 bd f4 41 96 3e
       0.25620493 -0.14599703 -0.0513787 0.29347193
000290 32 c3 c8 3d 78 6e 0d be 1a 89 01 bf 65 c9 f4 3e
       0.098028556 -0.13811672 -0.50599825 0.47809902
0002a0 92 f1 df be 24 b8 ca 3d ea 65 9f 3e 9c 68 28 be
       -0.4373899 0.09898403 0.31132442 -0.16446155
0002b0 fc 54 22 be b4 ff 46 3d 29 d7 b8 3e 98 af 12 3e
       -0.15852731 0.0485837 0.36101654 0.14324796
0002c0 b3 af c2 bd 11 49 20 be 26 4b 38 3e 6c cf 93 be
       -0.09506168 -0.15652873 0.17997417 -0.28869188
0002d0 4d 1b 85 bb d2 b0 b2 bd 99 aa 1d be c7 ed ad 3e
       -0.0040620924 -0.08725132 -0.15397109 0.33970472
0002e0 75 db 62 bd c4 87 bd 3d 8f 42 11 be be 49 f3 3e
       -0.05538507 0.09254411 -0.14185546 0.47517198
0002f0 30 79 85 be 4c 3a da 3e cd f2 bf bd c1 c5 97 be
       -0.2606902 0.42622602 -0.093724824 -0.29643062
000300 9a e1 d4 3e 78 b8 d4 3d c0 df 51 3f 78 bf c0 3d
       0.4157837 0.10386747 0.8198204 0.0941152
000310 98 87 01 3f ee f0 89 bd 9e bc ce 3d 1f be 1a bd
       0.50597525 -0.06735407 0.100945696 -0.03777897
000320 dc 16 16 be 59 01 f6 bc 7a 7e 23 3f d6 b4 ec 3d
       -0.14657158 -0.03002994 0.6386486 0.11557929
000330 d5 3f 27 3e 72 fa 94 be d4 3b 10 3e b7 5c cf be
       0.16332944 -0.29097325 0.14085323 -0.40500423
000340 6a dc 97 be 09 14 9f 3d f6 81 53 be 11 b4 c2 3e
       -0.2966035 0.07767493 -0.20655045 0.38028005
000350 b2 d1 d2 bd fb 15 1f bb 29 e5 01 3c 3a fb 44 3e
       -0.102939025 -0.0024274576 0.007928171 0.1923646
000360 a4 c0 8a 3e f2 10 80 3e 42 3e 2f 3d 9d 78 52 3d
       0.27100098 0.25012928 0.042783983 0.051384557
000370 5f e9 e8 3e cb c4 0d bf be 6e b8 be e0 da f9 3d
       0.45490548 -0.5537841 -0.3602199 0.1219995
000380 a8 c6 19 3e 9e 99 1a bd cb d7 17 3f 8a d0 0e bd
       0.15017188 -0.037744157 0.5931365 -0.034866847
000390 0d ec b4 3e be df 88 be 7b bb c5 bd ec b9 40 be
       0.35336342 -0.26733202 -0.096549 -0.18820924
0003a0 60 50 4d 3b 57 29 16 3f 8b a4 01 3f 96 47 cb be
       0.0031328425 0.5865683 0.506417 -0.39703053
0003b0 be ad 0d be 07 07 c0 be 81 77 0c 3e 78 b6 08 bf
       -0.13835809 -0.3750536 0.13717462 -0.53403425
0003c0 0f 98 7e 3e db 60 b3 3e 45 d0 0f be 65 f1 72 be
       0.24862693 0.35034832 -0.14044292 -0.23724897
0003d0 b3 74 ab 3e d5 a1 08 be a8 18 0d be 4e 5a 8f bd
       0.33487472 -0.13342984 -0.13778937 -0.06999646
0003e0 d6 28 2e 3e 04 16 bd 3e 45 c5 83 bc 3f f5 c9 be
       0.17007765 0.3693086 -0.016085276 -0.3944492
0003f0 35 f2 8f 3c 65 15 80 be e5 9b 01 be 25 77 a7 3d
       0.017571548 -0.25016323 -0.12657125 0.08177022

rnn.bias_ih_l0 f4 [32]
000000 85 2b 25 3e 0c c1 15 3f f5 83 34 be 48 e3 a9 3e
       0.16129883 0.5849769 -0.17628463 0.33181214
000010 d0 54 44 be f2 4a 83 b9 42 59 cd be 19 d9 72 be
       -0.19172978 -0.00025042106 -0.4010716 -0.23715629
000020 16 55 9a 3e b3 81 9f 3e 6d be 9b 3e e9 de 36 3e
       0.3014304 0.3115364 0.3041872 0.17858471
000030 06 94 72 3d 8e 0c 9c 3e 4c a0 26 3e 64 f4 13 3e
       0.059223197 0.30478328 0.16272086 0.14448696
000040 a6 70 04 bf 5b 45 89 be 4f e5 13 3e 6e a4 25 3e
       -0.5173439 -0.26810727 0.14442943 0.16176006
000050 7a 73 bc be 61 a9 01 3f bc 2a 11 3e 81 66 91 3e
       -0.36806852 0.50649077 0.14176458 0.28398517
000060 2c 8e 69 be c2 16 16 3f 82 00 b3 3d 92 38 33 be
       -0.2280814 0.58628476 0.08740331 -0.17502049
000070 fd 34 40 bd 59 6c a6 3d cc 1e ed be a6 30 4e bd
       -0.046925534 0.081261344 -0.4631256 -0.050339364

rnn.bias_hh_l0 f4 [32]
000000 1c 2a 77 3e a1 e1 b7 3e dc 80 e0 be 0f 10 87 3e
       0.24137157 0.3591433 -0.43848312 0.2637944
000010 8c db 33 be 6e f9 9a 3e 39 dd fc be 3b 8a bf be
       -0.17564219 0.30268425 -0.4938753 -0.3741015
000020 f0 c1 c9 3d b8 91 12 3e 70 b5 ce bc 9b 75 7a 3e
       0.09851444 0.143134 -0.025233 0.24458925
000030 28 48 85 be 3b 25 32 3e ee 75 b9 be 70 0b c3 be
       -0.26031613 0.17397015 -0.36222786 -0.38094664
000040 cc c3 0f be d8 4b 01 bf a5 ee 73 be 42 d6 f5 3e
       -0.14039534 -0.50506353 -0.23821504 0.48015028
000050 58 cc b3 be 25 f1 da 3e 06 c7 b8 be b4 e0 35 3e
       -0.3511684 0.42762104 -0.36089343 0.17761499
000060 0e e4 3f 3e 49 9f 0a 3f 85 7d 8a bd ba 96 2f be
       0.1873934 0.541493 -0.06762222 -0.17147341
000070 09 95 37 3e e8 ff 4d 3e 7b a2 08 be 8a 88 7c be
       0.17927946 0.20117152 -0.13343231 -0.2466146

out.weight f4 [1, 8]
000000 2e e9 cd bd dd 9c 96 be ac c8 3b 3e 5f 5d 24 3e
       -0.10054241 -0.29416552 0.18338269 0.16051243
000010 e6 09 86 be b9 ac cb 3e df 77 bf 3d a3 8a ee 3d
       -0.26179427 0.39780214 0.093490355 0.116475366
