ckpt/349.ckpt (torch_old, 3320 bytes, 5 tensors)

rnn.weight_ih_l0 f4 [32, 7]
0	0x3f008838	0.50207853
1	0x3eafec89	0.3436015
2	0x3f24d6f1	0.64390475
3	0x3eda59e3	0.42646703
4	0x3ecf6bcd	0.40511933
5	0x3d81dcff	0.0634098
6	0x3f114177	0.56740516
7	0x3ef58314	0.47951567
8	0x3f1f6f2c	0.6227901
9	0x3f57b3fb	0.84259003
10	0x3f3fb17f	0.7488021
11	0x3ee5c2ab	0.44875082
12	0x3ea15228	0.31507993
13	0x3ea570d9	0.32312658
14	0xbf134b2c	-0.5753658
15	0x390150b4	0.00012332463
16	0xbf4fe89b	-0.812143
17	0xbf4e37bd	-0.805538
18	0xbed00087	-0.40625402
19	0x3f582837	0.84436363
20	0x3f1b6846	0.60705984
21	0x3f492e72	0.78586495
22	0x3f302675	0.6880868
23	0x3e5ff22d	0.21869726
24	0x3d2915f2	0.041280694
25	0x3e022076	0.12707695
26	0x3ef735c4	0.48283207
27	0x3e8fcc0b	0.2808536
28	0x3f5d3b49	0.86418587
29	0x3f17d604	0.59310937
30	0xbd72adc6	-0.059247755
31	0xbf5451b0	-0.82937145
32	0x3eefc3e0	0.46829128
33	0xbe603cd2	-0.21898201
34	0x3f786dfa	0.9704281
35	0x3f7fc52b	0.9991023
36	0xbe236f16	-0.15960345
37	0x3f2dbea8	0.67869043
38	0x3f57c849	0.84289986
39	0x3f3606b9	0.7110401
40	0xbf4975ba	-0.7869526
41	0xbf4247e8	-0.7589097
42	0x3d66a74d	0.056311894
43	0xbec318f8	-0.38104987
44	0xbd3729d2	-0.044717617
45	0xbe843d28	-0.2582791
46	0xbef90f6d	-0.4864458
47	0xbec2e1c6	-0.38062876
48	0xbe9a5955	-0.3014628
49	0x3c88eb13	0.016713655
50	0x3dd128a8	0.10212833
51	0xbec856e2	-0.39128786
52	0xbee63048	-0.4495871
53	0x3e2af12e	0.16693565
54	0xbd57d9a7	-0.052697804
55	0xbd8c8c16	-0.06862657
56	0x3e9fbccb	0.31198725
57	0x3d9b5fb2	0.07586612
58	0x3d44fe8c	0.048094317
59	0x3e1a8db9	0.15093125
60	0x3e3fe139	0.1873826
61	0x3edb3150	0.4281106
62	0x3eceaf7d	0.40368262
63	0x3f0f5aa9	0.5599771
64	0x3f14731e	0.57988155
65	0xbd83acbd	-0.064294316
66	0x3e8cd046	0.2750265
67	0x3ea9458d	0.33060876
68	0x3eaca486	0.3371927
69	0x3ebb6f73	0.36608467
70	0xbf0d2290	-0.55130863
71	0x3eb3b7e5	0.35101238
72	0xbe951077	-0.29114124
73	0xbe87a1b3	-0.26490554
74	0xbdbdee72	-0.092739955
75	0x3f04581f	0.5169696
76	0x3fa4052f	1.2814082
77	0x3ea1613b	0.31519493
78	0x3e4be1b7	0.19910322
79	0x3e8f503a	0.27990896
80	0x3e19fe99	0.15038528
81	0x3e81bddb	0.2534016
82	0x3ef6b37b	0.48183808
83	0x3ebd617e	0.36988443
84	0x3e7da81b	0.24771158
85	0x3eef4a78	0.46736503
86	0x3ebd6eb5	0.36998525
87	0xbd60408b	-0.054749053
88	0x3e6f3629	0.23360504
89	0xbf0764b2	-0.52888024
90	0x3f7534d6	0.95783746
91	0x3efc8218	0.49318004
92	0x3ec90ada	0.39266092
93	0x3ec04502	0.3755265
94	0x3f36b7d4	0.7137425
95	0x3dd8a550	0.10578406
96	0xbf243a7b	-0.64151734
97	0xbf0db131	-0.553485
98	0x3dfb68ad	0.12275825
99	0x3df9d972	0.121996775
100	0x3e31bf6c	0.17358178
101	0xbd8a929b	-0.06766244
102	0xbe824c6d	-0.25448933
103	0xbe94838d	-0.29006615
104	0x3e460f3d	0.1934175
105	0xbef4919a	-0.47767335
106	0x3d6e72f7	0.058215108
107	0xbeb59d53	-0.3547159
108	0xbef30924	-0.4746791
109	0x3e07cd64	0.13261944
110	0xbee69a83	-0.45039758
111	0xbe1b03c8	-0.15138161
112	0xbeb64a01	-0.35603335
113	0xbeef15ec	-0.46696413
114	0x3c510551	0.012757615
115	0xbef8bb7f	-0.48580548
116	0xbed09584	-0.4073907
117	0x3c69dfa8	0.014274515
118	0xbe91ca2b	-0.28474554
119	0xbc0dcc88	-0.008654721
120	0xbef9e849	-0.48810032
121	0xbe022dbe	-0.12712762
122	0xbebf02f9	-0.37306955
123	0xbebceac6	-0.36897868
124	0xbf1c7b8f	-0.61126035
125	0xbef6a127	-0.48169824
126	0x3e24311e	0.16034362
127	0x3e9688a0	0.29401112
128	0xbca227c1	-0.019794347
129	0x3e63822c	0.22217625
130	0x3eb6b93f	0.35688207
131	0xbe4b1311	-0.19831492
132	0xbf3b72fc	-0.7322233
133	0x3dd40ae8	0.10353643
134	0x3ea076e0	0.31340694
135	0x3ee0d39c	0.43911445
136	0x3d2832c8	0.041064054
137	0x3de3309e	0.11093257
138	0x3e2fba8d	0.17161007
139	0xbd9c4e07	-0.0763207
140	0x3caea830	0.021320432
141	0xbe701ff4	-0.23449689
142	0xbe6701d3	-0.2255929
143	0xbdb20cad	-0.08693824
144	0xbef8bd6c	-0.48582017
145	0xbec936c5	-0.39299598
146	0xbdbeeadb	-0.09322139
147	0x3e1b9b6d	0.15196009
148	0x3f0d4c28	0.5519433
149	0x3e9855ed	0.29753056
150	0x3ea31971	0.31855348
151	0x3dcf8fa6	0.10134821
152	0xbe0d38d1	-0.13791205
153	0x3e4e793a	0.20163432
154	0x3d6fb193	0.058518957
155	0xbe8a096e	-0.2696032
156	0xbc9bf137	-0.019035919
157	0xbee8b4be	-0.45450395
158	0xbe53d66f	-0.20687269
159	0x3e000141	0.12500478
160	0x3d59b7dd	0.05315386
161	0x3f02b83f	0.5106239
162	0x3e90b563	0.28263387
163	0xbdc6d5fb	-0.09708782
164	0x39fd9d2c	0.00048373023
165	0xbbac5cc2	-0.005260081
166	0x3e1d1652	0.15340546
167	0x3d864674	0.065564066
168	0x3db44fdb	0.08804294
169	0x3ebab931	0.36469415
170	0xbb506f68	-0.0031804685
171	0xbebceb48	-0.36898255
172	0x3ee67d5f	0.45017526
173	0xbde94aaf	-0.11391198
174	0x3e6a2048	0.22863877
175	0xbe4c8f76	-0.19976601
176	0xbe14d340	-0.1453371
177	0xbc543625	-0.012952362
178	0x3ec76027	0.38940546
179	0x3effbd70	0.49949217
180	0xbd9f7ee2	-0.07787873
181	0x3ea1a376	0.31570023
182	0xbf41cb54	-0.7570088
183	0x3f05040c	0.519593
184	0xbec8d056	-0.39221448
185	0xbf0d6d21	-0.5524464
186	0xbf5e4015	-0.8681653
187	0x3ed92f07	0.42418692
188	0x3e355ada	0.17710438
189	0x3e3b5df8	0.18297565
190	0x3e9038e7	0.28168413
191	0xbe7ea421	-0.24867298
192	0xbe8e97db	-0.27850232
193	0x3e326bf8	0.17424
194	0xbe6fde71	-0.23424698
195	0x3d3a3fc7	0.04547098
196	0x3f3df75a	0.74205554
197	0x3ee0584b	0.43817362
198	0x3ed297b5	0.41131368
199	0x3e5ce46a	0.21571508
200	0x3f42e6a7	0.761332
201	0x3e0855dd	0.13314004
202	0x3d7a79f5	0.061151464
203	0x3da3a6bb	0.07990786
204	0x3e0f67b9	0.14004411
205	0xbd1a43ad	-0.037662197
206	0xbeae6ff2	-0.34069782
207	0x3df89e9e	0.12139629
208	0x3e94968d	0.2902111
209	0x3f28d7c6	0.65954244
210	0xbeddec29	-0.43344238
211	0xbe14a049	-0.14514269
212	0xbebbb267	-0.36659548
213	0x3dff1362	0.12454869
214	0xbf0fcb3f	-0.56169504
215	0xbe830492	-0.25589424
216	0xbdcaa339	-0.098944135
217	0x3d5ac10d	0.053406764
218	0xbebe6a56	-0.37190503
219	0x3e0f76ab	0.14010112
220	0x3dfd08ed	0.12355218
221	0xbe9f1bab	-0.31075796
222	0xbe64a65f	-0.2232909
223	0xbf0244d7	-0.5088629

rnn.weight_hh_l0 f4 [32, 8]
0	0xbe43d5f0	-0.1912458
1	0xbd3cfddc	-0.046140537
2	0x3e2c78e9	0.16842999
3	0x3efa6347	0.48903868
4	0x3df65288	0.1202746
5	0xbe019538	-0.12654579
6	0x3e9fe22a	0.31227237
7	0xbf09919b	-0.537378
8	0xbf0834c1	-0.53205496
9	0xbf0b8394	-0.5449765
10	0x3e136a73	0.14396076
11	0x3ce667fe	0.02812576
12	0xbea47090	-0.32117128
13	0x3ef84018	0.484864
14	0x3ea62f30	0.32457876
15	0x3dc44196	0.09582822
16	0x3ef252b4	0.47328722
17	0x3e4aabb2	0.19792059
18	0xbf425312	-0.75908005
19	0x3e3f4a3c	0.18680662
20	0xbc1f8e81	-0.009738565
21	0xbf059700	-0.5218353
22	0xbe26cfd9	-0.16290225
23	0xbd956907	-0.07295423
24	0x3dacd147	0.08438354
25	0x3e394257	0.18091713
26	0x3d6b218e	0.057405047
27	0x3eb13692	0.34611946
28	0xbeca214d	-0.3947853
29	0x3e9eb8df	0.3100042
30	0x3e93c2ec	0.2885965
31	0xbe6a70b0	-0.2289455
32	0x3f581b4a	0.8441664
33	0x3faf7763	1.3708309
34	0x3f07c524	0.5303519
35	0xbf459b0a	-0.77189696
36	0x3eb15344	0.3463384
37	0xbf93ff54	-1.1562295
38	0x3f85b590	1.0446033
39	0xbf8cf099	-1.1010925
40	0x3dbeab44	0.0931001
41	0x3e8a7264	0.27040398
42	0x3fb82b73	1.438826
43	0xbef236be	-0.4730739
44	0xbdc7eb66	-0.097616956
45	0xbdaf24d0	-0.08551943
46	0x3e34eb16	0.17667803
47	0xbf36be1f	-0.7138385
48	0xbe0fb862	-0.1403518
49	0x3e747967	0.23874436
50	0x3e542dc1	0.20720579
51	0x3de1b7f5	0.11021415
52	0x3ea95958	0.33075976
53	0xbdfd874c	-0.123793215
54	0x3e2c22f7	0.16810213
55	0x3da8a526	0.082346246
56	0x3e343ae6	0.17600593
57	0x3f0e8b81	0.55681616
58	0xbd9d28b2	-0.07673778
59	0xbe5f1666	-0.21785888
60	0x3e05af11	0.13055064
61	0xbd5088a6	-0.050911568
62	0xbe694f47	-0.22784148
63	0x3bd72364	0.006565498
64	0xbec6873a	-0.38775045
65	0xbf040355	-0.51567584
66	0x3ecac776	0.39605302
67	0xbd40d5ba	-0.047078826
68	0xbcfef1db	-0.031121185
69	0x3ef9f6b3	0.4882103
70	0xbce788d1	-0.028263481
71	0xbf0e3be1	-0.5556012
72	0xbeefb8f8	-0.46820807
73	0x3dadfc62	0.08495404
74	0x3be49e70	0.006976895
75	0x3e9f666d	0.31132832
76	0xbdfa3cb9	-0.12218613
77	0x3dbe541e	0.09293388
78	0x3da86fb3	0.0822443
79	0xbe86afaf	-0.2630591
80	0xbe92aa40	-0.28645515
81	0x3cee4e8f	0.029090194
82	0xbf3949cf	-0.7237825
83	0x3eec6f91	0.46178868
84	0x3d8aa24d	0.06769238
85	0x3f176bdd	0.5914896
86	0xbead63a4	-0.33865082
87	0x3ec8f60a	0.39250213
88	0xbecb03c4	-0.3965131
89	0xbd3e76e5	-0.046500105
90	0x3e68339d	0.22675939
91	0x3de94b80	0.113913536
92	0xbe39f00d	-0.18157978
93	0xbd522569	-0.05130521
94	0xbe3481cb	-0.17627637
95	0x3d6618d2	0.056176014
96	0xbd8c50e4	-0.06851366
97	0x3ea9a084	0.33130276
98	0x3ebf63e6	0.37380904
99	0x3d977049	0.073944636
100	0x3c59ac52	0.013285713
101	0x3d342620	0.04398167
102	0x3f271422	0.65265095
103	0xbf24cf29	-0.643786
104	0xbed75603	-0.4205781
105	0xbe915c6b	-0.28390822
106	0x3f17cceb	0.59297055
107	0xbe2b42f3	-0.16724758
108	0x3de5932f	0.11209714
109	0x3ef40ff6	0.47668427
110	0xbe619e7f	-0.22033118
111	0xbebb9dc6	-0.3664381
112	0xbdfd4332	-0.12366332
113	0x3ed4ed47	0.41587278
114	0xbe5fa4db	-0.21840231
115	0xbe81728d	-0.25282708
116	0x3ef11df0	0.47093153
117	0xbea1e763	-0.31621847
118	0xbe45d4d6	-0.19319472
119	0x3ea3597f	0.31904218
120	0x3b3a010f	0.0028381979
121	0x3e86eb5c	0.2635144
122	0x3dbbd181	0.09170819
123	0xbdd36594	-0.10322109
124	0x3ededd5c	0.4352826
125	0xbcb45f6f	-0.022018163
126	0xbdd3bd28	-0.10338813
127	0xbe482a1d	-0.19547315
128	0x3e9a7041	0.30163768
129	0x3f0f2b20	0.5592518
130	0xbe995ae9	-0.2995217
131	0xbf08e3cd	-0.53472596
132	0xbcb5f240	-0.02221024
133	0xbe112f85	-0.14178284
134	0x3d9873e0	0.074439764
135	0x3e27c703	0.1638451
136	0x3e8b0714	0.27153838
137	0x3d331a38	0.043726176
138	0x3de86678	0.11347669
139	0xbee753b9	-0.45181063
140	0x3ede15ce	0.4337601
141	0xbd81d3a4	-0.06339195
142	0x3d4d8beb	0.050182264
143	0x3e4fdb3a	0.20298472
144	0xbd541989	-0.051782165
145	0xbe8bb90c	-0.27289617
146	0x3ea350d0	0.31897593
147	0xbd52bb11	-0.05144793
148	0xbdf9d0b2	-0.121980086
149	0x3e6a4324	0.22877175
150	0xbe3cc5b5	-0.18434794
151	0x3ee6ddb1	0.45091012
152	0xbf0d80fb	-0.55274934
153	0xbeff1683	-0.49821863
154	0x3c6f3832	0.0146008
155	0x3e8f4fc3	0.2799054
156	0xbe83ee76	-0.2576787
157	0x3dfbcc14	0.12294784
158	0xbd1fc161	-0.03900278
159	0xbc93cbc8	-0.018041506
160	0x3e7e493d	0.24832626
161	0xbe2052b5	-0.1565655
162	0xbd81c87f	-0.0633707
163	0x3e9aa4f9	0.3020399
164	0x3dc79509	0.09745223
165	0xbe064adc	-0.13114494
166	0xbf038727	-0.513781
167	0x3ef824c3	0.48465547
168	0xbede4219	-0.43409804
169	0x3dd03709	0.10166747
170	0x3e9b84e9	0.3037484
171	0xbe2aedb9	-0.16692246
172	0xbe208ff6	-0.15679917
173	0x3d3102d6	0.043215595
174	0x3eb90704	0.36138165
175	0x3e11b51a	0.14229241
176	0xbdc9710f	-0.09836017
177	0xbe2179c0	-0.157691
178	0x3e3a160a	0.1817247
179	0xbe9350fa	-0.28772718
180	0xbbbe1f61	-0.0058020805
181	0xbda5164f	-0.08060896
182	0xbe1d08bf	-0.15335368
183	0x3eade897	0.33966514
184	0xbd681638	-0.056661814
185	0x3dbc173f	0.09184121
186	0xbe119dce	-0.14220354
187	0x3ef3f6b9	0.47649172
188	0xbe85f2ae	-0.26161712
189	0x3edad6e3	0.4274207
190	0xbdbff5e7	-0.09373074
191	0xbe97b615	-0.29631105
192	0x3ed82529	0.4221585
193	0x3deca002	0.115539566
194	0x3f54089b	0.8282563
195	0x3db67609	0.08909232
196	0x3f00eb6f	0.50359243
197	0xbd901d24	-0.07036808
198	0x3df627e0	0.12019324
199	0xbd195460	-0.037433982
200	0xbe147582	-0.1449795
201	0xbccbfcab	-0.024900755
202	0x3f2327c4	0.6373255
203	0x3dec4b0f	0.11537754
204	0x3e1e574b	0.15462987
205	0xbe942cd1	-0.28940442
206	0x3e191f5c	0.14953369
207	0xbecc453b	-0.3989657
208	0xbe949316	-0.29018468
209	0x3dd4bbe2	0.10387398
210	0xbdec87c5	-0.115493335
211	0x3eb6e4e6	0.3572151
212	0xbdd25ad7	-0.102712326
213	0x3c72c226	0.014816796
214	0x3c828555	0.015932718
215	0x3e3b3e77	0.18285547
216	0x3e8c7783	0.2743493
217	0x3e846496	0.2585799
218	0x3daa8aae	0.08327232
219	0x3d42ab69	0.04752675
220	0x3ee72d51	0.4515176
221	0xbf0d459c	-0.5518434
222	0xbeb06ad4	-0.34456503
223	0x3dfd0dbc	0.12356135
224	0x3e1943a1	0.14967205
225	0xbd10eed0	-0.035384
226	0x3f1e13df	0.6174907
227	0xbd100608	-0.035162
228	0x3eafb77a	0.3431967
229	0xbe86383b	-0.26214775
230	0xbd980616	-0.07423036
231	0xbe3a1ddd	-0.18175454
232	0x3c7f0ec1	0.015567482
233	0x3f1ca850	0.61194324
234	0x3f0dbcb8	0.55366087
235	0xbed17684	-0.40910733
236	0xbe15a7d2	-0.146148
237	0xbec13026	-0.37732047
238	0x3e2f81fc	0.17139429
239	0xbf092001	-0.5356446
240	0x3e53dfb5	0.20690806
241	0x3e9e64c6	0.3093626
242	0xbe128810	-0.14309716
243	0xbe46c4a3	-0.19410948
244	0x3ea7b9de	0.32758993
245	0xbdc30c82	-0.0952387
246	0xbe11d93d	-0.14243026
247	0xbd84d499	-0.06485862
248	0x3e211940	0.15732288
249	0x3eb982a7	0.36232492
250	0xbc8efb0b	-0.017453691
251	0xbec2cb39	-0.38045672
252	0x3c1790a1	0.009250791
253	0xbe74fefc	-0.23925394
254	0xbe01f7e0	-0.12692213
255	0x3da9d723	0.08292987

rnn.bias_ih_l0 f4 [32]
0	0x3e27f0d9	0.1640047
1	0x3f16df2f	0.589343
2	0xbe248629	-0.16066803
3	0x3eac6742	0.3367253
4	0xbe5cf851	-0.215791
5	0xbce6419f	-0.028107462
6	0xbec6970a	-0.3878711
7	0xbe6ab004	-0.22918707
8	0x3e99f83b	0.30072197
9	0x3e9ed596	0.31022328
10	0x3ea5c687	0.32378027
11	0x3e35b751	0.17745711
12	0x3d904034	0.07043496
13	0x3e9c4e57	0.3052852
14	0x3e2fc1e1	0.17163803
15	0x3e154183	0.14575772
16	0xbf04ab29	-0.5182367
17	0xbe8a3718	-0.26995158
18	0x3e161536	0.14656529
19	0x3e271fba	0.16320696
20	0xbebcdf02	-0.3688889
21	0x3f017d80	0.5058212
22	0x3e121f95	0.1426986
23	0x3e923543	0.2855626
24	0xbe67ae42	-0.22625068
25	0x3f18f27a	0.5974499
26	0x3d8621dd	0.06549428
27	0xbe2be35a	-0.16785946
28	0xbceb6fa1	-0.028739752
29	0x3dab5f2e	0.083677635
30	0xbee5535e	-0.44790167
31	0xbd2ed257	-0.042681064

rnn.bias_hh_l0 f4 [32]
0	0x3e79ef70	0.24407744
1	0x3eba1de6	0.36350936
2	0xbed881f5	-0.4228665
3	0x3e899409	0.26870754
4	0xbe4c7f0d	-0.19970341
5	0x3e8cb625	0.27482715
6	0xbef61b01	-0.48067477
7	0xbebb75ae	-0.3661322
8	0x3dc84e8c	0.097806066
9	0x3e113975	0.14182074
10	0xbbb8cf95	-0.00563998
11	0x3e794e03	0.24346165
12	0xbe7f1537	-0.24910437
13	0x3e32a8cf	0.17447208
14	0xbeb4e523	-0.35331067
15	0xbec264e2	-0.37967592
16	0xbe10adc8	-0.14128792
17	0xbf01c4b5	-0.50690776
18	0xbe71bebe	-0.23607919
19	0x3ef693e8	0.4815972
20	0xbeb437e0	-0.3519888
21	0x3eda995d	0.42695132
22	0xbeb84c98	-0.35995936
23	0x3e377e36	0.1791924
24	0x3e41c3f8	0.18922412
25	0x3f0d7b01	0.55265814
26	0xbdb75c2a	-0.08953126
27	0xbe284182	-0.16431239
28	0x3e4a3454	0.19746524
29	0x3e507953	0.20358782
30	0xbdf21746	-0.11820845
31	0xbe74b0f7	-0.23895632

out.weight f4 [1, 8]
0	0xbdcd4a83	-0.100239776
1	0xbe93c575	-0.28861585
2	0x3e49073c	0.19631666
3	0x3e26be60	0.1628356
4	0xbe8f3529	-0.27970245
5	0x3eceb183	0.40369806
6	0x3dc44895	0.095841564
7	0x3dfd5df3	0.12371435
