ckpt/359.ckpt (torch_old, 3320 bytes, 5 tensors)

rnn.weight_ih_l0 f4 [32, 7]
000000 4a a3 01 3f 07 0b b1 3e bd 93 25 3f b3 93 db 3e
       0.50639784 0.34578726 0.64678556 0.42886123
000010 2b 27 d1 3e 05 2e 83 3d fc 45 11 3f fd de f7 3e
       0.40850195 0.06405262 0.5674741 0.48412314
000020 59 1b 20 3f bd 8f 58 3f b3 73 40 3f 95 84 e7 3e
       0.6254173 0.8459433 0.75176543 0.4521834
000030 81 f1 a1 3e 90 b7 a5 3e 1a 8e 15 bf 18 56 99 3c
       0.31629565 0.3236661 -0.58419955 0.01871781
000040 4a 7d 4d bf 73 c3 4d bf b8 8c cb be 55 0d 59 3f
       -0.802693 -0.80376357 -0.39755797 0.8478597
000050 87 ea 1b 3f 58 92 4a 3f 7a 00 31 3f 23 fb 63 3e
       0.60904735 0.7912955 0.6914135 0.2226377
000060 f0 21 37 3d 16 7a 06 3e 0d fb f7 3e 14 f8 8f 3e
       0.0447101 0.1313251 0.48433724 0.28118956
000070 3f b8 70 3f cb b9 23 3f 79 02 89 bd a8 60 61 bf
       0.9403114 0.6395537 -0.06689925 -0.8803811
000080 7f 41 f5 3e 2f 19 61 be c8 fa 78 3f 32 6b 81 3f
       0.47901532 -0.21982263 0.9725766 1.0110838
000090 20 f1 31 be 37 ae 2e 3f 57 49 57 3f 94 89 37 3f
       -0.17377138 0.6823458 0.8409628 0.716943
0000a0 c5 ef 51 bf 1d 44 45 bf 04 7d 8d 3d b1 3a bf be
       -0.82006484 -0.7705706 0.069086105 -0.37349465
0000b0 3b 5b ed bc dc da 77 be 60 6d f3 be e8 3f c1 be
       -0.028974166 -0.24204582 -0.47544384 -0.3774407
0000c0 26 8d 99 be 3f c8 bd 3c 87 28 dc 3d 82 60 c6 be
       -0.299905 0.023166774 0.107499175 -0.38745505
0000d0 3d 30 e4 be 66 32 30 3e 29 51 45 bd 92 65 8c bd
       -0.44568053 0.17206725 -0.048173103 -0.068553105
0000e0 7c ef 9f 3e 32 47 9b 3d 59 4f 45 3d 52 80 1a 3e
       0.312374 0.07581939 0.048171375 0.15088013
0000f0 58 3f 40 3e d4 08 db 3e c0 8b ce 3e 32 7e 0f 3f
       0.18774164 0.42780173 0.40340996 0.56051934
000100 38 6b 14 3f 6b 93 83 bd ac ba 8c 3e fd 88 a9 3e
       0.579761 -0.06424602 0.2748617 0.33112326
000110 ab 58 ac 3e 70 35 bb 3e 74 54 0c bf 37 1e be 3e
       0.33661398 0.36564207 -0.54816365 0.37132427
000120 ee 97 8b be 92 e9 81 be e9 45 9e bd a0 77 04 3f
       -0.2726435 -0.25373513 -0.07728178 0.51745033
000130 87 42 a4 3f 9e 56 a1 3e e6 b0 4b 3e 37 39 8f 3e
       1.2832803 0.31511396 0.198917 0.2797334
000140 fd 92 19 3e f8 d5 81 3e ea 8b f6 3e 6d 3e bd 3e
       0.14997478 0.25358558 0.4815362 0.3696169
000150 07 4f 97 3e 0e 94 fc 3e 42 59 b9 3e 4c 5a 82 bd
       0.2955248 0.49331707 0.3620091 -0.06364879
000160 59 6f 66 3e 66 a3 0a bf 81 7e 77 3f 44 04 01 3f
       0.22503413 -0.54155576 0.96677405 0.50397134
000170 8f 53 ca 3e 5a c7 c5 3e 1a 3a 38 3f d2 7c e9 3d
       0.39516875 0.38628656 0.71963656 0.11400761
000180 18 42 28 bf c4 78 0e bf 48 ed 08 3e f7 6a 03 3e
       -0.6572585 -0.55653024 0.13371766 0.12833773
000190 36 18 3c 3e 5f e3 6b bd 84 26 7c be 99 4e 93 be
       0.1836861 -0.057589885 -0.24624068 -0.28770903
0001a0 cf e9 46 3e 84 43 f4 be ad 43 72 3d a1 78 b5 be
       0.19425128 -0.4770776 0.059146572 -0.35443595
0001b0 01 e2 f2 be ef 72 08 3e bd 09 e6 be 2f cd 1a be
       -0.47438052 0.13325094 -0.44929305 -0.15117334
0001c0 45 df b6 be 2e 64 ef be f3 08 44 3c 2a 17 f9 be
       -0.35717216 -0.4675612 0.011965024 -0.48650485
0001d0 dd 04 d1 be 66 fc 65 3c a2 d9 91 be 1b c4 26 bc
       -0.40824023 0.014037227 -0.28486353 -0.010178591
0001e0 d6 71 fa be 4e 62 03 be ec 8e bf be 50 88 bd be
       -0.48914975 -0.12830469 -0.37413728 -0.3701806
0001f0 27 a6 1c bf e8 b9 f6 be c0 bc 1c 3e d6 76 9e 3e
       -0.6119103 -0.4818871 0.15306377 0.3095004
000200 96 65 9a bc d7 6d 5f 3e 4b 5e ba 3e 19 64 4e be
       -0.018847268 0.21819244 0.36400065 -0.20155372
000210 ce ad 3b bf b4 a2 d6 3d 6c e5 a0 3e 6d 53 e1 3e
       -0.7331208 0.10480252 0.31425035 0.4400896
000220 68 c7 2b 3d e0 30 e5 3d bc 3d 30 3e ad f2 9b bd
       0.041938215 0.11190963 0.1721105 -0.07614646
000230 ad 90 90 3c 48 bd 73 be 89 fe 66 be 32 65 ad bd
       0.017647112 -0.23802674 -0.22558035 -0.08466567
000240 0c 14 fa be 9c d9 ca be e6 91 be bd 1a 3c 1d 3e
       -0.4884342 -0.39619148 -0.09305172 0.15354958
000250 c8 4b 0d 3f 17 bf 98 3e 6a 51 a3 3e 36 c7 d1 3d
       0.5519376 0.2983329 0.31898052 0.102430746
000260 8d db 0e be 0f 02 4e 3e 8e 10 64 3d 2f 1c 8a be
       -0.1395094 0.20117973 0.05567985 -0.26974627
000270 38 33 af bc 1b 17 ea be 64 73 55 be a3 32 04 3e
       -0.021386728 -0.45720753 -0.208448 0.12909941
000280 db 86 62 3d 79 fe 02 3f c5 3f 91 3e 7d 3a c5 bd
       0.05530439 0.51169544 0.28368965 -0.096302964
000290 d1 ad 9e 3a 50 31 8c bb 96 e9 1d 3e e5 0c 87 3d
       0.0012106245 -0.0042783394 0.15421137 0.06594256
0002a0 7b 74 c7 3d f8 5e bc 3e ac b5 74 bc 0a d8 c0 be
       0.09739014 0.36791205 -0.014935892 -0.37664825
0002b0 6a b0 e4 3e 29 8d e5 bd ac f4 64 3e cf 82 3d be
       0.44665843 -0.11208565 0.2235896 -0.18506931
0002c0 67 5d 0f be 4f f8 b9 bc 3a 63 c4 3e e0 5e 00 3f
       -0.14000474 -0.02270141 0.38356954 0.5014477
0002d0 df 05 90 bd e2 e4 a0 3e d3 62 46 bf 36 97 09 3f
       -0.0703237 0.31424624 -0.77494544 0.53746355
0002e0 c7 4e d2 be dc 3d 12 bf b9 1b 62 bf 96 89 d0 3e
       -0.41075727 -0.5712564 -0.8832355 0.4072997
0002f0 71 75 23 3e 1b 43 46 3e 71 68 93 3e f5 2a 83 be
       0.15962769 0.19361536 0.2879062 -0.2561871
000300 dd 37 91 be 51 6c 32 3e 86 40 69 be 1a 65 2e 3d
       -0.28362933 0.17424132 -0.2277852 0.042576887
000310 9f a7 45 3f 75 13 e5 3e 5c aa d0 3e c8 54 5f 3e
       0.77208894 0.44741407 0.40754974 0.21809685
000320 b8 b6 44 3f d3 a4 0e 3e 32 6b 4d 3d 4b a2 ab 3d
       0.76841307 0.13930063 0.050151058 0.08380564
000330 8e d9 16 3e 66 e7 83 bd 13 c5 b9 be bc d4 db 3d
       0.14731428 -0.0644062 -0.36283168 0.10733935
000340 a8 c3 97 3e 2d ae 26 3f 12 af d7 be 21 6a 0b be
       0.2964146 0.6510952 -0.42125756 -0.13614704
000350 1d 90 b2 be b5 a2 11 3e 57 a3 0c bf 5a bc 80 be
       -0.34875575 0.14222224 -0.54936737 -0.251437
000360 c5 f4 c3 bd 8f fe 72 3d 89 dd bb be 29 ff 12 3e
       -0.095681705 0.059324797 -0.36692455 0.14355148
000370 fe 2d 02 3e 29 bd 9c be b2 02 60 be f0 39 02 bf
       0.12712857 -0.30613068 -0.21876028 -0.50869656

rnn.weight_hh_l0 f4 [32, 8]
000000 99 73 43 be b0 19 3b bd 06 4d 2c 3e 47 30 fa 3e
       -0.19087066 -0.045678794 0.16826257 0.48864958
000010 25 d0 f6 3d cc 25 02 be df 2c a0 3e a3 bf 09 bf
       0.12051419 -0.12709731 0.31284234 -0.5380804
000020 65 13 08 bf 10 68 0b bf 86 5f 13 3e c5 01 e2 3c
       -0.53154594 -0.5445566 0.14391908 0.027588734
000030 f9 31 a4 be 9f df f7 3e 99 3d a6 3e 2f eb c3 3d
       -0.32069376 0.48412797 0.3246887 0.09566342
000040 12 64 eb 3e 18 6e 3f 3e 74 e1 3a bf 47 d0 46 3e
       0.45974785 0.18694341 -0.73000264 0.19415389
000050 79 b4 89 bc d4 2f 00 bf 97 62 28 be 76 9b 8e bd
       -0.016809689 -0.5007298 -0.16443859 -0.069632456
000060 bd a8 ad 3d be cb 39 3e d5 e4 6a 3d ec fc b0 3e
       0.0847945 0.18144128 0.057347137 0.34567964
000070 0e 02 ca be f9 6c 9e 3e 60 ef 93 3e c0 d6 6a be
       -0.39454693 0.30942515 0.28893566 -0.22933483
000080 e4 5e 64 3f e4 06 b9 3f f6 d6 12 3f 63 29 52 bf
       0.8920729 1.4455228 0.57359254 -0.820944
000090 da d0 a5 3e b2 38 98 bf b6 65 97 3f c3 0a 96 bf
       0.32385904 -1.1892302 1.1827915 -1.1722034
0000a0 f0 5a e9 3d 6b b4 95 3e 70 27 b6 3f 68 f9 fb be
       0.11394298 0.2923921 1.4230785 -0.4921372
0000b0 b5 df b1 bd 94 ec da bd 5a 02 3b 3e 4c aa 3a bf
       -0.08685247 -0.10689655 0.18262616 -0.729161
0000c0 c9 24 2b be 9f 26 5b 3e 8d 74 51 3e 2a a1 0e 3e
       -0.16713251 0.21401452 0.20454617 0.13928667
0000d0 7c 73 a8 3e c4 06 cf bd 22 9f 28 3e 20 ab af 3d
       0.32900608 -0.10108712 0.16466954 0.085775614
0000e0 aa a8 2d 3e ef a7 0d 3f fc 9d 9e bd 50 8f 57 be
       0.16958871 0.5533437 -0.07744977 -0.21050763
0000f0 df 4f 01 3e ce 1d 3b bd 4a 7b 69 be 26 dd eb 3b
       0.12628125 -0.04568272 -0.22800937 0.007197994
000100 9f 69 c6 be 65 ee 03 bf 22 a5 ca 3e 2c c3 41 bd
       -0.38752457 -0.51535636 0.3957911 -0.04730527
000110 33 03 ff bc 78 cb f9 3e 94 e5 e3 bc c4 57 0e bf
       -0.031129455 0.48788047 -0.027819432 -0.5560267
000120 c3 60 ef be db 85 af 3d 9a 17 de 3b 83 08 9f 3e
       -0.4675351 0.08570453 0.006777716 0.3106118
000130 c1 f5 f9 bd a2 40 bc 3d c1 fd a8 3d 6f d8 86 be
       -0.12205077 0.09192015 0.08251525 -0.26337
000140 f3 f5 9a be b6 0c 76 3c a2 a4 32 bf e1 51 f1 3e
       -0.3026577 0.015017679 -0.6978246 0.4713278
000150 18 49 66 3d 0d df 1d 3f 67 16 b0 be 3e f3 cb 3e
       0.05622205 0.61668473 -0.34392092 0.39834017
000160 ef cb ca be d4 f8 3b bd 89 4a 68 3e c9 5a e8 3d
       -0.39608714 -0.045891598 0.22684683 0.11345441
000170 5f c5 39 be b3 4a 54 bd 65 1e 34 be 33 9b 64 3d
       -0.18141697 -0.05182905 -0.1758972 0.055812072
000180 3f 15 99 bd 11 e0 a6 3e 08 77 d5 3e 77 13 99 3d
       -0.074747555 0.32592824 0.41692376 0.07474416
000190 8b bd 1d bd 47 d6 81 3d cb 4b 31 3f 59 8a 24 bf
       -0.03851084 0.06339698 0.69256276 -0.642736
0001a0 c7 24 d8 be 2f 21 92 be 22 8f 17 3f 59 dc 29 be
       -0.4221556 -0.28540942 0.5920278 -0.16587962
0001b0 58 8e e4 3d 7f 8a f6 3e c3 01 67 be 16 90 bb be
       0.111599624 0.4815254 -0.22559266 -0.36633366
0001c0 07 ab 17 be 1a 7c cd 3e e2 98 60 be de f8 6a be
       -0.14811336 0.40133744 -0.2193332 -0.22946498
0001d0 75 5c ed 3e 3b e1 97 be 44 6e 47 be a4 29 a4 3e
       0.46359602 -0.29664025 -0.19475657 0.3206302
0001e0 75 71 f2 b9 78 24 86 3e 0f 98 bb 3d ef 42 cc bd
       -0.0004624237 0.26199698 0.09159862 -0.09973704
0001f0 f6 2d dd 3e db 55 9d bc 8e da d3 bd 20 f6 47 be
       0.43199128 -0.019205978 -0.103444204 -0.19527483
000200 f5 63 9a 3e 3b 25 0f 3f b6 58 99 be 94 dd 08 bf
       0.30154386 0.55916184 -0.29950494 -0.534631
000210 64 ae b6 bc 72 0a 11 be e1 5b 98 3d f5 dc 27 3e
       -0.022299953 -0.14164141 0.074393995 0.16392882
000220 b5 ee 8a 3e 38 77 32 3d d8 6a e8 3d e4 37 e7 be
       0.27135244 0.043570727 0.11348504 -0.4515983
000230 bf fc dd 3e e5 51 81 bd 5d 69 4d 3d e3 e4 4f 3e
       0.43356892 -0.06314448 0.05014931 0.20302157
000240 bc a5 65 bd a1 18 8e be 84 a4 96 3e 02 8b 30 bd
       -0.05606626 -0.27753165 0.2942239 -0.04310132
000250 b7 4b fc bd 32 2e 67 3e 96 72 40 be 2f 97 e7 3e
       -0.12319129 0.22576216 -0.18793711 0.4523253
000260 bd 78 0d bf 6e 0b ff be 1b 2d 6f 3c cc 3c 8f 3e
       -0.55262357 -0.49813408 0.014598156 0.27976072
000270 27 dd 83 be 55 7f fb 3d 2f b2 1f bd 96 ef 93 bc
       -0.25754663 0.12280146 -0.03898829 -0.01805858
000280 d5 5e 7a 3e d1 a6 25 be 4c 44 91 bd 9a db 9c 3e
       0.24450238 -0.16176917 -0.07093105 0.30636293
000290 94 18 c8 3d 2d 17 03 be 5d c9 04 bf 27 fb f9 3e
       0.09770313 -0.1280181 -0.51869756 0.48824427
0002a0 af 5b dd be 34 32 d3 3d ae 7f 99 3e 08 52 2c be
       -0.43234012 0.1031231 0.29980224 -0.16828167
0002b0 cd a2 1f be 16 fe 25 3d 8c 20 b9 3e 2b 29 11 3e
       -0.15589447 0.04052552 0.36157644 0.1417586
0002c0 1c 98 cc bd ad c0 21 be 57 c4 3b 3e a2 5c 93 be
       -0.0998995 -0.15796156 0.18336616 -0.2878161
0002d0 56 a7 e8 bb 57 2b 9d bd 36 76 1c be 1c dd ad 3e
       -0.007100026 -0.07674282 -0.15279469 0.33957756
0002e0 e6 dd 6a bd 90 55 bb 3d 84 d9 11 be cb 54 f4 3e
       -0.057340525 0.09147179 -0.14243132 0.47720942
0002f0 47 2f 86 be 87 24 db 3e d9 f4 bf bd 6b ad 97 be
       -0.26207945 0.42801306 -0.09372873 -0.29624495
000300 d0 91 d9 3e ac 9b f7 3d d8 30 55 3f 81 23 b2 3d
       0.4249406 0.12090239 0.83277655 0.08698178
000310 7b b4 00 3f fc 5a 92 bd 0f 7a 06 3e 9a b2 15 bd
       0.5027539 -0.0714626 0.13132499 -0.03654728
000320 c7 9a 13 be 0f 48 b7 bc 12 c8 22 3f 8b 6d ec 3d
       -0.14414512 -0.022373227 0.63586533 0.11544331
000330 9c d1 1a 3e 7e 11 94 be f2 89 1e 3e 1a a3 ca be
       0.15119022 -0.28919595 0.1548231 -0.39577562
000340 cf b7 93 be 85 19 ee 3d d3 6d 86 bd 63 51 b1 3e
       -0.28851172 0.11625961 -0.06563916 0.34632406
000350 c1 99 d5 bd b8 32 e9 3c 3b 24 a6 3c 60 96 36 3e
       -0.10429717 0.028466567 0.020280948 0.17830801
000360 63 1f 8d 3e 9c 58 86 3e 9d b3 d5 3d 1f 47 3c 3d
       0.2756301 0.2623948 0.10434649 0.045966264
000370 72 55 e6 3e dd e9 0c bf ee 75 ab be 1d d9 ff 3d
       0.44987065 -0.5504435 -0.3348841 0.12492583
000380 26 ee 18 3e 72 2c 0d bd 98 3e 21 3f 7b 47 0f bd
       0.14934596 -0.034466214 0.62986135 -0.03498028
000390 61 63 ad 3e 08 0b 85 be 83 6d 7f bd 98 a3 35 be
       0.33864883 -0.2598498 -0.062360298 -0.17738187
0003a0 1d dd b0 3c 88 ec 1f 3f 8d e2 14 3f c0 8e d4 be
       0.02158981 0.62470293 0.5815819 -0.4151516
0003b0 7b d7 18 be 10 84 c1 be f5 2b 46 3e 3f 52 09 bf
       -0.1492595 -0.37796068 0.19352706 -0.5364112
0003c0 84 c4 36 3e b1 01 90 3e c2 05 15 be c9 2a 28 be
       0.17848402 0.2812629 -0.14552978 -0.16422571
0003d0 54 28 a6 3e d6 2c 8f bd ec c5 15 be 96 67 7a bd
       0.32452643 -0.06990974 -0.14626282 -0.061133943
0003e0 d2 09 1a 3e b0 96 b7 3e 8b 6b 96 bc 83 ce be be
       0.15042809 0.35857153 -0.018361827 -0.3726693
0003f0 df d8 a3 3b 1d 45 6f be f9 2f 02 be 85 3c ab 3d
       0.0050002183 -0.23366208 -0.12713613 0.083611526

rnn.bias_ih_l0 f4 [32]
000000 bc 49 29 3e cf 66 17 3f 21 cb 1b be 7a a1 ad 3e
       0.16532034 0.5914125 -0.15214206 0.3391226
000010 1c 1f 67 be 91 e0 31 bd 94 a0 c1 be ab 4f 66 be
       -0.22570461 -0.043427054 -0.37817824 -0.22491328
000020 f3 cd 99 3e eb 86 9e 3e 29 34 ab 3e 4f 23 35 3e
       0.3003994 0.3096231 0.33438233 0.1768925
000030 bc 0c 9e 3d 91 90 9c 3e bc 75 36 3e fb f8 15 3e
       0.07717273 0.30579045 0.1781835 0.1464576
000040 de c7 04 bf ee a9 8a be 29 0d 17 3e ac da 27 3e
       -0.51867473 -0.2708277 0.14751114 0.1639201
000050 e1 21 bd be 3f 5f 01 3f c3 71 12 3e a8 a1 92 3e
       -0.3693991 0.5053596 0.14301209 0.2863896
000060 a3 6a 66 be df 45 1a 3f 7b cb 61 3d d9 d0 27 be
       -0.22501616 0.60262865 0.055125695 -0.16388263
000070 b9 d5 a0 bc ce 86 ad 3d 85 a3 df be 5f eb 1d bd
       -0.01963316 0.084729776 -0.43679443 -0.038554545

rnn.bias_hh_l0 f4 [32]
000000 53 48 7b 3e 2a 2d bb 3e 70 24 d4 be 41 ce 8a 3e
       0.24539308 0.36557895 -0.4143405 0.27110484
000010 d8 a5 56 be 2b de 84 3e 8b 24 f1 be 81 45 b9 be
       -0.20961702 0.2595075 -0.47098193 -0.3618584
000020 68 a5 c7 3d 21 9c 10 3e 2b 99 a2 3b 01 ba 78 3e
       0.097483456 0.14122058 0.0049621067 0.24289705
000030 ef 2e 78 be 46 2d 33 3e 34 8b b1 be 28 09 c2 be
       -0.24236654 0.17497739 -0.34676516 -0.3789761
000040 92 20 11 be 1f fe 01 bf cb c6 70 be 61 f1 f6 3e
       -0.14172581 -0.50778383 -0.23513333 0.48231032
000050 bf 7a b4 be d8 5c da 3e 7f 23 b8 be 00 57 38 3e
       -0.35249898 0.4264896 -0.3596458 0.18001938
000060 97 07 43 3e 66 ce 0e 3f 49 98 cc bd 01 2f 24 be
       0.19045864 0.5578369 -0.099899836 -0.16033556
000070 90 87 53 3e 24 8d 51 3e e4 57 db bd 39 77 70 be
       0.20657182 0.20463997 -0.10710123 -0.2348298

out.weight f4 [1, 8]
000000 4c ce cc bd f2 40 92 be 44 12 50 3e 6d d1 27 3e
       -0.100002855 -0.28565174 0.20319468 0.16388483
000010 fd b9 93 be 22 1a d0 3e 86 1d c8 3d 91 68 02 3e
       -0.28852835 0.40644938 0.09771256 0.12735201
