ckpt/379.ckpt (torch_old, 3320 bytes, 5 tensors)

rnn.weight_ih_l0 f4 [32, 7]
0	0x3f03c057	0.5146536
1	0x3eb338f8	0.350044
2	0x3f270109	0.65235955
3	0x3eddf755	0.43352762
4	0x3ed475e2	0.41496187
5	0x3d85f457	0.06540745
6	0x3f1154ae	0.56769836
7	0x3efc5372	0.49282414
8	0x3f216419	0.6304336
9	0x3f5a31f9	0.852325
10	0x3f41e6bf	0.75742716
11	0x3eead59a	0.4586609
12	0x3ea32902	0.31867224
13	0x3ea644cb	0.3247436
14	0xbf1b7702	-0.60728467
15	0x3d73d2c1	0.059527162
16	0xbf4827e1	-0.7818585
17	0xbf4cf12b	-0.80055493
18	0xbec112b7	-0.3770959
19	0x3f5abf43	0.8544809
20	0x3f1cb880	0.61219025
21	0x3f4d465d	0.8018549
22	0x3f32ac68	0.6979432
23	0x3e6be0ae	0.23034927
24	0x3d52b80a	0.051445045
25	0x3e0eeefa	0.1395835
26	0x3ef98935	0.48737493
27	0x3e905666	0.28190917
28	0x3f8b7c7d	1.0897366
29	0x3f3a7208	0.7283025
30	0xbda35f54	-0.07977167
31	0xbf75cc94	-0.96015286
32	0x3f02cb41	0.5109139
33	0xbe6657e6	-0.22494468
34	0x3f7b546d	0.981757
35	0x3f84584f	1.033945
36	0xbe4e4f34	-0.20147401
37	0x3f304a41	0.688633
38	0x3f561bd3	0.83636206
39	0x3f3a76a8	0.72837305
40	0xbf638031	-0.8886748
41	0xbf4bb406	-0.7957157
42	0x3de6cf15	0.112699665
43	0xbeb1a423	-0.3469554
44	0x3cb87137	0.022514923
45	0xbe43f7f8	-0.19137561
46	0xbee008d0	-0.43756723
47	0xbeb9f68f	-0.36320922
48	0xbe96aaf9	-0.29427317
49	0x3d17ba3d	0.037042845
50	0x3df461fc	0.119327515
51	0xbec210d4	-0.37903464
52	0xbedfeb8f	-0.43734404
53	0x3e3c0b48	0.18363678
54	0xbd1c24c4	-0.038121
55	0xbd8c2a64	-0.06844023
56	0x3ea05bb9	0.3131998
57	0x3d9b40a1	0.07580686
58	0x3d464180	0.04840231
59	0x3e1a7bb1	0.15086247
60	0x3e4105dc	0.18849891
61	0x3edac447	0.42727873
62	0x3ece4c61	0.40292647
63	0x3f0fcb27	0.5616936
64	0x3f146498	0.57965994
65	0xbd83177b	-0.06400963
66	0x3e8ca407	0.27468893
67	0x3eaa18a6	0.3322193
68	0x3eabd878	0.3356359
69	0x3ebacf7f	0.36486432
70	0xbf0b6f0e	-0.5446633
71	0x3ed615a8	0.41813397
72	0xbe6e36c6	-0.23263082
73	0xbe6b20e1	-0.22961761
74	0xbd298b3b	-0.041392546
75	0x3f04a8ca	0.5182005
76	0x3fa49676	1.2858417
77	0x3ea14913	0.31501064
78	0x3e4b5ffd	0.19860835
79	0x3e8f145b	0.27945217
80	0x3e18ceb5	0.14922602
81	0x3e820c8e	0.25400203
82	0x3ef6431a	0.4809807
83	0x3ebcfbbb	0.36910805
84	0x3ec41d0f	0.3830342
85	0x3f09739d	0.53692037
86	0x3ea7a93e	0.3274631
87	0xbd9d2c6d	-0.07674489
88	0x3e446977	0.19180857
89	0xbf12bfc3	-0.57323855
90	0x3f7b4bea	0.9816271
91	0x3f06655a	0.524984
92	0x3ecd5b3f	0.40108678
93	0x3ed0f303	0.40810403
94	0x3f3b6bde	0.7321147
95	0x3e060517	0.13087879
96	0xbf308208	-0.6894841
97	0xbf105850	-0.56384754
98	0x3e304016	0.17211947
99	0x3e1a7d5e	0.15086886
100	0x3e608033	0.21923904
101	0xbcbdadef	-0.023154227
102	0xbe5df315	-0.2167476
103	0xbe8e18a8	-0.27753186
104	0x3e4a3e13	0.19750242
105	0xbef3abe1	-0.4759207
106	0x3d7adabc	0.061243758
107	0xbeb52913	-0.353829
108	0xbef29566	-0.47379607
109	0x3e09ecc7	0.1346923
110	0xbee4babc	-0.44673717
111	0xbe1a3fe5	-0.15063436
112	0xbeb800be	-0.35938066
113	0xbeeffedd	-0.46874133
114	0x3c2a840b	0.010407458
115	0xbef9cc83	-0.48788843
116	0xbed1dc76	-0.4098851
117	0x3c5dfe0a	0.013549337
118	0xbe91faa7	-0.28511545
119	0xbc560058	-0.013061605
120	0xbefb7827	-0.49115106
121	0xbe05ad48	-0.13054383
122	0xbec099ee	-0.3761744
123	0xbebeb236	-0.3724534
124	0xbf1cf911	-0.61317545
125	0xbef6eb5f	-0.4822645
126	0x3e07ca5d	0.13260789
127	0x3eada717	0.33916542
128	0xbc89c989	-0.016819732
129	0x3e584aba	0.21122256
130	0x3ec23321	0.37929633
131	0xbe548daa	-0.20757166
132	0xbf3b8015	-0.7324231
133	0x3ddbbc70	0.10729301
134	0x3ea1c008	0.3159182
135	0x3ee24fcc	0.44201505
136	0x3d32dcb4	0.04366751
137	0x3de92028	0.113830864
138	0x3e31444f	0.17311214
139	0xbd9b392f	-0.07579266
140	0x3c12c8bc	0.008958992
141	0xbe7b8cc8	-0.24565423
142	0xbe68359c	-0.226767
143	0xbda7c38f	-0.08191597
144	0xbefd94d8	-0.4952762
145	0xbecde921	-0.40216926
146	0xbdbf3da9	-0.093379326
147	0x3e204716	0.15652117
148	0x3f0d4bf8	0.55194044
149	0x3e997fff	0.29980466
150	0x3ea3b70b	0.31975588
151	0x3dd5f524	0.104471475
152	0xbe125237	-0.14289175
153	0x3e4cffca	0.20019451
154	0x3d3e506c	0.046463415
155	0xbe8aaef3	-0.270866
156	0xbcee23c0	-0.029069781
157	0xbeee6ee2	-0.46568972
158	0xbe5af449	-0.2138225
159	0x3e0ec8d7	0.13943802
160	0x3d7ab444	0.06120707
161	0x3f038ea4	0.5138953
162	0x3e926a94	0.28596938
163	0xbdc1d987	-0.09465318
164	0x3b311512	0.0027020616
165	0xbb0bcf91	-0.0021333436
166	0x3e1fbd50	0.1559956
167	0x3d88d259	0.06680746
168	0x3deff834	0.11717263
169	0x3ec024e5	0.37528148
170	0xbd119ba4	-0.03554882
171	0xbec6d4b6	-0.3883416
172	0x3ee37a58	0.44429278
173	0xbddea080	-0.10870457
174	0x3e59fa24	0.21286827
175	0xbe21a216	-0.15784487
176	0xbe05294a	-0.13004032
177	0xbd25cc3c	-0.040477976
178	0x3ebf82d6	0.37404507
179	0x3f020fb6	0.50805223
180	0xbd6541ca	-0.055970944
181	0x3e9f2c8d	0.31088677
182	0xbf50c0a4	-0.81543946
183	0x3f13132a	0.5745112
184	0xbee6591a	-0.44989854
185	0xbf1c2ab5	-0.61002666
186	0xbf6a5b60	-0.9154568
187	0x3ebcfc2c	0.36911142
188	0x3dfcfe9b	0.1235325
189	0x3e5c9eea	0.21544996
190	0x3e9a844f	0.30179068
191	0xbe89f191	-0.26942113
192	0xbe95390b	-0.29145083
193	0x3e363978	0.1779536
194	0xbe5c0826	-0.21487483
195	0x3d149d8b	0.036283057
196	0x3f543d7a	0.82906306
197	0x3eed3e1d	0.4633645
198	0x3ecae74d	0.39629593
199	0x3e6650b1	0.22491719
200	0x3f489b52	0.78362
201	0x3e196bf7	0.14982592
202	0x3cbdf14f	0.023186354
203	0x3db669c5	0.08906893
204	0x3e24280b	0.160309
205	0xbdf04684	-0.117322
206	0xbecee1dd	-0.40406695
207	0x3dab19bc	0.08354518
208	0x3e9d822b	0.30763373
209	0x3f21bebc	0.6318166
210	0xbec27e24	-0.37986863
211	0xbdd6d3b2	-0.104895964
212	0xbe94b165	-0.2904159
213	0x3e4a00cf	0.19726871
214	0xbf01cd40	-0.5070381
215	0xbe6dddec	-0.23229188
216	0xbdac54fb	-0.08414646
217	0x3d93858b	0.07203206
218	0xbeb63c0a	-0.3559268
219	0x3e1acb60	0.15116644
220	0x3e0a02e2	0.13477662
221	0xbe976495	-0.29568925
222	0xbe55ab38	-0.20866096
223	0xbf021d52	-0.5082599

rnn.weight_hh_l0 f4 [32, 8]
0	0xbe42cd46	-0.19023618
1	0xbd37d7b5	-0.04488345
2	0x3e2bee15	0.1679004
3	0x3ef9d8d8	0.4879825
4	0x3df787c7	0.12086444
5	0xbe03123d	-0.12799926
6	0x3ea0c3b7	0.3139932
7	0xbf0a10c8	-0.53931856
8	0xbf07daae	-0.53068054
9	0xbf0b38ad	-0.54383355
10	0x3e134867	0.14383088
11	0x3cda6d81	0.026663544
12	0xbea3cddd	-0.31993
13	0x3ef74125	0.4829189
14	0x3ea65a77	0.32490894
15	0x3dc3523a	0.09537168
16	0x3edd13ba	0.43179113
17	0x3e2888c3	0.1645842
18	0xbf2b83c9	-0.66997963
19	0x3e56cf7f	0.20977591
20	0xbcff41ac	-0.031159244
21	0xbeea23de	-0.4573049
22	0xbe2d9793	-0.16952352
23	0xbd80364e	-0.06260358
24	0x3daf26f8	0.085523546
25	0x3e3ac3fc	0.18238825
26	0x3d6a529d	0.057207692
27	0x3eb09527	0.34488794
28	0xbec9d40f	-0.394196
29	0x3e9dec16	0.30844182
30	0x3e944f30	0.28966665
31	0xbe6b91f3	-0.23004894
32	0x3f7b4f2e	0.98167694
33	0x3fcb0c11	1.5863057
34	0x3f2c2720	0.672472
35	0xbf6a68fb	-0.9156644
36	0x3e8ec38a	0.2788356
37	0xbf9f5c7f	-1.2450103
38	0x3fc8b06a	1.5678837
39	0xbfa91d29	-1.3212024
40	0x3e21c4ed	0.15797777
41	0x3ead7bf8	0.33883643
42	0x3fb118eb	1.3835729
43	0xbf085dd6	-0.5326818
44	0xbd8381eb	-0.06421264
45	0xbe1925f4	-0.14955884
46	0x3e47aa5f	0.19498585
47	0xbf43366d	-0.7625492
48	0xbe80a9d5	-0.25129572
49	0x3e0b64f6	0.13612732
50	0x3e465902	0.19369891
51	0x3e6e1e26	0.23253688
52	0x3ea7bbef	0.3276057
53	0xbd059fa1	-0.032622937
54	0x3e18dc73	0.14927845
55	0x3dc76045	0.09735159
56	0x3e2004ba	0.15626803
57	0x3f0bd8c3	0.5462763
58	0xbda2e6e1	-0.07954193
59	0xbe474792	-0.19460896
60	0x3df14dc3	0.1178241
61	0xbd12ef63	-0.03587283
62	0xbe69ddb3	-0.22838478
63	0x3c0e1d1d	0.008673933
64	0xbec639b6	-0.38715905
65	0xbf03cb12	-0.51481736
66	0x3eca5866	0.39520568
67	0xbd43471d	-0.04767524
68	0xbcfffff5	-0.03124998
69	0x3ef98752	0.48736054
70	0xbcdc5bab	-0.02689918
71	0xbf0e8699	-0.5567413
72	0xbeeed1cb	-0.46644434
73	0x3db21c5a	0.08696814
74	0x3bd07548	0.0063616373
75	0x3e9e6e4b	0.30943522
76	0xbdfa1f66	-0.1221302
77	0x3db8ff65	0.09033088
78	0x3daa1ff8	0.08306879
79	0xbe871d4b	-0.26389536
80	0xbeac5a0d	-0.33662453
81	0xbc6e05b9	-0.014527732
82	0xbf25703a	-0.6462437
83	0x3efc39bb	0.49262795
84	0x3cffcddc	0.031226091
85	0x3f2b1f71	0.6684485
86	0xbeb8b2fc	-0.36074054
87	0x3ed2cad0	0.4117036
88	0xbeca6307	-0.39528677
89	0xbd37339e	-0.04472696
90	0x3e686cfe	0.22697827
91	0x3de68eee	0.112577304
92	0xbe398dc8	-0.18120492
93	0xbd581d89	-0.052762542
94	0xbe332e1f	-0.17498063
95	0x3d61b855	0.055107433
96	0xbdb4a0b9	-0.08819718
97	0x3e9f7fb0	0.31152105
98	0x3f06afa7	0.52611774
99	0x3d9fe5fb	0.07807537
100	0xbe1599d5	-0.14609464
101	0x3dd57f3f	0.10424661
102	0x3f4970be	0.78687656
103	0xbf2254b0	-0.6341047
104	0xbed9a169	-0.4250596
105	0xbe938f35	-0.28820196
106	0x3f16df6a	0.5893465
107	0xbe274217	-0.16333805
108	0x3de4297a	0.111407235
109	0x3efc0327	0.49221155
110	0xbe79bbaa	-0.24387994
111	0xbebb3f17	-0.3657157
112	0xbe708c46	-0.2349101
113	0x3eb2fb13	0.3495718
114	0xbe654d1e	-0.22392699
115	0xbe13ff8f	-0.14452957
116	0x3ee33b2b	0.4438108
117	0xbe6bc39e	-0.23023841
118	0xbe4fad97	-0.20281063
119	0x3ea74732	0.32671505
120	0xbbfa19df	-0.0076324786
121	0x3e8476ea	0.25871974
122	0x3dbad576	0.09122746
123	0xbdbc57bd	-0.09196422
124	0x3ed98b5c	0.42489135
125	0xbc5c4635	-0.013444473
126	0xbdd42299	-0.103581615
127	0xbe477b52	-0.19480637
128	0x3e9a4eaf	0.30138156
129	0x3f0f1aed	0.5590046
130	0xbe99540b	-0.29946932
131	0xbf08d2a7	-0.5344643
132	0xbcb7eb41	-0.022451045
133	0xbe10cc6b	-0.1414048
134	0x3d982b18	0.074300945
135	0x3e2804a1	0.16408016
136	0x3e8ac5c6	0.27104014
137	0x3d3160b2	0.043305106
138	0x3de87435	0.1135029
139	0xbee70880	-0.45123672
140	0x3eddd757	0.43328354
141	0xbd807fba	-0.06274362
142	0x3d4d2495	0.050083715
143	0x3e4ff5bc	0.20308584
144	0xbd8321c0	-0.06402922
145	0xbe931070	-0.28723478
146	0x3e746f41	0.23870565
147	0xbcd6cb63	-0.02622003
148	0xbdff3e24	-0.12463024
149	0x3e5f82d8	0.21827257
150	0xbe4c3ead	-0.19945784
151	0x3ee91ce2	0.45529848
152	0xbf0d6a16	-0.5524
153	0xbefef779	-0.49798182
154	0x3c6f1291	0.014591829
155	0x3e8f1aa4	0.27950013
156	0xbe83c0e3	-0.25733098
157	0x3dfafc3d	0.12255142
158	0xbd1f91ef	-0.038957532
159	0xbc94317b	-0.01809
160	0x3e732a1e	0.23746535
161	0xbe2f9a16	-0.17148623
162	0xbdb8444d	-0.08997402
163	0x3ea126d7	0.31474945
164	0x3dcb74f2	0.09934415
165	0xbdfbef18	-0.12301463
166	0xbf084ef1	-0.53245455
167	0x3efdd836	0.49579018
168	0xbedb7f42	-0.42870528
169	0x3dd962b4	0.10614529
170	0x3e9549a4	0.29157746
171	0xbe2f471c	-0.1711697
172	0xbe1dbfe0	-0.15405226
173	0x3d10bff4	0.03533931
174	0x3eb952ab	0.36195883
175	0x3e0ffd8e	0.14061567
176	0xbdd17db0	-0.10229051
177	0xbe20d377	-0.15705667
178	0x3e42ac81	0.19011118
179	0xbe94d9c3	-0.2907239
180	0xbc40e22d	-0.0117726745
181	0xbd887934	-0.06663743
182	0xbe19ae63	-0.1500793
183	0x3ead9cca	0.33908683
184	0xbd70b55a	-0.0587667
185	0x3db9c2aa	0.09070332
186	0xbe127c60	-0.14305258
187	0x3ef520d3	0.47876605
188	0xbe86a416	-0.26297063
189	0x3edbb419	0.4291084
190	0xbdbfe596	-0.09369962
191	0xbe979a03	-0.2960969
192	0x3edbebd7	0.4295337
193	0x3e058e15	0.13042481
194	0x3f577d67	0.84175724
195	0x3dab617b	0.08368202
196	0x3f00763f	0.5018043
197	0xbd94f6d7	-0.072736435
198	0x3e24a21f	0.1607747
199	0xbd06f13c	-0.032944903
200	0xbe11aa35	-0.14225085
201	0xbc8d24cd	-0.017229462
202	0x3f218e7e	0.6310805
203	0x3dece1f4	0.11566535
204	0x3e15ff5c	0.14648193
205	0xbe948bfb	-0.29013047
206	0x3e2e1017	0.16998325
207	0xbec74405	-0.38919082
208	0xbe94406d	-0.28955403
209	0x3e0d4486	0.13795671
210	0x3d2d1003	0.042251598
211	0x3ea7b495	0.3275496
212	0xbde358dd	-0.11100934
213	0x3d89bdb0	0.06725633
214	0x3cf3d4cf	0.029764561
215	0x3e2ea61d	0.17055555
216	0x3e8e0612	0.27739006
217	0x3e89cc0f	0.26913497
218	0x3e15d69b	0.14632647
219	0x3d32c10d	0.04364114
220	0x3ee4c679	0.44682673
221	0xbf0c06bd	-0.5469778
222	0xbe9d3e60	-0.3071165
223	0x3e041c24	0.1290136
224	0x3e18d136	0.14923558
225	0xbd036663	-0.032080065
226	0x3f279cba	0.6547352
227	0xbd0d3a35	-0.03447934
228	0x3eaa2eec	0.33238924
229	0xbe836fe2	-0.25671297
230	0xbd0980f2	-0.033570237
231	0xbe2a567e	-0.16634557
232	0x3d079b47	0.03310707
233	0x3f266d9c	0.65011
234	0x3f25474e	0.6456193
235	0xbedabfd2	-0.42724472
236	0xbe1cc823	-0.15310721
237	0xbec1a611	-0.3782201
238	0x3e853e35	0.26024023
239	0xbf09bcc5	-0.53803664
240	0x3db7887d	0.0896158
241	0x3e45d14f	0.19318126
242	0xbe1f1f06	-0.15539178
243	0xbd8d7442	-0.0690694
244	0x3ea3bd48	0.31980348
245	0x3bc9b564	0.0061556567
246	0xbe273ef2	-0.16332605
247	0xbd47a553	-0.04874165
248	0x3e0afe9d	0.1357369
249	0x3eb389d6	0.35066098
250	0xbcab2b54	-0.020894684
251	0xbeb6038f	-0.3554959
252	0xbb6f3267	-0.0036498548
253	0xbe64151c	-0.22273678
254	0xbe02bb90	-0.12766862
255	0x3dae85a8	0.08521587

rnn.bias_ih_l0 f4 [32]
0	0x3e2c028d	0.16797848
1	0x3f186d63	0.5954191
2	0xbe0a39e6	-0.13498649
3	0x3eb013b4	0.34390032
4	0xbe742c7f	-0.23845099
5	0xbd9b20be	-0.075746045
6	0xbeb13bce	-0.3461594
7	0xbe5d0145	-0.21582516
8	0x3e998788	0.29986215
9	0x3e9e0420	0.30862522
10	0x3eb6ab5a	0.35677606
11	0x3e340d46	0.17583188
12	0x3dc0c407	0.09412389
13	0x3e9d0815	0.3067023
14	0x3e4e24cd	0.20131226
15	0x3e178600	0.1479721
16	0xbf0501f1	-0.5195609
17	0xbe8b8779	-0.27251795
18	0x3e193ace	0.14963838
19	0x3e294f0a	0.16534057
20	0xbebdfe91	-0.3710828
21	0x3f011b0e	0.5043191
22	0x3e127e39	0.14305963
23	0x3e9384a9	0.2881215
24	0xbe62fc11	-0.22166468
25	0x3f1cb19a	0.612085
26	0x3d1768a5	0.03696503
27	0xbe1ecfa4	-0.15508896
28	0xbb1483ce	-0.002266157
29	0x3db17c80	0.086663246
30	0xbecce530	-0.40018606
31	0xbcf378ec	-0.029720746

rnn.bias_hh_l0 f4 [32]
0	0x3e7e0124	0.24805123
1	0x3ebd3a53	0.3695856
2	0xbecb5bd3	-0.39718494
3	0x3e8d407b	0.27588257
4	0xbe63b33b	-0.2223634
5	0x3e68a418	0.22718847
6	0xbee0bfc5	-0.4389631
7	0xbeb49e50	-0.35277033
8	0x3dc68bbc	0.09694621
9	0x3e0f9691	0.1402228
10	0x3ce01961	0.027355852
11	0x3e77a3f8	0.24183643
12	0xbe66d34a	-0.22541538
13	0x3e341c54	0.17588931
14	0xbea5b3ab	-0.32363638
15	0xbec142a3	-0.37746152
16	0xbe1208e9	-0.14261211
17	0xbf026ce6	-0.50947416
18	0xbe6e9926	-0.23300609
19	0x3ef7ab91	0.48373082
20	0xbeb5576f	-0.3541827
21	0x3ed9d46d	0.4254488
22	0xbeb81d40	-0.35959816
23	0x3e3a1cfb	0.18175118
24	0x3e467629	0.19381012
25	0x3f113a21	0.5672932
26	0xbdf1c9b2	-0.118060485
27	0xbe1b2dcc	-0.15154189
28	0x3e655034	0.22393876
29	0x3e5387fe	0.20657346
30	0xbd905e8d	-0.07049284
31	0xbe676b7f	-0.225996

out.weight f4 [1, 8]
0	0xbdcbfa16	-0.099598095
1	0xbe8f301b	-0.2796639
2	0x3e5e6a08	0.21720135
3	0x3e29de27	0.1658865
4	0xbe9c71e1	-0.30555633
5	0x3ed2c9dd	0.41169634
6	0x3dd5d4a1	0.10440946
7	0x3e09e72c	0.13467091
