ckpt/409.ckpt (torch_old, 3320 bytes, 5 tensors)

rnn.weight_ih_l0 f4 [32, 7]
000000 e5 83 06 3f fc 04 b6 3e df d6 28 3f 38 ff e0 3e
       0.52545005 0.35550678 0.6595287 0.43944716
000010 bf d7 d8 3e bf a7 89 3d a1 5e 11 3f 97 ec 00 3f
       0.423521 0.06721448 0.5678502 0.5036101
000020 95 f3 22 3f 2d 2e 5c 3f 0f a4 43 3f 98 fe ee 3e
       0.63652927 0.8600796 0.7642221 0.46678615
000030 5f a8 a4 3e 67 e5 a6 3e 77 71 3a bf 2e 3e 63 bd
       0.32159707 0.32596895 -0.72829384 -0.05547922
000040 af ec 75 bf 29 9e 83 bf eb e2 04 bf 2a 78 24 3f
       -0.96064276 -1.0282642 -0.5190875 0.64245856
000050 db 14 10 3f 1c 8d 50 3f 28 8f 34 3f 27 e3 74 3e
       0.5628182 0.81465316 0.7053094 0.23914777
000060 ec 1e 71 3d 6a 78 19 3e 99 64 fb 3e bb 79 90 3e
       0.05886738 0.1498734 0.49100187 0.28217873
000070 ee ce a7 3f 6f f7 18 3f 0b ae 98 bd 6d d2 75 bf
       1.3110025 0.59752554 -0.07455071 -0.9602421
000080 6b c7 33 3f ca c8 e5 be 6a 56 37 3f 45 f0 74 3f
       0.7022616 -0.44879752 0.7161623 0.9567912
000090 25 59 14 bf d0 57 14 3f d6 65 5a 3f 66 d0 3e 3f
       -0.57948524 0.5794649 0.8531164 0.7453674
0000a0 72 9b 70 bf 8f 33 ae bf 23 67 97 3d 75 f2 dc be
       -0.9398719 -1.3609484 0.07392719 -0.4315373
0000b0 f3 6f e9 bb ad a3 84 be d8 18 00 bf 7a 5e 02 bf
       -0.007123941 -0.25906125 -0.5003791 -0.5092541
0000c0 a9 2c dc be 2e 14 4d 3d 00 ca e4 3d 31 b3 c2 be
       -0.43002823 0.050068073 0.11171341 -0.38027337
0000d0 93 75 e1 be 5a 52 46 3e 5e 39 a6 bd 8e 64 d3 bd
       -0.44035015 0.19367352 -0.08116411 -0.10321914
0000e0 5d 20 a1 3e 30 ee 9c 3d b8 a5 4a 3d e8 51 1b 3e
       0.31470004 0.07662618 0.049474448 0.15167964
0000f0 d5 95 42 3e ce 41 db 3e 95 43 ce 3e ef 6a 10 3f
       0.19002469 0.42823642 0.40285936 0.5641317
000100 0b d9 14 3f 73 96 7e bd 56 5d 8d 3e 0b 66 ab 3e
       0.5814368 -0.0621552 0.27610272 0.3347629
000110 41 12 ad 3e e0 1b bb 3e be bf 15 bf 96 83 dd 3e
       0.3380299 0.36544704 -0.584957 0.43264455
000120 b0 94 96 be 3c b9 ca be fb 92 17 be c4 51 b7 3e
       -0.29410315 -0.39594448 -0.14802162 0.3580457
000130 5b 58 a9 3f f6 5c a0 3e 17 a2 4a 3e 6a 66 8e 3e
       1.3230089 0.31320924 0.19788395 0.2781251
000140 21 28 17 3e ad 14 82 3e 04 08 f8 3e 9f d7 bc 3e
       0.14761402 0.254064 0.48443615 0.36883256
000150 69 29 c5 3e 2e aa b4 3e 3f 7c 3d 3e dd d5 36 be
       0.38508156 0.35286087 0.18504427 -0.1785502
000160 b2 ab 19 3e 93 65 46 bf 6c d4 40 3f b3 a3 25 3f
       0.15006903 -0.7749874 0.7532413 0.6470291
000170 fc 79 ed 3e 9e 91 18 3f 37 e1 7b 3f 1d e6 a1 3e
       0.4638213 0.59597194 0.98390526 0.31620875
000180 90 fb b5 be 68 b7 33 bf 84 36 2f 3e 3b 88 db 3d
       -0.3554349 -0.7020173 0.1711064 0.10719343
000190 24 8e 57 3e 4a d8 58 bd db 2e 75 be 2f 05 c0 be
       0.21050316 -0.052940644 -0.23943655 -0.37503955
0001a0 cf 3c e2 3d 1a 32 f5 be e1 76 5c 3d a2 12 b8 be
       0.110467546 -0.47889787 0.05382431 -0.35951716
0001b0 44 ab f5 be 5c aa 07 3e eb 4a ee be 19 e8 28 be
       -0.47982228 0.1324858 -0.46541533 -0.16494788
0001c0 26 6b b9 be 44 b4 f0 be 7b 17 0c 3c bc 9e fa be
       -0.3621456 -0.47012532 0.00855052 -0.4894923
0001d0 57 ee d2 be 8e 75 55 3c 03 17 92 be 38 0f 89 bc
       -0.41197464 0.0130285155 -0.28533182 -0.01673089
0001e0 77 be fc be 2c 8a 08 be 50 e3 c1 be 3e 30 c0 be
       -0.49364063 -0.13333958 -0.37868738 -0.37536806
0001f0 e7 5d 1d bf db 21 f7 be 10 22 bb 3d 21 dd 59 3e
       -0.6147141 -0.48268017 0.09137356 0.2127576
000200 ac 23 81 bd a4 ce 09 3e 62 99 a9 3e 1f a6 c7 be
       -0.06305632 0.13457733 0.33124834 -0.38993928
000210 a6 9e 75 bf bb 2e e2 3d a3 c2 a2 3e 6b 7f e3 3e
       -0.95945203 0.110440694 0.3178912 0.4443315
000220 35 29 3b 3d 60 29 ee 3d 8b 5f 32 3e b3 a7 9a bd
       0.045693595 0.116289854 0.17419259 -0.07551517
000230 fb 0e 70 3a 6c e6 55 be ba 70 59 be d9 1e 94 bd
       0.00091575057 -0.2088868 -0.21234408 -0.07232446
000240 a9 c4 01 bf bd d6 bb be 26 3c b5 bc d3 27 27 3e
       -0.50690705 -0.3668727 -0.022123408 0.16323785
000250 c2 cc 0c 3f 52 a0 9e 3e dd 92 aa 3e 28 a9 ea 3d
       0.54999936 0.3098169 0.33315173 0.11458045
000260 75 d1 00 be 34 c9 38 3e 4f ec 0f 3d 67 38 83 be
       -0.12579902 0.18045503 0.03513747 -0.2562897
000270 dc 48 fe bc bd 0b e8 be 7a 4f 52 be 17 61 94 3e
       -0.031040601 -0.45321456 -0.2053813 0.28980324
000280 8a 2e d0 3d e6 95 03 3f 8e fc 90 3e f6 ac c5 bd
       0.101651266 0.514006 0.28317684 -0.0965213
000290 46 96 0b 3a 40 94 03 bb e3 9d 18 3e 2d 00 6f 3d
       0.00053248217 -0.0020077378 0.14903979 0.058349777
0002a0 df 04 31 3e d5 f8 a8 3e 4e f4 45 bd 8f b8 b8 be
       0.17287014 0.33002344 -0.04832869 -0.36078307
0002b0 96 95 07 3f 0c 45 9a bd 7b c8 f8 3d 6d 40 0d be
       0.52962625 -0.07532701 0.121476136 -0.13794108
0002c0 a6 cf 53 be 0e e8 a9 bd 15 1f c9 3e 14 fa 13 3f
       -0.2068468 -0.08296214 0.39281526 0.57803464
0002d0 12 1f e8 bb e0 dc 4e 3e a7 4b 3c bf b8 4b 5e 3f
       -0.007083782 0.20201445 -0.73552936 0.8683429
0002e0 58 56 c3 be f6 b6 33 bf 57 37 78 bf 4c 11 78 3e
       -0.38151813 -0.7020105 -0.9695944 0.24225348
0002f0 4b 79 d9 3e b1 23 83 3e 9d 28 75 3e ad 83 a4 be
       0.42475352 0.25613168 0.23941274 -0.3213171
000300 d1 4e a0 be a3 cd 72 3e 32 90 62 be 06 03 c1 bc
       -0.31310132 0.23711257 -0.22125319 -0.023561012
000310 5e 08 53 3f a9 15 ad 3e 38 3b 95 3e 79 43 28 3e
       0.8243464 0.33805588 0.29146743 0.16431989
000320 48 5f 44 3f 44 5e ae 3d 2f a4 20 be d2 1c 7d 3e
       0.7670789 0.085140735 -0.15687631 0.24718025
000330 2a d6 7d 3e 0a ea 75 bd 2f d6 98 be d5 d4 93 3e
       0.24788728 -0.06003765 -0.2985091 0.28873315
000340 f2 ee e2 3e 13 67 2f 3f bd c8 d9 be 6c 9c 3f be
       0.44322926 0.68516654 -0.42535964 -0.18712014
000350 5a aa a0 be 23 51 06 3e 02 98 11 bf 67 e6 bf be
       -0.31379968 0.13116889 -0.5687257 -0.3748047
000360 22 c9 5d be 89 e6 ab 3d 6a 36 bb be 69 4e 18 3e
       -0.21658757 0.083935805 -0.36564952 0.14873661
000370 10 33 06 3e 55 f1 92 be ef 86 81 be c0 3c 0b bf
       0.13105416 -0.28699747 -0.2529826 -0.5438957

rnn.weight_hh_l0 f4 [32, 8]
000000 89 57 42 be 25 5e 35 bd 5f 41 2b 3e 2c 98 f9 3e
       -0.18978705 -0.044279236 0.16724156 0.4874891
000010 15 3c f8 3d 60 b2 03 be a0 2d a1 3e a4 63 0a bf
       0.12120835 -0.12861013 0.31480122 -0.5405829
000020 84 b1 07 bf 18 16 0b bf 02 df 12 3e 58 d1 d4 3c
       -0.5300524 -0.5433059 0.14342883 0.02597873
000030 2e 5b a3 be 7b c7 f6 3e e0 71 a6 3e 02 a9 c2 3d
       -0.31905502 0.48199067 0.32508755 0.09504892
000040 0d 60 26 3f 4e 83 e2 3e 42 e9 26 bf 78 4a d3 bc
       0.6499031 0.44240803 -0.65199673 -0.025792345
000050 bb ba 59 bb 7e 83 36 bf 32 ab 6c bd aa a3 77 be
       -0.0033222872 -0.7129439 -0.057780452 -0.24183527
000060 89 a1 b1 3d b3 4b 3c 3e fc 08 64 3d bb ea af 3e
       0.086733885 0.18388252 0.05567263 0.34358773
000070 66 5d c9 be 17 16 9d 3e 83 e6 94 3e a7 ef 6c be
       -0.3932907 0.30680916 0.29082116 -0.23138295
000080 79 67 9f 3f 63 bb f2 3f 2c 0f 4c 3f f1 7e 99 bf
       1.2453452 1.8963436 0.7971065 -1.1991864
000090 d7 74 09 3f fb 80 ba bf f7 22 d4 3f ee 3e d0 bf
       0.5369391 -1.4570612 1.657317 -1.6269205
0000a0 15 e1 9e 3e 41 9f f0 3e 01 09 ce 3f ca f9 34 bf
       0.310311 0.469965 1.6096498 -0.7069365
0000b0 08 bc f3 3d 14 43 9e bc bc 6e c8 3d a2 fe 41 bf
       0.119010985 -0.019319095 0.09786746 -0.75779164
0000c0 80 4f f5 bd 39 37 8c 3e b2 cc c2 3e 03 e3 70 3d
       -0.11978054 0.27385882 0.38046795 0.058810245
0000d0 58 df ba 3e 34 51 ab bd 2e 25 39 3e 82 ea 9f 3d
       0.36498523 -0.08365098 0.18080589 0.07808401
0000e0 19 0c 83 3e 9f 12 1d 3f 77 3a d1 bd db de 92 be
       0.25595167 0.6135654 -0.102162294 -0.2868565
0000f0 65 94 11 3e d0 eb d2 bd 5d 91 64 be 6f e7 ac 3a
       0.14216764 -0.10298884 -0.22321077 0.0013191531
000100 6a a3 c6 be 3f 03 04 bf 49 02 c9 3e 51 c6 3f bd
       -0.3879655 -0.51567453 0.39259556 -0.04681999
000110 ad 80 01 bd 19 1b fa 3e 92 24 dd bc 62 52 0e bf
       -0.031616855 0.488488 -0.026994977 -0.55594456
000120 ab 3e f0 be 98 e6 ac 3d 9e 4c 22 3b 89 0c a0 3e
       -0.46922812 0.0844242 0.0024764906 0.31259564
000130 6c bc fb bd ca 18 c0 3d b8 5d aa 3d 69 d6 86 be
       -0.12291798 0.09379728 0.08318657 -0.26335457
000140 41 96 55 be 32 bf 16 3e ad 9d 35 bf 56 4e be 3e
       -0.20858099 0.14721373 -0.7094372 0.3716914
000150 b2 16 15 3d 2e 28 f4 3e 91 e0 73 be 8d de 94 3e
       0.036398597 0.47686905 -0.23816134 0.29076043
000160 6e 56 ca be c3 b3 36 bd 9b 05 63 3e b0 9d e6 3d
       -0.39519066 -0.044605028 0.22170107 0.11260545
000170 19 fb 38 be e8 31 58 bd a7 c5 31 be e3 9b 60 3d
       -0.18064536 -0.05278197 -0.17360555 0.054836165
000180 3d f8 45 3d fb d4 00 3f 35 33 32 3f 87 14 8a bd
       0.04833244 0.5032498 0.69609386 -0.067421965
000190 07 62 8f bd 14 3b 0d bb d5 01 50 3f 55 3a 4c bf
       -0.07001119 -0.0021550106 0.81252795 -0.7977651
0001a0 d2 58 2a bf 79 7e 1b bf 50 b5 fb 3e 94 6f 93 3d
       -0.6654178 -0.60739857 0.49161768 0.07199016
0001b0 67 fe 1e 3e 6c b8 64 3f 75 0a ad be 01 45 94 bd
       0.15526734 0.89343905 -0.3379704 -0.07239724
0001c0 48 72 a2 bd bc cd eb 3e a8 8b dc bd d5 cb a8 be
       -0.07931954 0.460554 -0.10768825 -0.32968011
0001d0 ba 2e fd 3e 9a 20 98 be 95 d8 3d be 32 65 a1 3e
       0.49449712 -0.29712373 -0.1853965 0.31522518
0001e0 97 ac 2e 3d f0 59 92 3e fb b2 a8 3d 2d 96 0e be
       0.042645063 0.28584242 0.08237263 -0.13924475
0001f0 c2 c6 e3 3e 2f dd 36 bd 9a 36 d0 bd 11 35 4a be
       0.44487578 -0.04464453 -0.101666644 -0.19746806
000200 d5 3a 9a 3e 56 11 0f 3f 7b 49 99 be 2f c8 08 bf
       0.3012301 0.5588583 -0.29938874 -0.53430456
000210 9d 59 b9 bc 7b 93 10 be 67 04 98 3d c3 33 28 3e
       -0.022625739 -0.1411876 0.07422715 0.16425996
000220 68 a2 8a 3e 1a 66 30 3d 2b 94 e8 3d 64 de e6 be
       0.2707703 0.04306612 0.11356386 -0.45091546
000230 02 af dd 3e c6 8d 7f bd 96 ea 4c 3d 07 0a 50 3e
       0.43297583 -0.062391065 0.050028406 0.20316325
000240 05 06 b7 3d bf c4 12 be 31 f5 88 3d d4 02 26 be
       0.08936695 -0.14332865 0.066873915 -0.16212016
000250 72 e2 84 3d 3c 7e f9 3d f3 ab 00 be 9f b8 ab 3e
       0.064885035 0.121822804 -0.12565593 0.33539292
000260 15 52 0d bf fb d7 fe be b8 23 6e 3c 48 e2 8e 3e
       -0.5520337 -0.49774155 0.014534883 0.27907014
000270 82 84 83 be 40 26 fa 3d a8 5e 1f bd 9f ae 94 bc
       -0.25687033 0.12214327 -0.03890863 -0.018149672
000280 b5 2a 41 3e d3 2b 6a be 63 df 10 be d8 46 bc 3e
       0.18863948 -0.2286828 -0.14147715 0.367728
000290 a4 36 77 3d 50 9c a0 bd de df 07 bf 75 d6 06 3f
       0.060354844 -0.07842314 -0.5307597 0.52670985
0002a0 f4 94 e3 be 45 8d b2 3d 96 fb 8d 3e b2 fb 1d be
       -0.4444958 0.08718351 0.27731007 -0.15428045
0002b0 61 a7 15 be 81 56 9d 3d 4b 01 b7 3e df 19 18 3e
       -0.14614631 0.07682515 0.35743174 0.14853619
0002c0 cf c5 7c be 45 44 8c be de 88 14 3e 8d 0d 03 be
       -0.24684833 -0.27395836 0.14505336 -0.12798138
0002d0 1a fd 2a bc 7e ae fa 3c 58 fd 2b be 39 c8 b5 3e
       -0.010436321 0.030600782 -0.16795862 0.3550432
0002e0 3d 9e 1d bd 4c 40 d5 3d f9 e1 1a be 1b bd eb 3e
       -0.038480986 0.10412654 -0.15125264 0.46042714
0002f0 c4 ef 82 be 86 61 d3 3e 34 1b bd bd 89 a4 98 be
       -0.25573552 0.41285342 -0.09233704 -0.2981303
000300 54 fa e2 3e 48 7d 15 3e c8 9d 5f 3f f0 3c 80 3d
       0.4433161 0.14598572 0.8735013 0.06261623
000310 22 b0 06 3f 7c 23 eb bc 0c 5b 35 3e aa c8 7b bc
       0.5261251 -0.028703444 0.17710513 -0.015367666
000320 3e e6 f5 bd 36 16 a9 3a a7 43 22 3f 72 19 bb 3d
       -0.12006806 0.0012900296 0.6338448 0.09135713
000330 16 9c 34 3e 99 2c 7c be 71 c1 03 3e 09 ca b8 be
       0.17637667 -0.24626388 0.12866761 -0.3609164
000340 23 12 a2 be b8 f3 1c 3e 2f a8 1e bd 9b 56 b4 3e
       -0.31654462 0.15327346 -0.03873461 0.35222325
000350 35 35 35 be 56 21 ac bd fc c0 99 3e 70 31 b9 3d
       -0.17696078 -0.08404796 0.30030048 0.090426326
000360 55 d5 a5 3e 03 8c ae 3e 15 d1 70 3e 76 1b 19 bc
       0.32389322 0.34091195 0.23517258 -0.009344926
000370 5d 0d ec 3e c0 13 12 bf a6 f4 8d be 73 60 a2 3d
       0.46103945 -0.57061386 -0.27725714 0.079285525
000380 88 6c 69 3e 71 f1 a9 3d 74 e6 37 3f a1 24 e4 bd
       0.22795308 0.082980044 0.7183602 -0.11139799
000390 58 92 c7 3e d1 62 a4 be 3d 72 32 bd 66 04 78 be
       0.3897884 -0.3210664 -0.043565977 -0.24220428
0003a0 8b 91 80 bb 59 fc 19 3f 91 2d 13 3f a1 53 cc be
       -0.0039236 0.60150677 0.57491404 -0.39907554
0003b0 9a 6e fc bd ff c7 9a be 4a 83 8e 3e 67 e1 f8 be
       -0.12325783 -0.3023071 0.2783454 -0.48609468
0003c0 b7 ff 4b 3e a8 aa a1 3e 84 e5 06 3d 22 72 61 be
       0.19921766 0.31575513 0.032933727 -0.22016194
0003d0 86 1b b4 3e 9f 8c e1 bc c6 d4 07 be f5 c3 89 bd
       0.3517725 -0.027532874 -0.1326476 -0.06726829
0003e0 fd aa 70 3e d3 78 d5 3e 73 e7 2d bd e3 10 e4 be
       0.23502727 0.41693744 -0.042457055 -0.44544134
0003f0 8b 54 b2 3c 6c 69 93 be 91 32 fb bd 52 1a a0 3d
       0.021768829 -0.28791368 -0.12265504 0.0781752

rnn.bias_ih_l0 f4 [32]
000000 76 62 2f 3e ba a3 19 3f df cf c0 be bb 8b b2 3e
       0.17127404 0.6001545 -0.37658593 0.3487223
000010 e4 76 df be 31 59 2e be 77 22 e0 be 09 f1 71 be
       -0.43645394 -0.17026211 -0.43776295 -0.23627104
000020 ed e0 99 3e 17 d3 9e 3e 47 8d 60 3e 29 d6 33 3e
       0.30054417 0.31020424 0.21928893 0.17562164
000030 11 57 ca bd 7c e3 1c 3f f5 b2 16 3e 73 4c 0c 3e
       -0.09879888 0.61284614 0.14716704 0.13701038
000040 6f 40 05 bf 0b 91 8c be 67 8e 82 3c 7d e0 2a 3e
       -0.5205144 -0.2745441 0.015937043 0.16687198
000050 b7 e2 ab be db f4 04 3f 7f 52 49 3e a2 5e 91 3e
       -0.33571407 0.5193612 0.19660376 0.28392512
000060 d4 7e 5d be 5e 4f 1e 3f ae e1 7c 3c 91 1d 56 be
       -0.21630412 0.61839855 0.015434666 -0.20909716
000070 aa 16 c9 bd 9c 63 2e 3e e0 8d f9 be 42 9e 51 bd
       -0.09818776 0.17030185 -0.48741055 -0.051176317

rnn.bias_hh_l0 f4 [32]
000000 8b b0 80 3e 00 a7 bf 3e 5d 87 23 bf 82 b8 8f 3e
       0.25134692 0.37432098 -0.6387842 0.28070456
000010 42 3a d7 be 44 db 07 3e 35 d3 07 bf 2f 16 bf be
       -0.42036635 0.13267237 -0.5305665 -0.37321612
000020 53 f1 c7 3d 80 34 11 3e 8b 8c e1 bd db 6c 77 3e
       0.09762826 0.14180183 -0.110131346 0.24162619
000030 6c 30 d6 be 0d cd f6 3e 98 6c c1 be 6c df c6 be
       -0.41833818 0.48203316 -0.37778163 -0.38842332
000040 dc 02 13 be b0 f1 02 bf 14 c1 bb be 4a 74 f8 3e
       -0.1435656 -0.51150036 -0.36670744 0.48526222
000050 95 3b a3 be 13 88 e1 3e 1b b3 9c be ed d0 35 3e
       -0.31881395 0.4404913 -0.30605397 0.1775548
000060 66 f3 4b 3e e5 d7 12 3f e1 f0 0e be b9 7b 52 be
       0.19917068 0.5736068 -0.13959076 -0.20555009
000070 f2 16 03 3e af 96 94 3e a0 80 21 be f3 63 7d be
       0.12801722 0.29021212 -0.15771723 -0.24745159

out.weight f4 [1, 8]
000000 10 b6 d8 bd 1b a6 94 be 52 e0 5f 3e 1c 47 2b 3e
       -0.10581601 -0.29032978 0.21862915 0.16726345
000010 95 e1 94 be 90 64 e9 3e 66 ff a7 3d 65 90 1e 3e
       -0.29078355 0.45584536 0.0820301 0.1548477
