ckpt/429.ckpt (torch_old, 3320 bytes, 5 tensors)

rnn.weight_ih_l0 f4 [32, 7]
0.5311085 0.35907227 0.66388965 0.44338027 0.4278831 0.06915485 0.5687561 0.50997084
0.641061 0.8655071 0.7693868 0.4714278 0.32457772 0.3276694 -0.73972404 -0.10266371
-0.9808162 -1.0803999 -0.55373865 0.62397164 0.57472664 0.82028 0.70958376 0.24380864
0.06319722 0.15428942 0.4941807 0.2834427 1.49044 0.73083365 0.060066212 -0.85397315
0.8657245 -0.45382154 0.8387462 0.94519603 -0.574416 0.54913485 0.8622255 0.7485233
-0.9137859 -1.4200408 0.09209506 -0.4184566 0.016389597 -0.23966444 -0.4857727 -0.48518077
-0.43246645 0.050788138 0.117379345 -0.38353893 -0.44101235 0.19312948 -0.0752548 -0.09680848
0.3150612 0.07677226 0.049649935 0.15175012 0.19039454 0.428195 0.40275204 0.5648303
0.5818711 -0.06170379 0.27638412 0.3355081 0.3383206 0.3654405 -0.582379 0.4078666
-0.2796248 -0.43045193 -0.17434712 0.3468131 1.3553758 0.31209952 0.19801119 0.2776005
0.14687994 0.2538747 0.48560613 0.36926058 0.51316273 0.44030172 0.28224596 -0.10201763
0.26347086 -0.7894345 0.8449851 0.6170285 0.44241884 0.5630744 0.9690608 0.29567787
-0.401159 -0.759808 0.18447275 0.11606311 0.22412384 -0.040855177 -0.22953008 -0.36339
0.10993559 -0.48114994 0.054590527 -0.36190063 -0.4813733 0.130905 -0.46284488 -0.16250566
-0.36395895 -0.47133 0.007054588 -0.49091977 -0.41329575 0.012338721 -0.2857814 -0.018678872
-0.49525058 -0.1350488 -0.38034174 -0.3768804 -0.6161396 -0.48326117 0.097876675 0.23428568
-0.047426622 0.15499206 0.3492059 -0.379564 -0.95234597 0.111900486 0.3190425 0.44559374
0.04689146 0.11740428 0.17512776 -0.075087436 -0.012912954 -0.22413997 -0.2196302 -0.07991842
-0.5202036 -0.3715028 -0.032392226 0.16497087 0.55210555 0.31133482 0.33554137 0.11635634
-0.12428365 0.17857464 0.02028967 -0.2571605 -0.04333983 -0.46299145 -0.21385975 0.30015633
0.10814885 0.513692 0.28459752 -0.09700182 0.0005281605 -0.0021798895 0.15109652 0.060322396
0.09890219 0.33039516 -0.13553084 -0.41017663 0.46539694 -0.07901893 0.13988367 -0.20774828
-0.19253454 -0.1665186 0.35125396 0.52188367 -0.0040347558 0.22264396 -0.735643 0.8402386
-0.37111586 -0.72476596 -0.97757 0.27196667 0.4577574 0.2270994 0.24348585 -0.36967185
-0.34380785 0.20550178 -0.22550024 0.0020291826 0.9080893 0.3838762 0.33296618 0.20699657
0.82781726 0.092180476 -0.13777575 0.11515225 0.26430577 -0.22029452 -0.39559755 0.17752379
0.4538454 0.7711287 -0.4086457 -0.17280956 -0.28877363 0.15147726 -0.5532138 -0.34644592
-0.21744956 0.08497583 -0.36005342 0.14569227 0.13086398 -0.28744128 -0.24656005 -0.5380098
00000000: baf6 073f 52d8 b73e acf4 293f bd02 e33e
00000010: 7e13 db3e 0fa1 8d3d 009a 113f 738d 023f
00000020: 931c 243f e091 5d3f 89f6 443f fc5e f13e
00000030: 0d2f a63e 49c4 a73e 8e5e 3dbf 5a41 d2bd
00000040: c516 7bbf 8b4a 8abf d1c1 0dbf 9bbc 1f3f
00000050: 4921 133f dffd 513f 48a7 353f f9a8 793e
00000060: 8b6d 813d 0cfe 1d3e 4105 fd3e 671f 913e
00000070: bdc6 be3f ea17 3b3f fd07 763d fc9d 5abf
00000080: 1fa0 5d3f 4c5b e8be 12b8 563f 5ef8 713f
00000090: ed0c 13bf 1a94 0c3f cfba 5c3f 399f 3f3f
000000a0: dfed 69bf e6c3 b5bf 569c bc3d f23f d6be
000000b0: 7a43 863c 986a 75be 33b7 f8be 9d69 f8be
000000c0: 3e6c ddbe 3907 503d 9564 f03d 375f c4be
000000d0: 5fcc e1be bcc3 453e 301f 9abd 8643 c6bd
000000e0: b44f a13e c63a 9d3d bb5d 4b3d 6264 1b3e
000000f0: c9f6 423e 603c db3e 8435 ce3e b898 103f
00000100: 81f5 143f 1dbd 7cbd 3882 8d3e b8c7 ab3e
00000110: 5c38 ad3e 041b bb3e ca16 15bf e4d3 d03e
00000120: fb2a 8fbe 3264 dcbe 0d88 32be 7d91 b13e
00000130: f47c ad3f 82cb 9f3e 72c3 4a3e a721 8e3e
00000140: b267 163e ddfb 813e 5ea1 f83e b90f bd3e
00000150: a25e 033f 3a6f e13e 8b82 903e 9fee d0bd
00000160: a7e5 863e 6118 4abf f250 583f 94f5 1d3f
00000170: b984 e23e a525 103f 5e14 783f 1763 973e
00000180: b664 cdbe c782 42bf 6de6 3c3e 7fb2 ed3d
00000190: b880 653e c257 27bd ef09 6bbe 410e babe
000001a0: e925 e13d 4959 f6be 519a 5f3d 0a4b b9be
000001b0: 9076 f6be f60b 063e 01fa ecbe e267 26be
000001c0: d458 babe 2a52 f1be 2c2a e73b d659 fbbe
000001d0: 809b d3be 5928 4a3c f151 92be 6f04 99bc
000001e0: 7c91 fdbe 3c4a 0abe 27bc c2be 78f6 c0be
000001f0: 53bb 1dbf 026e f7be 9173 c83d 96e8 6f3e
00000200: 6b42 42bd 3db6 1e3e 1ecb b23e 3656 c2be
00000210: f2cc 73bf 152c e53d 8a59 a33e dd24 e43e
00000220: 4211 403d a871 f03d b154 333e 71c7 99bd
00000230: db90 53bc f384 65be bde6 60be 45ac a3bd
00000240: 102c 05bf 9d35 bebe b6ad 04bd 20ee 283e
00000250: ca56 0d3f 4767 9f3e 14cc ab3e 3c4c ee3d
00000260: 6d88 febd 45dc 363e 8636 a63c 8baa 83be
00000270: 1b85 31bd 370d edbe 0dfe 5abe 17ae 993e
00000280: 257d dd3d 5281 033f c4b6 913e e4a8 c6bd
00000290: 4074 0a3a 7adc 0ebb 0cb9 1a3e 9e14 773d
000002a0: 3b8d ca3d 8e29 a93e 99c8 0abe ac02 d2be
000002b0: 8248 ee3e add4 a1bd aa3d 0f3e f7bb 54be
000002c0: c627 45be da83 2abe 8fd7 b33e 2b9a 053f
000002d0: fc35 84bb c7fc 633e 1a53 3cbf e019 573f
000002e0: e602 bebe 438a 39bf 0742 7abf 373f 8b3e
000002f0: 2e5f ea3e bf8c 683e 5b54 793e a145 bdbe
00000300: 9507 b0be 0f6f 523e 89e9 66be 09fc 043b
00000310: 8a78 683f 6c8b c43e 8b7a aa3e e9f6 533e
00000320: d5eb 533f 1ec9 bc3d 1615 0dbe f1d4 eb3d
00000330: 1653 873e e394 61be c38b cabe ccc8 353e
00000340: 6d5e e83e b168 453f 023a d1be fdf4 30be
00000350: 23da 93be db1c 1b3e 6b9f 0dbf 5c61 b1be
00000360: 19ab 5ebe cf07 ae3d ec58 b8be 5b30 153e
00000370: 3501 063e 812b 93be 3d7a 7cbe 03bb 09bf

rnn.weight_hh_l0 f4 [32, 8]
-0.18959855 -0.044010617 0.16748019 0.4873128 0.12108159 -0.12878838 0.31492206 -0.54087985
-0.5298542 -0.5431166 0.14347191 0.025780277 -0.31910947 0.48182723 0.32511157 0.09498809
0.68894804 0.48655447 -0.6667931 -0.05974379 -0.0055250004 -0.75583917 -0.05762798 -0.26591566
0.086922444 0.18416554 0.055548415 0.34338725 -0.39335817 0.3067707 0.29097062 -0.23155096
1.2217369 1.8842344 0.7906365 -1.1967933 0.48726416 -1.3995671 1.6812526 -1.6596485
0.32753792 0.48650524 1.6237047 -0.7200494 0.13715187 -0.03781874 0.10641397 -0.7601661
-0.17581756 0.22323029 0.38335505 0.10500915 0.36415312 -0.009433748 0.17990614 0.08535017
0.25789198 0.6159342 -0.10513734 -0.28706497 0.13313673 -0.09521984 -0.22184606 0.0015720304
-0.38796914 -0.51560587 0.39265186 -0.0468138 -0.031884603 0.48862514 -0.026898546 -0.55593383
-0.4696734 0.08416919 0.0024726146 0.31296083 -0.12378848 0.09498924 0.083259135 -0.26325443
-0.19570014 0.16025233 -0.72200036 0.36285084 0.02928997 0.45859808 -0.23678134 0.2817524
-0.39528894 -0.044607084 0.22075383 0.112623565 -0.18074498 -0.052021485 -0.173211 0.054820526
0.016160637 0.4707846 0.6960653 -0.052967668 -0.106338374 0.055422295 0.81803477 -0.7955522
-0.63401806 -0.57137674 0.54826784 0.051519122 0.16116644 0.83249885 -0.34498063 -0.09119535
-0.12517959 0.4321989 -0.10640042 -0.29541874 0.49121165 -0.24203263 -0.18592884 0.31826267
0.03921657 0.2842488 0.08097304 -0.13596566 0.4404432 -0.036081675 -0.10120839 -0.19721231
0.30116937 0.5587966 -0.29941702 -0.5342479 -0.022642385 -0.14111425 0.07421437 0.16430914
0.27069098 0.04298648 0.11355425 -0.45083222 0.4330651 -0.06233436 0.050021455 0.20317666
0.07292052 -0.16007102 0.063723356 -0.14887574 0.06477101 0.14913751 -0.12362166 0.34593475
-0.55198354 -0.4977015 0.014531676 0.27900985 -0.25686547 0.12213396 -0.038902503 -0.018157056
0.18591163 -0.2334494 -0.1362391 0.3714204 0.063644834 -0.07815617 -0.53485185 0.5317513
-0.4449664 0.086657956 0.27978304 -0.153765 -0.14552811 0.07790071 0.35752982 0.14879777
-0.23965311 -0.2677682 0.14110868 -0.13514057 -0.008050026 0.03372359 -0.16571902 0.3542776
-0.038752504 0.10405371 -0.15211816 0.46070978 -0.256213 0.4155187 -0.09197936 -0.2980688
0.456709 0.16688609 0.8751407 0.05303158 0.52332217 -0.034689683 0.22687541 -0.029542957
-0.11455297 0.012139603 0.6313649 0.087769404 0.16952118 -0.2386098 0.1533051 -0.36235344
-0.30847898 0.15641336 -0.063319795 0.34769282 -0.18141241 -0.0954358 0.3054373 0.08412719
0.33379567 0.35778713 0.22429906 -0.01712521 0.45736513 -0.57348925 -0.24774906 0.06710248
0.22239925 0.07863511 0.7144405 -0.10873158 0.37923434 -0.30952945 -0.03410578 -0.23929732
0.014697031 0.63390255 0.54382664 -0.41313738 -0.13457182 -0.29874057 0.37829265 -0.5139738
0.14298381 0.26171425 0.035465166 -0.1742214 0.35166767 0.047886055 -0.13350308 -0.059573624
0.23319942 0.41671002 -0.045333996 -0.44228512 0.012133418 -0.2756769 -0.12146774 0.07877706
00000000: 1f26 42be 7a44 34bd ed7f 2b3e 1081 f93e
00000010: a0f9 f73d 1ae1 03be 773d a13e 1a77 0abf
00000020: 86a4 07bf b109 0bbf 4dea 123e 2931 d33c
00000030: 5162 a3be 0fb2 f63e 0675 a63e 1e89 c23d
00000040: e65e 303f ab1d f93e f4b2 2abf e8b5 74bd
00000050: 100b b5bb ad7e 41bf 510b 6cbd 1926 88be
00000060: 6504 b23d e495 3c3e bc86 633d 74d0 af3e
00000070: 3e66 c9be 0d11 9d3e 1afa 943e b21b 6dbe
00000080: e061 9c3f 982e f13f 2767 4a3f 8630 99bf
00000090: b07a f93e 0425 b3bf 4933 d73f 5d6f d4bf
000000a0: 0db3 a73e 3717 f93e 8ed5 cf3f 2855 38bf
000000b0: 8a71 0c3e d3e7 1abd 91ef d93d 3f9a 42bf
000000c0: 8509 34be 7b96 643e 1d47 c43e 0a0f d73d
000000d0: 4772 ba3e 0290 1abc 5139 383e 12cc ae3d
000000e0: 6b0a 843e ddad 1d3f 3f52 d7bd 2efa 92be
000000f0: ff54 083e 9f02 c3bd 9d2b 63be 960c ce3a
00000100: e4a3 c6be bffe 03bf aa09 c93e d4bf 3fbd
00000110: 6e99 02bd 132d fa3e 575a dcbc ae51 0ebf
00000120: 0879 f0be e560 ac3d 970b 223b 673c a03e
00000130: d184 fdbd b889 c23d c483 aa3d 49c9 86be
00000140: 9e65 48be 3019 243e 04d5 38bf 96c7 b93e
00000150: 85f1 ef3c 5ecd ea3e cf76 72be da41 903e
00000160: 5063 cabe ebb5 36bd 4b0d 623e 2fa7 e63d
00000170: 3615 39be 7b14 55bd 395e 31be 7d8b 603d
00000180: 5063 843c ae0a f13e 5631 323f a0f4 58bd
00000190: efc7 d9bd 7d02 633d ba6a 513f 4fa9 4bbf
000001a0: 024f 22bf bf45 12bf 485b 0c3f b705 533d
000001b0: d108 253e a51e 553f 4da1 b0be a1c4 babd
000001c0: 142f 00be 2d49 dd3e 77e8 d9bd 2041 97be
000001d0: 1880 fb3e 67d7 77be 2164 3ebe 53f3 a23e
000001e0: 8ea1 203d 0f89 913e 31d5 a53d 953a 0bbe
000001f0: c581 e13e 61ca 13bd 5846 cfbd 06f2 49be
00000200: df32 9a3e 4b0d 0f3f 304d 99be 78c4 08bf
00000210: 867c b9bc 4180 10be b4fd 973d a840 283e
00000220: 0298 8a3e 9712 303d 218f e83d 7bd3 e6be
00000230: b5ba dd3e 5052 7fbd 4ce3 4c3d 8b0d 503e
00000240: 5b57 953d a8e9 23be 6481 823d e272 18be
00000250: aaa6 843d 81b7 183e 5a2d fdbd 5c1e b13e
00000260: cb4e 0dbf bbd2 febe 4416 6e3c 61da 8e3e
00000270: df83 83be 5f21 fa3d 3b58 1fbd 1bbe 94bc
00000280: 9e5f 3e3e 5c0d 6fbe 4382 0bbe d12a be3e
00000290: 3958 823d 5810 a0bd 0dec 08bf da20 083f
000002a0: a3d2 e3be ba79 b13d b93f 8f3e 9274 1dbe
000002b0: 5205 15be 688a 9f3d 260e b73e 715e 183e
000002c0: a067 75be ea18 89be cb7e 103e 4a62 0abe
000002d0: 42e4 03bc bf21 0a3d 3fb2 29be e063 b53e
000002e0: f2ba 1ebd 1d1a d53d ddc4 1bbe 27e2 eb3e
000002f0: 5a2e 83be debe d43e ad5f bcbd 799c 98be
00000300: c3d5 e93e 30e4 2a3e 3909 603f a437 593d
00000310: 71f8 053f c516 0ebd 0752 683e 1204 f2bc
00000320: bf9a eabd 2fe5 463c 21a1 213f 72c0 b33d
00000330: f696 2d3e 2156 74be 03fc 1c3e 6486 b9be
00000340: f5f0 9dbe d32a 203e cfad 81bd cb04 b23e
00000350: 2dc4 39be d873 c3bd 4762 9c3e e04a ac3d
00000360: 44e7 aa3e e02f b73e a7ae 653e 2b4a 8cbc
00000370: c32b ea3e 31d0 12bf eeb1 7dbe 066d 893d
00000380: a1bc 633e 720b a13d 93e5 363f aaae debd
00000390: 012b c23e a57a 9ebe 81b2 0bbd 5b0a 75be
000003a0: d1cb 703c 7047 223f 3938 0b3f be86 d3be
000003b0: 32cd 09be 86f4 98be 93af c13e c993 03bf
000003c0: 596a 123e 69ff 853e ec43 113d 1867 32be
000003d0: c90d b43e 2b24 443d 08b5 08be 7903 74bd
000003e0: d4cb 6e3e 045b d53e 24b0 39bd 3273 e2be
000003f0: 3ecb 463c 8625 8dbe 14c4 f8bd de55 a13d

rnn.bias_ih_l0 f4 [32]
0.17427538 0.60463065 -0.4139696 0.35271493 -0.38749588 -0.1692824 -0.41230735 -0.23135455
0.3004818 0.31038526 0.20880963 0.17566289 -0.066773 0.5768914 0.16072856 0.1380156
-0.5216364 -0.27621925 0.032390296 0.16805072 -0.34096706 0.5212325 0.19513273 0.28550982
-0.22686109 0.62042093 0.011487985 -0.21522938 -0.07585245 0.15697534 -0.45970836 -0.04568436
00000000: 3f75 323e 13c9 1a3f d3f3 d3be 0d97 b43e
00000010: dc65 c6be 5e58 2dbe f319 d3be 35e8 6cbe
00000020: c0d8 993e d1ea 9e3e 31d2 553e f9e0 333e
00000030: 48c0 88bd 28af 133f 0796 243e f653 0d3e
00000040: f789 05bf 9c6c 8dbe b0ab 043d 7d15 2c3e
00000050: 3c93 aebe 7e6f 053f e0d0 473e 582e 923e
00000060: 464e 68be e8d3 1e3f 1a38 3c3c 1765 5cbe
00000070: 8858 9bbd 25be 203e e55e ebbe 861f 3bbd

rnn.bias_hh_l0 f4 [32]
0.2543482 0.37879735 -0.676168 0.28469718 -0.37140828 0.13365208 -0.50511074 -0.36829963
0.09756582 0.14198284 -0.12061071 0.24166743 -0.38631222 0.44607857 -0.36422014 -0.3874182
-0.14468764 -0.5131757 -0.35025415 0.48644096 -0.32406694 0.4423626 -0.30752504 0.17913958
0.18861371 0.5756292 -0.14353746 -0.2116823 0.15035254 0.2768857 -0.13001499 -0.24195956
00000000: ed39 823e baf1 c13e 5919 2dbf d4c3 913e
00000010: 3a29 bebe 17dc 083e f04e 01bf c591 bcbe
00000020: 97d0 c73d f363 113e bf02 f7bd ab77 773e
00000030: b7ca c5be 6964 e43e 107b babe ae5b c6be
00000040: ff28 14be 7c5f 03bf 8354 b3be ca0e f93e
00000050: 1aec a5be 5a7d e23e ec73 9dbe 5e70 373e
00000060: f423 413e 6f5c 133f 7cfb 12be 3fc3 58be
00000070: 04f6 193e f6c3 8d3e a622 05be 3fc4 77be

out.weight f4 [1, 8]
-0.103585646 -0.28241354 0.20516476 0.16684315 -0.3093313 0.47004816 0.0920008 0.15671541
00000000: b624 d4bd 8298 90be b616 523e eed8 2a3e
00000010: ac60 9ebe 27aa f03e ea6a bc3d 017a 203e
