ckpt/449.ckpt (torch_old, 3320 bytes, 5 tensors)

rnn.weight_ih_l0 f4 [32, 7]
00000000: 163c 093f 304e b93e 89e0 2a3f 2d9e e43e
00000010: 0a0d dd3e e930 903d 38b8 113f f6f7 033f
00000020: b80a 253f a7b5 5e3f 3405 463f 7174 f33e
00000030: 1f47 a73e ad5a a83e ae9f 3cbf 41ba fbbd
00000040: 69f2 7bbf 2f2f 8ebf fdad 15bf a25c 1c3f
00000050: 3dfa 183f b861 533f c0a7 363f 151e 7e3e
00000060: 3d90 893d 1b5d 223e bb54 fe3e 0f9e 913e
00000070: 4d8a c03f bbe9 483f f3d8 583c 371a 5cbf
00000080: 9e77 5a3f b4b0 f7be 1c66 653f 5cfa 6e3f
00000090: 9e36 0dbf 4377 043f 056f 633f b03d 493f
000000a0: 2722 5abf 2761 b9bf 54da fd3d 8ac1 ccbe
000000b0: af65 823d ca49 56be 35d0 e8be da5a e9be
000000c0: f02a dfbe be47 763d 2aa8 023e dabc c2be
000000d0: 86ac debe b87f 4c3e 3896 90bd ee4e c0bd
000000e0: 9181 a13e 5e3f 9d3d c9c7 4b3d b658 1b3e
000000f0: b25d 433e 0b14 db3e 770f ce3e 75c9 103f
00000100: 0601 153f 2a76 7bbd 3b8c 8d3e a52b ac3e
00000110: 980f ad3e baee ba3e c007 12bf e875 cc3e
00000120: 41ed 84be ae5b e8be fbfa 4fbe c1e5 a73e
00000130: 4007 b23f b773 9f3e 3bec 4a3e 31fb 8d3e
00000140: 5fd3 153e 9e08 823e 65de f83e f42a bd3e
00000150: f390 143f 9d06 fd3e 3910 8e3e 9e16 8fbd
00000160: d332 8e3e 289d 52bf 1334 653f e758 143f
00000170: 88c4 d83e 4f25 063f 51c2 753f 74d8 943e
00000180: a4d0 d4be 7788 4bbf c96f 5b3e 2a5a 093e
00000190: 3350 833e 3f22 81bc f4c0 51be ee44 b0be
000001a0: 77a1 e23d be36 f6be 784e 683d c181 b9be
000001b0: 3643 f6be 2383 063e 1b25 ecbe 668a 24be
000001c0: ee1c bbbe 4bc9 f1be 4542 c13b 8ae6 fbbe
000001d0: b92b d4be 0a98 423c d176 92be 8a8d a7bc
000001e0: 2444 febe d4cd 0bbe 1873 c3be 51ac c1be
000001f0: 1f01 1ebf f5a1 f7be ba07 d33d 70dd 803e
00000200: a439 11bd 4bdd 303e 58fb bc3e 8db5 bdbe
00000210: dc91 72bf 2606 e83d 17e3 a33e bebd e43e
00000220: f487 443d 51a1 f23d ef22 343e e412 99bd
00000230: 9e6b a8bc 14ff 72be 3b03 5cbe bd3a abbd
00000240: df79 06bf ac3b bfbe 7429 14bd b8f4 293e
00000250: 85c6 0d3f 15b8 9f3e 33c8 ac3e a501 f33d
00000260: 9d4a f9bd 7743 363e 3b51 a9ba 2fc5 82be
00000270: 4648 81bd 16ba f3be c57e 66be 2ef3 9e3e
00000280: 46dc ef3d 7bd7 033f b4d1 923e 301a c5bd
00000290: 807f d93a 2f79 75ba e213 1c3e 11a0 7d3d
000002a0: f112 683d f2b5 ae3e 10de 50be 95a9 dbbe
000002b0: 278a dc3e 3031 9abd a657 103e e704 78be
000002c0: 24b8 32be 008d 71be 1637 ac3e 97a4 fc3e
000002d0: d92f 31bb 32d2 633e fbff 3abf 3e26 533f
000002e0: d1ca b7be 564a 3ebf 2836 7ebf b840 913e
000002f0: a3a3 f73e 07b4 613e cdc6 833e 9222 cfbe
00000300: 582d b4be 0319 413e 8ba7 6bbe cf4a 4a3c
00000310: 2d60 783f 4268 d73e 12d3 a83e 64b5 733e
00000320: 21c7 5b3f bb78 c23d e2cd 13be 6111 513c
00000330: ce9d 963e e5ba c1be 1100 e7be 5ea4 b13d
00000340: 23ed f23e 9131 4e3f 66b6 c2be 5732 1bbe
00000350: dfc6 73be 048e 3b3e a128 05bf 02fa 9ebe
00000360: d22c 5dbe 41cf bf3d 307c b3be a102 183e
00000370: 4ff6 0b3e 3826 90be 7db1 77be 8109 09bf
0.5360731 0.36192465 0.66748863 0.4465193 0.4317401 0.07040579 0.5692172 0.51550233
0.6446948 0.8699593 0.7735169 0.47549775 0.3267145 0.3288168 -0.7368115 -0.122913845
-0.98416764 -1.1108149 -0.5846861 0.61078846 0.59756833 0.8257098 0.71349716 0.24816163
0.067169644 0.1585583 0.4967402 0.28440902 1.5042206 0.78481644 0.0132353185 -0.859775
0.8533877 -0.48377 0.8960893 0.9335077 -0.55161464 0.5174448 0.8884128 0.7860975
-0.8520836 -1.4482774 0.123951584 -0.3999141 0.06367051 -0.20926586 -0.4547135 -0.45577127
-0.43587446 0.060127012 0.12759462 -0.38034707 -0.43491 0.19970596 -0.07059902 -0.09390055
0.31544164 0.07678102 0.049751077 0.1517056 0.1907871 0.4278873 0.40246174 0.565574
0.58204687 -0.061391987 0.2764605 0.33627048 0.3380096 0.3651026 -0.57043076 0.39933705
-0.2596226 -0.45382446 -0.20310585 0.32792476 1.3908463 0.3114297 0.19816677 0.27730706
0.14631413 0.253972 0.48607174 0.36946833 0.58033675 0.49419108 0.27746752 -0.06986736
0.2777315 -0.8227105 0.89532584 0.57948154 0.4233744 0.5240068 0.9599963 0.2907139
-0.4156543 -0.79505104 0.21429361 0.13413301 0.25647125 -0.0157634 -0.20483762 -0.3442759
0.11065953 -0.4808864 0.05671546 -0.36231807 -0.48098153 0.13135962 -0.4612206 -0.1606842
-0.3654551 -0.47223887 0.0058977925 -0.49199325 -0.41439608 0.011877069 -0.28606275 -0.020453233
-0.49661362 -0.13652736 -0.38173747 -0.3782678 -0.6172046 -0.4836575 0.10304208 0.25168943
-0.03545536 0.17271917 0.3691051 -0.37052575 -0.94753814 0.11329298 0.32009193 0.44676012
0.047981218 0.11847175 0.17591451 -0.07474306 -0.020559128 -0.23730117 -0.21485607 -0.08360813
-0.5252971 -0.37350214 -0.036172345 0.16597259 0.5538104 0.3119513 0.3374649 0.11865548
-0.121724345 0.17799173 -0.0012917885 -0.25541064 -0.06312613 -0.4760291 -0.22509296 0.31044906
0.11711936 0.5150067 0.28675616 -0.096241355 0.0016593784 -0.0009364066 0.1524196 0.06192023
0.05665869 0.34123188 -0.2039721 -0.42902818 0.43074152 -0.07528913 0.14095935 -0.2422062
-0.17453057 -0.23588943 0.33635777 0.49344322 -0.0027036576 0.22248152 -0.73046845 0.8248023
-0.35896924 -0.7433218 -0.99301386 0.2836969 0.48367032 0.22041331 0.2573761 -0.40456063
-0.35190845 0.18857197 -0.23013131 0.012346937 0.9702175 0.4207173 0.32973534 0.23799664
0.8585072 0.09495684 -0.14434007 0.012760491 0.2941727 -0.37837902 -0.45117238 0.08673929
0.47446546 0.8054438 -0.38029784 -0.15155922 -0.23806332 0.18315893 -0.5201512 -0.31050116
-0.21599129 0.093657024 -0.35055685 0.14844753 0.13668178 -0.2815416 -0.241888 -0.53530127

rnn.weight_hh_l0 f4 [32, 8]
00000000: 4ed5 41be f490 32bd 12d6 2b3e 105b f93e
00000010: 32da f73d a141 04be ea58 a13e 7398 0abf
00000020: 338e 07bf 30f5 0abf cbfb 123e 5b80 d03c
00000030: e65e a3be d07d f63e d179 a63e be54 c23d
00000040: 73a5 333f 0ab2 ff3e b814 32bf 3288 84bd
00000050: 1a95 2dbc b9b3 48bf 784d 5fbd 27a6 8abe
00000060: a37a b23d 3fef 3c3e 2885 633d eab2 af3e
00000070: ca72 c9be e3f8 9c3e db0e 953e a24d 6dbe
00000080: 2af6 a03f a84a f73f 3a9d 483f e639 9dbf
00000090: 41c2 dc3e 5e8e b5bf c1b5 de3f e3af dcbf
000000a0: 9b08 a73e ea25 f83e fa5f d03f a458 39bf
000000b0: 026f 283e 6b64 a3bc b202 033e bb3d 44bf
000000c0: 8a38 80be c2bb 1d3e 7211 c83e 724c 2c3e
000000d0: a044 bd3e afb5 9c3d 326c 333e a2ff c43d
000000e0: e04e 7c3e ed1a 1c3f ae26 d7bd 500f 8dbe
000000f0: 71c2 f53d 9b2d 99bd cd53 62be e2a2 413b
00000100: e289 c6be 81e9 03bf 6046 c93e c97c 40bd
00000110: 2ebe 03bd df15 fa3e 5420 dbbc a763 0ebf
00000120: e059 f0be 1a3c ad3d 0023 333b da1a a03e
00000130: 257b ffbd 3186 c23d 85ab aa3d 43d5 86be
00000140: 6b9a 46be eaf9 233e aecc 3fbf e9fc bc3e
00000150: 04f7 a43c bfba df3e 4bc8 72be e523 913e
00000160: 1c5a cabe d6a3 35bd d19a 613e 9761 e63d
00000170: d837 39be fef1 53bd 00eb 30be 2df3 5f3d
00000180: 36d8 b13b d3d7 ea3e 527b 313f 6083 49bd
00000190: 53d1 2ebe a0dd bd3d 3679 553f 02b8 4cbf
000001a0: d934 1abf fdf4 08bf 34ef 113f e301 cb3c
000001b0: 6f25 2e3e f9da 473f ae3d b3be 056f fbbd
000001c0: 080f 52be b4fc c23e 404b d4bd b6f0 6ebe
000001d0: fe25 f83e 3b45 20be 147a 41be 0eff a53e
000001e0: f46e fc3c c16f 8f3e 015d a53d 5777 03be
000001f0: c8a6 dd3e 7a69 bebc 0d9a cebd be67 49be
00000200: 8d27 9a3e 7607 0f3f 3c52 99be 33bf 08bf
00000210: c2d0 b9bc cf62 10be 60f2 973d d253 283e
00000220: b986 8a3e ee90 2f3d 5687 e83d c2c1 e6be
00000230: 02c2 dd3e 33c0 7ebd 07d8 4c3d 5e13 503e
00000240: 612a 7a3d 8539 30be 9ff1 8b3d 229c 0fbe
00000250: dd9d 833d 5b0b 2f3e db7a fbbd c5bc b43e
00000260: 634a 0dbf bdcb febe 7318 6e3c d9d0 8e3e
00000270: 4584 83be 5007 fa3d 4a51 1fbd 24d0 94bc
00000280: 9fd2 373e 552f 78be 3cb6 08be a324 c13e
00000290: 6c78 8c3d 178c 96bd 2ed2 0abf b1e3 093f
000002a0: 7601 e4be d0c9 b03d e9f0 8f3e 2dad 1dbe
000002b0: 60c5 13be 75b0 a33d bb37 b73e 701d 183e
000002c0: 03dd 6ebe d4a8 84be 2211 0e3e 6831 15be
000002d0: 9c38 04bc a055 453d 9f0f 24be 4875 b43e
000002e0: 6a52 26bd 4b14 d33d 26d0 1bbe 20ac ec3e
000002f0: f8b9 83be 85e8 d63e cec0 bbbd b084 98be
00000300: cc5e eb3e 5d02 333e 674c 613f 291f 533d
00000310: 80f6 053f 746e f5bc 8e59 8b3e 1942 f6bc
00000320: dfe9 e9bd 659e 923c 8096 233f 6f25 b53d
00000330: 71d5 283e a1a6 68be 2875 333e ebbc b7be
00000340: 843a 9dbe fcf0 1d3e 74ca bebd c94b b33e
00000350: 41c6 3fbe d880 dcbd b84f 9f3e ebfc ae3d
00000360: d563 ab3e 8c5f b93e 378b 5d3e f258 85bc
00000370: 7ebb e83e 520c 12bf 2fa3 64be 71e9 8e3d
00000380: 34b8 623e 9aa8 a23d c395 363f 919c dbbd
00000390: e3f0 ba3e 21c1 9bbe 35f7 b6bc 9179 6ebe
000003a0: 8b1c 963c 31e2 253f 01b9 063f e812 d4be
000003b0: 5070 11be 4ca8 8ebe f579 fa3e a254 04bf
000003c0: 4c5d 893d cc44 3f3e dc56 2e3d 6c40 e4bd
000003d0: 8c89 b63e 543a 0e3e c139 0dbe 6732 46bd
000003e0: 7a0c 613e 5889 d13e 9fae 38bd 5ab5 dbbe
000003f0: ea35 0aba b896 81be a06c f7bd d696 a43d
-0.18929026 -0.04359527 0.1678088 0.48702288 0.12102164 -0.1291566 0.3151315 -0.5413887
-0.52951354 -0.54280376 0.14353864 0.02545183 -0.3190834 0.48142862 0.32514814 0.094888195
0.7017433 0.4994052 -0.69562864 -0.0647129 -0.010594631 -0.78399235 -0.05451724 -0.2707989
0.08714797 0.1845064 0.05554691 0.34316188 -0.3934539 0.30658635 0.29112896 -0.23174146
1.2575123 1.9319658 0.7836491 -1.2283294 0.43116954 -1.4184072 1.7399217 -1.7241176
0.32623753 0.48466426 1.627929 -0.7240088 0.16448596 -0.019945344 0.12793997 -0.76656693
-0.25043136 0.15403655 0.3907581 0.16826037 0.3696642 0.07651841 0.17521742 0.096190706
0.24639463 0.60978585 -0.105054244 -0.27550745 0.119999774 -0.07479402 -0.2210228 0.0029546549
-0.3877707 -0.51528174 0.39311504 -0.046994004 -0.03216379 0.4884481 -0.026748814 -0.5562081
-0.4694357 0.08458729 0.0027334094 0.31270486 -0.1247466 0.09498251 0.08333496 -0.2633458
-0.19394843 0.16013303 -0.7492169 0.36911705 0.020137317 0.43697163 -0.23709218 0.28347698
-0.39521873 -0.0443457 0.22031714 0.112490825 -0.18087709 -0.051744454 -0.17277145 0.05467527
0.0054273857 0.45867786 0.69328797 -0.049197555 -0.17072038 0.09270787 0.8338808 -0.79968274
-0.6023689 -0.5349882 0.5700562 0.024781173 0.17006467 0.780685 -0.35007995 -0.12277035
-0.20513546 0.38083422 -0.10365915 -0.23334011 0.48466486 -0.1565141 -0.18894225 0.32421154
0.030814625 0.2801495 0.0807438 -0.12838493 0.43291306 -0.023243655 -0.100879766 -0.19668481
0.301083 0.5587076 -0.29945552 -0.53416747 -0.022682551 -0.14100192 0.07419276 0.16438225
0.2705591 0.042862825 0.11353938 -0.450697 0.4331208 -0.062195014 0.050010707 0.20319888
0.061075572 -0.17209442 0.06833195 -0.14024404 0.064265944 0.17094176 -0.12279292 0.3530027
-0.5519163 -0.49764815 0.014532196 0.27893713 -0.2568685 0.12208426 -0.038895883 -0.018165655
0.1795144 -0.24236806 -0.13350767 0.37723264 0.06858906 -0.07350939 -0.5422696 0.53863055
-0.44532365 0.08632243 0.28113487 -0.15398093 -0.14430761 0.07992641 0.35784706 0.1485498
-0.23326497 -0.25910056 0.13873723 -0.14569628 -0.008070137 0.04817736 -0.16021584 0.35245728
-0.04060594 0.10306605 -0.15216121 0.4622507 -0.2572782 0.41974273 -0.09167634 -0.29788733
0.45970762 0.1748137 0.88007206 0.05154339 0.52329254 -0.029959895 0.27216762 -0.030060815
-0.114215605 0.017897794 0.6390152 0.088450305 0.16487671 -0.22719814 0.1752516 -0.3588632
-0.30708706 0.1542396 -0.093159586 0.35018757 -0.18727972 -0.107667625 0.31115508 0.08544334
0.33474603 0.3620571 0.21635137 -0.016277764 0.45455545 -0.5705005 -0.22327875 0.06978119
0.2214058 0.079423144 0.7132227 -0.10723222 0.36511907 -0.30420783 -0.022334674 -0.23288561
0.018324157 0.64798266 0.52626044 -0.41420674 -0.14203 -0.27862775 0.4892117 -0.5169164
0.06707248 0.18678588 0.042563304 -0.111451 0.35651815 0.13889438 -0.13791563 -0.04838791
0.21977416 0.40925097 -0.045088407 -0.42911798 -0.0005272316 -0.25310302 -0.120812654 0.08036582

rnn.bias_ih_l0 f4 [32]
00000000: 03a2 343e fba3 1b3f 6b78 d8be d257 b63e
00000010: 819f ccbe 5690 25be 2284 c1be 4f10 64be
00000020: 67b0 993e 8ac2 9e3e 33b9 573e 2aa8 333e
00000030: 89d9 58bd 8851 0a3f fcdb 3d3e 065b 0f3e
00000040: 42bd 05bf 6318 8ebe 23e6 323d b521 2d3e
00000050: 4683 afbe f0a6 053f bf6d 443e 1d26 933e
00000060: ec58 67be c513 203f 16ad 733c d2f2 55be
00000070: 1a2f 71bd 1c97 263e 8321 d8be 97ef 17bd
0.17639928 0.6079709 -0.42279372 0.35613877 -0.39965442 -0.16168341 -0.37796122 -0.22271846
0.30017397 0.31007797 0.21066742 0.17544618 -0.052941833 0.54030657 0.18540949 0.13999566
-0.5224191 -0.2775298 0.043676507 0.1690739 -0.3427984 0.5220785 0.1918249 0.28740016
-0.22592515 0.62530166 0.01487281 -0.2089341 -0.05888281 0.16268581 -0.42213067 -0.037093725

rnn.bias_hh_l0 f4 [32]
00000000: 4e50 833e 82a7 c33e a15b 2fbf 9984 933e
00000010: df62 c4be 1fa4 103e 0e08 f1be d325 b8be
00000020: 3f2f c73d 6313 113e b434 f3bd dc3e 773e
00000030: d4b5 bebe 2ba9 d13e 16d8 adbe 2058 c5be
00000040: 3df6 14be 61b5 03bf 358d adbe e994 f93e
00000050: 24dc a6be 3bec e23e 7f25 9fbe e65f 393e
00000060: 4e19 423e 4c9c 143f 2d84 0fbe fa50 52be
00000070: 8056 2b3e 6db0 903e ce4f bdbd 44f8 6ebe
0.25647205 0.38213736 -0.6849919 0.288121 -0.38356683 0.14125107 -0.47076458 -0.35966358
0.09725808 0.14167552 -0.11875287 0.24145073 -0.372481 0.40949377 -0.33953923 -0.38543797
-0.14547057 -0.5144864 -0.33896795 0.48746422 -0.3258983 0.44320855 -0.31083295 0.18102989
0.18954965 0.5805099 -0.14015265 -0.20538703 0.16732216 0.28259602 -0.09243737 -0.23336893

out.weight f4 [1, 8]
00000000: ace1 d7bd 0208 8fbe 4ce7 503e 0bae 2f3e
00000010: 8df1 a6be f79c f83e e448 d03d 7bbb 253e
-0.1054109 -0.27935797 0.20400733 0.17156236 -0.32606164 0.48557255 0.10170153 0.161848
