ckpt/459.ckpt (torch_old, 3320 bytes, 5 tensors)

rnn.weight_ih_l0 f4 [32, 7]
00000000: 70d3 093f 7fe5 b93e d044 2b3f e643 e53e
00000010: 3cfa dd3e a5cd 903d b0b8 113f 5c9d 043f
00000020: 026e 253f 9732 5f3f b175 463f af69 f43e
00000030: 45ab a73e 2d8b a83e eb21 3cbf 4d56 04be
00000040: d034 7cbf 64ad 8fbf 9527 1abf 789a 193f
00000050: 47b7 1b3f b71b 543f a527 373f f330 803e
00000060: fda2 8d3d 01a6 243e 05e9 fe3e 90d1 913e
00000070: e865 c13f 94b5 4e3f 66d9 b7bc 6216 5cbf
00000080: 08c0 573f e4aa febe 71fd 683f f48d 6c3f
00000090: 2208 0bbf 0823 fe3e d7ce 653f 275a 503f
000000a0: 0074 50bf abbd babf d779 153e 90cf c7be
000000b0: d434 ce3d 4485 42be 224e ddbe 2827 e0be
000000c0: dd6b e2be a3f9 883d 9697 083e 7f2f c1be
000000d0: f688 dcbe 1cf7 513e 4b93 8fbd cd08 bfbd
000000e0: 1696 a13e 3905 9d3d 939b 4b3d 4334 1b3e
000000f0: 678b 433e 1ce8 da3e 97ec cd3e 9bde 103f
00000100: c2fa 143f 966a 7bbd c679 8d3e 3458 ac3e
00000110: 73d2 ac3e bfc0 ba3e 88cf 10bf e602 cb3e
00000120: 3d11 81be 341e eebe e354 62be 3c23 a03e
00000130: ef0a b43f d84a 9f3e dfde 4a3e 59e0 8d3e
00000140: 9e71 153e 1d10 823e 41ce f83e 7e22 bd3e
00000150: 15ad 1d3f 3d70 043f 8304 853e 0e99 51bd
00000160: 8578 8c3e 1d09 57bf e582 673f 9afc 0f3f
00000170: 3867 d53e a49d 013f 1e3f 753f c0e4 973e
00000180: b8ab d0be 6d61 4ebf b3e9 773e 9416 193e
00000190: c02c 933e fff7 d43b 5416 3abe 5c34 a8be
000001a0: 1727 e13d 69f2 f5be cabf 6c3d 9d7f b9be
000001b0: 4817 f6be ec25 073e ed2b ecbe cded 23be
000001c0: 6472 bbbe 9ef6 f1be 5840 b23b bf1b fcbe
000001d0: 526b d4be 7558 403c ed7f 92be 5478 aebc
000001e0: 0d93 febe 097d 0cbe 99c3 c3be 5f03 c2be
000001f0: 7a1b 1ebf e2b2 f7be 1acf d63d 7e96 843e
00000200: b895 fcbc 876d 383e 336a c23e 5e5a bbbe
00000210: be1c 72bf d483 e93d b228 a43e ec0b e53e
00000220: 0bca 463d 82c6 f33d f984 343e 92c0 98bd
00000230: 56f5 dabc 5a65 7abe 5fd4 59be f8cc b2bd
00000240: 1c99 07bf 436d bfbe a3c8 15bd 2e1a 2a3e
00000250: 86dd 0d3f fe9d 9f3e f7fe ac3e 2ba8 f53d
00000260: c273 f6bd dafa 353e 4727 88bc 68f2 81be
00000270: 4f4d a0bd db76 f8be 0283 6dbe f6d7 a03e
00000280: 965c fb3d 0214 043f c85d 933e bf07 c4bd
00000290: 7198 163b 5dc8 1fb8 5348 1c3e e5fa 7f3d
000002a0: 3838 533d c569 b33e a51c 68be 21c5 dbbe
000002b0: 35e2 dc3e bd5d 97bd 6bf3 0f3e a73b 79be
000002c0: 3fc8 28be 247c 85be a043 ac3e b2f1 fd3e
000002d0: e653 9dbb 5e43 603e a852 3abf 691f 523f
000002e0: 5554 b5be 5e7b 40bf 6c83 80bf 37d5 913e
000002f0: 67ee fd3e b3f2 693e d79b 883e 8622 d4be
00000300: e6ae b2be 8d93 433e da5d 72be 0d26 7d3c
00000310: e571 7f3f d1ab de3e 1540 a33e 7910 813e
00000320: 5a18 5f3f f5a6 c23d e51b 21be f63d 37bc
00000330: 8761 a23e 9851 e1be afbd ebbe f790 903d
00000340: 1fbf f53e def9 503f 6398 b9be 6fb6 0ebe
00000350: 5fda 4abe 01f9 4f3e 0219 febe 8f0a 93be
00000360: 4c24 5ebe be9c cc3d abc2 b0be 60ca 1a3e
00000370: a6f9 0f3e a6ab 8dbe 3044 77be 13e1 08bf
0.53838253 0.36307904 0.66901875 0.44778365 0.43354976 0.070704736 0.56922436 0.5180261
0.64620984 0.8718657 0.7752333 0.4773688 0.32747856 0.32918683 -0.73489255 -0.12923546
-0.98518085 -1.122479 -0.6021665 0.60001326 0.60826534 0.8285479 0.7154487 0.25037345
0.06915853 0.1607895 0.49787155 0.28480196 1.5109224 0.80745816 -0.02244253 -0.85971653
0.8427739 -0.49739754 0.9101172 0.92404103 -0.54309285 0.49636102 0.8976874 0.8138756
-0.81427 -1.4589132 0.1459726 -0.39025545 0.1006867 -0.1899615 -0.43223673 -0.43779874
-0.44222918 0.066882394 0.13339075 -0.3773155 -0.43073243 0.20504421 -0.07010516 -0.093278505
0.3155982 0.07667012 0.049708914 0.15156655 0.19096147 0.4275521 0.40219566 0.5658967
0.58195126 -0.061380945 0.27631968 0.33661044 0.3375431 0.3647518 -0.5656667 0.3965065
-0.25208464 -0.46507418 -0.22102694 0.31276882 1.4065837 0.3111179 0.19811581 0.27710226
0.14594123 0.25402918 0.4859486 0.36940378 0.6159223 0.5173376 0.25980005 -0.051171355
0.274357 -0.8399828 0.90434104 0.56244814 0.41680312 0.50631166 0.95799434 0.2966671
-0.4075601 -0.8061741 0.24210243 0.14950019 0.2874508 0.00649929 -0.1817258 -0.32852447
0.10993784 -0.48036507 0.05780009 -0.36230174 -0.48064637 0.1319806 -0.46127263 -0.16008683
-0.3661071 -0.47258466 0.0054397993 -0.4923992 -0.4148813 0.01173984 -0.28613225 -0.021297611
-0.49721566 -0.13719572 -0.38235167 -0.37893197 -0.61760676 -0.48378664 0.1048872 0.25896066
-0.03083311 0.18010531 0.3797165 -0.36592382 -0.9457511 0.11402097 0.32062298 0.44735658
0.048532527 0.11903097 0.1762885 -0.07458605 -0.026728313 -0.24452725 -0.2127242 -0.08730501
-0.52968 -0.37388048 -0.036568295 0.1661155 0.5541614 0.31175226 0.33788273 0.11994966
-0.12033798 0.17771474 -0.016620291 -0.25380254 -0.078272454 -0.4852818 -0.23194507 0.31414765
0.12273519 0.5159303 0.28782487 -0.0957179 0.0022979046 -3.8095157e-05 0.15261964 0.06249513
0.051567286 0.35041633 -0.22667177 -0.42923835 0.43141332 -0.07390926 0.140577 -0.24339162
-0.16482638 -0.26071274 0.33645344 0.4959846 -0.0048012612 0.21900699 -0.72782373 0.8207918
-0.35415903 -0.75188243 -1.0040107 0.28482983 0.4959595 0.22846489 0.26681396 -0.4143259
-0.34899062 0.19099255 -0.23668614 0.015450967 0.99783164 0.4349046 0.31884828 0.2520788
0.8714653 0.09504501 -0.15733297 -0.011184206 0.31715032 -0.44007564 -0.46043155 0.070589
0.47997376 0.8163127 -0.36249074 -0.1393678 -0.19809864 0.20309831 -0.49628454 -0.28718993
-0.21693534 0.09990834 -0.3452352 0.15116262 0.14060077 -0.2767002 -0.24147105 -0.53468436

rnn.weight_hh_l0 f4 [32, 8]
00000000: 7a8a 41be ba13 31bd 6b15 2c3e 8f37 f93e
00000010: 84f0 f73d fca3 04be 7e76 a13e c3b8 0abf
00000020: 607a 07bf cce3 0abf 9108 133e 751c ce3c
00000030: 4552 a3be 184a f63e 937e a63e d724 c23d
00000040: 60a5 343f cec3 003f fb8d 35bf bd40 83bd
00000050: a109 69bc 690a 4cbf 5ab5 5ebd 8cb3 8abe
00000060: fee0 b23d 2e36 3d3e 27be 633d 909a af3e
00000070: 8279 c9be efd9 9c3e bb1d 953e 6175 6dbe
00000080: c84a a33f 5c71 fa3f a95d 483f 062a 9fbf
00000090: 958a d43e 5eda b6bf 4258 e43f 4187 e0bf
000000a0: b64c a73e 754b f83e 04c8 cf3f 0085 3abf
000000b0: 3f11 3c3e 2188 75bc 0bba 193e 09fc 46bf
000000c0: 0d54 97be dd9d e33d 2641 cb3e b7b4 553e
000000d0: 61df c13e 5243 f43d a109 2c3e 99cb d43d
000000e0: 7c7f 773e e090 1b3f f1f8 d4bd 63a0 8abe
000000f0: 2679 e43d 8e58 88bd fb0c 62be 2a24 6d3b
00000100: 2769 c6be a2d2 03bf 7578 c93e 076a 41bd
00000110: 2a35 04bd d9ec f93e 59c2 d9bc 367c 0ebf
00000120: ee15 f0be c877 ae3d 2c9a 413b 17da 9f3e
00000130: 5529 00be b228 c13d 68d0 aa3d 5bed 86be
00000140: 7827 45be 8797 243e bb44 43bf a6e9 be3e
00000150: d36d 713c add4 d83e 2b1b 76be 4be2 913e
00000160: 0038 cabe 7df2 33bd 7393 613e cbda e53d
00000170: 694e 39be a3f3 54bd 179b 30be ec1d 5f3d
00000180: 908c 43ba e18e e63e 9a98 313f 0f71 39bd
00000190: c76c 51be 5fd5 e63d 20bb 563f e81d 4bbf
000001a0: e0bf 16bf 3b1c 05bf a635 113f 634e 4e3c
000001b0: 27cf 333e eca6 413f 689d b1be ac89 0fbe
000001c0: af65 8abe 88fd ac3e 0036 cfbd 4a7c 38be
000001d0: de4a f63e 7b70 c1bd 7ceb 46be 69d5 a83e
000001e0: a8ef e13c c7b5 8e3e 49ea a53d 1684 00be
000001f0: fc2a db3e 0a4c 94bc 3c4f cebd 592d 49be
00000200: 301e 9a3e b502 0f3f e355 99be cfba 08bf
00000210: 9523 babc 4049 10be fbe6 973d 4d64 283e
00000220: 0d77 8a3e 8e22 2f3d 7781 e83d 93b1 e6be
00000230: 40c0 dd3e 102a 7ebd 7acc 4c3d ed18 503e
00000240: 6c48 673d fcfe 34be f145 913d 1d72 0cbe
00000250: 694d 843d bb57 383e bf53 fabd a0fd b53e
00000260: a546 0dbf 32c6 febe 4122 6e3c 26c9 8e3e
00000270: 5484 83be 0de9 f93d 4d4c 1fbd 12de 94bc
00000280: 0f23 353e 3e1d 7cbe e18a 09be b070 c23e
00000290: fac0 903d c932 94bd 4f18 0cbf 3eb9 0a3f
000002a0: 4ed7 e3be 316a b13d edf4 8f3e 9059 1ebe
000002b0: e0c3 12be d3d0 a33d 5869 b73e 1ca8 173e
000002c0: 41a0 66be 3e60 7fbe a3b5 0d3e 010e 22be
000002d0: 4bfd 2dbc 2112 683d 13ca 1dbe d85e b33e
000002e0: 2ad7 27bd 49fa d23d 668f 1bbe dfcb ec3e
000002f0: 4017 84be df8e d73e 9169 bbbd 5381 98be
00000300: 5cc7 eb3e 5565 363e 8236 623f 2896 4f3d
00000310: fbd1 053f 890b dfbc cfc4 983e 5871 02bd
00000320: c9d6 e6bd 7a71 ba3c 262c 253f bd09 b23d
00000330: 7a89 263e 0a28 65be a8a5 3f3e 8f22 b8be
00000340: d0af 9dbe f071 1b3e 5ad4 ddbd 6c10 b53e
00000350: 4b07 44be 4dd1 e9bd 20e0 a03e 96b1 b33d
00000360: a082 ab3e 1f68 ba3e 9906 5e3e 59f5 81bc
00000370: c8bb e73e 89b7 11bf 174e 59be 2182 913d
00000380: 25dd 623e b594 a53d 70ec 363f ea4f dabd
00000390: d502 b93e 3f53 9bbe d7f0 8cbc 8bb5 69be
000003a0: 6c36 993c 3f6e 273f 8e8b 053f 944b d4be
000003b0: 7dac 14be e066 89be 2e72 0e3f 882f 05bf
000003c0: aa84 a43c 0b8a 0e3e d0bc 463d cc24 92bd
000003d0: 7337 ba3e 67a1 403e f815 14be 74b5 26bd
000003e0: ea60 5b3e ef28 d03e e3d8 33bd c7e7 d8be
000003f0: c545 0cbc 1ac2 79be 651b f7bd 8125 a63d
-0.18900481 -0.043231703 0.16805045 0.486752 0.121064216 -0.1295318 0.31535715 -0.54188174
-0.52921104 -0.5425384 0.14358737 0.025160054 -0.31898704 0.48103404 0.32518443 0.09479683
0.7056484 0.50298774 -0.7091977 -0.06408832 -0.014223487 -0.79703385 -0.05437217 -0.27090108
0.0873432 0.18477699 0.055601265 0.3429761 -0.39350516 0.3063502 0.29124245 -0.23189308
1.2757196 1.9565845 0.78267914 -1.24347 0.4151198 -1.428539 1.7839434 -1.7541276
0.32675713 0.4849507 1.6232915 -0.7285919 0.18365954 -0.014986069 0.15012376 -0.77728325
-0.29556313 0.111140944 0.39698142 0.20869718 0.37865737 0.11926903 0.16800548 0.10390396
0.24169725 0.60767937 -0.10399044 -0.2707549 0.1115592 -0.066575155 -0.22075264 0.0036184886
-0.387521 -0.51493275 0.39349714 -0.047220256 -0.032277264 0.48813513 -0.02658193 -0.5565828
-0.4689173 0.0851894 0.0029541356 0.31221077 -0.12515767 0.0943159 0.083405316 -0.26352963
-0.19253337 0.16073428 -0.7627675 0.37287635 0.014735657 0.4234976 -0.24033801 0.2849296
-0.3949585 -0.043932427 0.22028904 0.11223372 -0.18096317 -0.051990163 -0.17246662 0.054471895
-0.0007459605 0.45030883 0.69373477 -0.045273837 -0.20451652 0.11271166 0.8387928 -0.7934251
-0.5888653 -0.519962 0.56722486 0.012591931 0.17559491 0.7564533 -0.34690404 -0.14017361
-0.27030703 0.3378718 -0.101177216 -0.18016163 0.48103994 -0.09445282 -0.19425768 0.3297532
0.027580097 0.2787306 0.08101327 -0.12550387 0.42806232 -0.018102665 -0.100737065 -0.19646205
0.30101156 0.55863506 -0.2994834 -0.5341005 -0.022722045 -0.14090443 0.07417103 0.16444512
0.27043954 0.042757563 0.113528185 -0.45057353 0.43310738 -0.062051833 0.04999969 0.20322008
0.05646555 -0.17675394 0.070934184 -0.13715406 0.06460077 0.18002217 -0.122230045 0.35545063
-0.5518592 -0.49760586 0.014534534 0.2788784 -0.25686896 0.12202654 -0.038891125 -0.018172298
0.17689155 -0.2462053 -0.13431884 0.379766 0.07068057 -0.07236249 -0.5472459 0.5418891
-0.44500202 0.086628325 0.2811655 -0.15463853 -0.14332533 0.079988144 0.35822558 0.14810222
-0.2252207 -0.24939057 0.1383882 -0.15825655 -0.010619472 0.056657914 -0.15409116 0.35033298
-0.04097668 0.10301644 -0.15191421 0.4624929 -0.25798988 0.4210119 -0.091509946 -0.29786167
0.46050537 0.17812093 0.8836442 0.05068031 0.5227353 -0.02722718 0.29837653 -0.031846374
-0.11271436 0.022759188 0.6452049 0.08693264 0.1626338 -0.22378555 0.18715537 -0.35963866
-0.30798197 0.15180182 -0.108315185 0.3536409 -0.19143407 -0.11416874 0.31420994 0.08774106
0.33498096 0.36407563 0.21682204 -0.015864061 0.45260453 -0.5692068 -0.21221195 0.07104898
0.22154672 0.08085004 0.71454525 -0.10659774 0.36134973 -0.3033695 -0.017204685 -0.2282316
0.018702708 0.654026 0.5216607 -0.41463912 -0.14518924 -0.268363 0.55642974 -0.5202565
0.02008279 0.13919847 0.04851991 -0.07135925 0.3637043 0.1881157 -0.14461505 -0.04070039
0.21423689 0.4065623 -0.04390801 -0.42364332 -0.008561556 -0.2439045 -0.12065772 0.08112622

rnn.bias_ih_l0 f4 [32]
00000000: 9f51 353e 12f7 1b3f 1d34 d9be fe2a b73e
00000010: a8ac cfbe 8f9d 28be 06c1 b6be 5af6 5fbe
00000020: ec83 993e 2587 9e3e 6e34 583e fe49 333e
00000030: 47ea 2fbd 6f56 063f de30 533e 7810 103e
00000040: 12ce 05bf 805d 8ebe 207e 433d a4a4 2d3e
00000050: b81b b0be 638d 053f 42b6 3f3e 3e86 933e
00000060: facc 66be f112 203f 051a 953c cdb6 52be
00000070: 0a9e 56bd 53f9 293e e634 ccbe 79f7 07bd
0.17706917 0.60923874 -0.42422572 0.35774988 -0.40561414 -0.16466354 -0.3569414 -0.2187132
0.2998346 0.30962482 0.2111375 0.17508695 -0.042948034 0.5247564 0.2062411 0.14068782
-0.52267563 -0.2780571 0.047727704 0.16957337 -0.34396148 0.52168864 0.1872187 0.28813356
-0.2253913 0.625289 0.018200884 -0.20577545 -0.05239681 0.16599016 -0.39884108 -0.033194993

rnn.bias_hh_l0 f4 [32]
00000000: 1ba8 833e af4d c43e 79b9 2fbf c557 943e
00000010: 0670 c7be e696 0d3e f244 e6be d818 b6be
00000020: 547d c63d 969c 103e 3a3e f2bd b0e0 763e
00000030: ec97 b9be f7b2 c93e a22d a3be 68fd c4be
00000040: 7f39 15be f0d7 03bf 357a abbe 5ed6 f93e
00000050: 9674 a7be 24b9 e23e 3e81 a1be 2520 3a3e
00000060: 40a5 423e 789b 143f b91b 0cbe f514 4fbe
00000070: c6fa 313e 8a61 923e 5d9d 8dbd 3bfa 6abe
0.25714192 0.38340518 -0.68642384 0.28973213 -0.38952655 0.13827094 -0.44974476 -0.3556583
0.09691873 0.14122233 -0.11828275 0.24109149 -0.3624872 0.39394352 -0.31870753 -0.38474584
-0.14572714 -0.5150137 -0.33491674 0.48796362 -0.32706136 0.44281876 -0.31543916 0.18176325
0.1900835 0.58049726 -0.1368245 -0.20222838 0.17380819 0.2859004 -0.0691478 -0.22947018

out.weight f4 [1, 8]
00000000: 7e23 dabd ee2d 8ebe 1736 543e ac9a 313e
00000010: 7a15 abbe 5c2c fc3e 5263 da3d acf0 273e
-0.10651301 -0.27769417 0.20723759 0.17344159 -0.33414823 0.49252594 0.10663475 0.16400403
