ckpt/469.ckpt (torch_old, 3320 bytes, 5 tensors)

rnn.weight_ih_l0 f4 [32, 7]
00000000: 2663 0a3f 0f69 ba3e ed9e 2b3f 6ed3 e53e
00000010: 8cdc de3e 1513 913d dbb1 113f d936 053f
00000020: 8fc5 253f 7fa2 5f3f aad8 463f 374e f53e
00000030: affa a73e 50ae a83e fcb8 3bbf 8cfd 09be
00000040: 179d 7cbf 76fd 90bf 0ca1 1ebf 48c4 163f
00000050: 3632 1e3f 57d7 543f 16a6 373f f251 813e
00000060: cdab 913d 08f4 263e c073 ff3e 8aff 913e
00000070: 17ea c23f 80e3 543f a0ab 67bd e91b 5abf
00000080: 6e3f 563f 1c63 02bf a643 6c3f 0cb7 693f
00000090: 6127 09bf daa6 f23e dbb9 673f 4940 583f
000000a0: c250 46bf 5fb2 bbbf b2d4 3c3e c3bc c1be
000000b0: 0984 243e 8580 25be c9b4 cabe 2b6a d3be
000000c0: 3aba eabe 688e 983d 47bd 0e3e a759 bfbe
000000d0: ef36 dabe 5f58 583e 0b42 90bd f3d4 bebd
000000e0: 0ca7 a13e a9ac 9c3d 863a 4b3d 0a00 1b3e
000000f0: 15b4 433e 1db1 da3e 9cc2 cd3e c4f0 103f
00000100: edee 143f cdad 7bbd 2e5c 8d3e df7f ac3e
00000110: 3785 ac3e a589 ba3e 7101 10bf 6b33 c93e
00000120: da23 7dbe 7fe5 f3be 927f 75be 4b1a 983e
00000130: a4c2 b53f 7823 9f3e 01c2 4a3e 3ec2 8d3e
00000140: 2806 153e d417 823e 00ab f83e d310 bd3e
00000150: 49b2 273f 1774 0a3f 0f04 743e ba2f e0bc
00000160: 7498 893e 9c79 5bbf afed 683f 5b75 0b3f
00000170: e6a8 d13e e6ae f93e 387f 743f 6eb9 9b3e
00000180: e513 cbbe d2dd 50bf 7b35 973e 950a 343e
00000190: a5ed b03e a270 3f3d 8e02 0ebe 583a 9abe
000001a0: fff2 d63d 949d f5be 840c 713d d875 b9be
000001b0: d0ea f5be 76f0 073e cd66 ecbe 7f82 23be
000001c0: 88c0 bbbe 491c f2be 5465 a53b c147 fcbe
000001d0: e5a5 d4be a8e3 3e3c 4a84 92be 1808 b5bc
000001e0: 04db febe da1e 0dbe e10c c4be 3456 c2be
000001f0: 3e31 1ebf 48bf f7be 1c28 da3d 7a14 883e
00000200: ece2 d9bc 675d 3f3e a0f2 c73e 5407 b9be
00000210: 92ae 71bf 8405 eb3d 056e a43e 2c5a e53e
00000220: d709 493d 10ef f43d e1e3 343e 9072 98bd
00000230: c0ca 0bbd c429 81be a26d 58be 412a bdbd
00000240: 240a 09bf c482 bfbe 5a38 19bd 260b 2a3e
00000250: 37e4 0d3f e064 9f3e a511 ad3e d753 f83d
00000260: b6b5 f3bd 28bd 353e 182b 1cbd cd16 80be
00000270: 5db5 cbbd 49a5 febe 48d6 75be 7bc7 a23e
00000280: 0b88 073e a156 043f bbe5 933e 67e0 c2bd
00000290: de36 403b 08a1 7e3a b244 1c3e fde5 803d
000002a0: 9662 563d 2da2 b83e fdb0 7abe ab4a dabe
000002b0: 95b9 e03e 6418 96bd 7d31 0f3e b247 75be
000002c0: 2a37 1fbe 183b 90be 4b67 ad3e d71b 013f
000002d0: 2cd1 06bc eabb 5b3e 75b8 39bf e47b 513f
000002e0: 1b87 b3be cf83 42bf 1bfb 81bf 1a19 923e
000002f0: bfe1 013f c8db 763e fa96 8d3e f894 d7be
00000300: ece3 afbe 696d 4a3e 3cec 7abe 8fc2 8e3c
00000310: 63d4 823f f398 e43e da52 9b3e c5bb 873e
00000320: 35ee 613f 2540 c13d f85d 32be 225e c6bc
00000330: 1fa4 af3e d3e2 fcbe ac7c ecbe 97b5 883d
00000340: 1f59 f73e b272 533f ce86 aabe a601 fabd
00000350: f256 07be fc1b 6e3e 3021 eabe 6932 81be
00000360: 057c 62be 9800 db3d 33f4 adbe 151a 1e3e
00000370: 0f4e 143e 72c5 8abe b5b5 77be 7ad6 08bf
0.5405754 0.36408278 0.67039376 0.4488787 0.4352764 0.07083718 0.5691201 0.52036816
0.64754575 0.87357324 0.77674353 0.47911236 0.32808444 0.3294549 -0.7332914 -0.13475627
-0.986772 -1.132735 -0.6196449 0.5889325 0.61795366 0.8314108 0.717378 0.25257832
0.071128465 0.16304028 0.49892998 0.28515273 1.5227689 0.8315964 -0.05656016 -0.8519884
0.83690536 -0.5093248 0.92290723 0.9129493 -0.5357571 0.47392923 0.9051797 0.8447309
-0.77466977 -1.466381 0.18440512 -0.37839326 0.16065992 -0.16162308 -0.39591053 -0.41291937
-0.45845205 0.07449037 0.13939391 -0.37373087 -0.42620036 0.21127461 -0.07043847 -0.093179606
0.3157276 0.0765012 0.04961636 0.15136734 0.19111665 0.42713252 0.40187538 0.5661738
0.5817707 -0.061445046 0.2760939 0.33691308 0.33695385 0.3643314 -0.562522 0.3929704
-0.24720708 -0.4763603 -0.23974445 0.2970756 1.4200025 0.31081748 0.19800569 0.27687258
0.1455313 0.25408804 0.48567963 0.36926898 0.65506417 0.5408339 0.23829673 -0.027366508
0.26874125 -0.85732436 0.90987676 0.54475945 0.40949172 0.4876625 0.9550662 0.3041491
-0.39663616 -0.8158847 0.2953299 0.17582162 0.34556308 0.046738274 -0.13868162 -0.30122638
0.104955666 -0.47971785 0.058849826 -0.3622272 -0.4803071 0.13275322 -0.4617218 -0.15967749
-0.36670327 -0.47287205 0.0050474796 -0.49273494 -0.41532817 0.011650957 -0.28616554 -0.022098586
-0.4977647 -0.137813 -0.38291076 -0.37956393 -0.6179389 -0.48388124 0.106521815 0.26578122
-0.026597463 0.18687974 0.39052296 -0.36138403 -0.94407 0.114756614 0.32115188 0.44795358
0.04908165 0.1195966 0.17665054 -0.07443726 -0.034128904 -0.25227177 -0.21135572 -0.09236575
-0.535311 -0.37404454 -0.037407257 0.16605815 0.55426353 0.3113165 0.33802524 0.12125366
-0.11899893 0.17747939 -0.038127035 -0.25017396 -0.09946702 -0.49735478 -0.24007523 0.31792817
0.1323549 0.51694685 0.28886208 -0.095154576 0.0029329578 0.00097133266 0.1526058 0.06293867
0.052340113 0.3606123 -0.24481578 -0.42635092 0.43891588 -0.07328871 0.13983722 -0.23953131
-0.15548387 -0.28170085 0.3386787 0.50433105 -0.008228581 0.21458402 -0.72547084 0.8182967
-0.35064015 -0.75982374 -1.0154756 0.28534776 0.50735086 0.24107277 0.27654248 -0.42105842
-0.34353578 0.19768299 -0.24504179 0.017426757 1.0221065 0.4464794 0.30336648 0.26510444
0.882541 0.09436063 -0.17418659 -0.024214808 0.34304902 -0.49391803 -0.46188867 0.066752605
0.48310181 0.82596886 -0.33305973 -0.12207346 -0.13216761 0.23252863 -0.45728445 -0.25233772
-0.22117622 0.106934726 -0.33975372 0.15439637 0.14482902 -0.27103764 -0.2419041 -0.53452265

rnn.weight_hh_l0 f4 [32, 8]
00000000: 752f 41be ce49 2fbd 145b 2c3e 060c f93e
00000010: 5c1b f83d 661d 05be eaa5 a13e 57e1 0abf
00000020: 1663 07bf 96cf 0abf 2d16 133e ad48 cb3c
00000030: 5540 a3be 5c0c f63e df85 a63e daea c13d
00000040: d77d 353f 977a 013f 5cf3 38bf b099 80bd
00000050: c6c8 92bc 6428 4fbf bd4b 61bd a668 8abe
00000060: ff57 b33d 1787 3d3e 4007 643d 657e af3e
00000070: ac80 c9be e8b3 9c3e bb33 953e 57a3 6dbe
00000080: 8f10 a53f faf3 fc3f 0567 483f d1af a0bf
00000090: d77c cf3e 2060 b7bf ac86 ec3f efda e3bf
000000a0: 6a8f a73e 5d73 f83e a1cc ce3f 3ed7 3bbf
000000b0: f392 513e 18ad 5abc ec93 3e3e d09a 4abf
000000c0: f60d b5be 0962 603d 3ed6 cf3e 565a 873e
000000d0: e5e3 c93e 293b 263e b98b 163e 12ce ec3d
000000e0: 19a9 733e 773c 1b3f 22cd d1bd 3ba2 88be
000000f0: a500 d23d b322 74bd 4abc 61be a579 8b3b
00000100: 333f c6be 06b6 03bf e0b0 c93e 2d9c 42bd
00000110: 0898 04bd 63b6 f93e 1d47 d7bc 179d 0ebf
00000120: 84bc efbe 8107 b03d f951 513b fe84 9f3e
00000130: cb85 00be 1440 bf3d 0a11 ab3d 100e 87be
00000140: 95e7 42be 7c15 263e 5694 46bf 8182 c03e
00000150: c9a9 1e3c 0ccd d13e 1ca7 7bbe 4683 923e
00000160: 7309 cabe a0c5 31bd ca9d 613e df27 e53d
00000170: 6468 39be 2096 56bd 8223 30be e607 5e3d
00000180: 3da6 1bbc 1121 e03e add9 313f 6932 1fbd
00000190: 8f8a 73be a890 0b3e c832 563f a101 48bf
000001a0: e009 13bf e1fb 00bf e794 0f3f 4d26 29ba
000001b0: ce04 3a3e 2f88 3a3f 529b abbe da6f 24be
000001c0: 77be c2be 403f 873e aed8 c6bd d385 afbd
000001d0: 9499 f43e b049 62ba 35c0 59be 6e37 ae3e
000001e0: f171 cc3c d930 8e3e a6d9 a63d 9453 fcbd
000001f0: 9277 d83e 12c2 5ebc 44f5 cdbd 88f9 48be
00000200: 1b13 9a3e 1efd 0e3f e059 99be 90b5 08bf
00000210: d88a babc cb2a 10be 6bd5 973d 6078 283e
00000220: 8864 8a3e 12a2 2e3d 327b e83d 509e e6be
00000230: a7bb dd3e 5275 7dbd 7dba 4c3d b71f 503e
00000240: d93d 563d f041 39be 4fc1 963d 2db4 09be
00000250: 6265 853d d9cf 403e 0629 f9bd 9307 b73e
00000260: 5642 0dbf e3bf febe 712e 6e3c 52c0 8e3e
00000270: 7184 83be 84c4 f93d 1045 1fbd 06ee 94bc
00000280: 5d86 333e 39b4 7ebe 4024 0bbe 7256 c33e
00000290: 9fff 943d 5775 95bd 2fc3 0dbf dd68 0b3f
000002a0: 2390 e3be e47c b23d b3dd 8f3e af45 1fbe
000002b0: a49a 11be e3bd a23d ccbe b73e ae06 173e
000002c0: 26f4 5bbe 8696 71be 8eb7 0d3e 8bb7 35be
000002d0: 77bf 8cbc 122a 933d e0d8 0fbe e88f b13e
000002e0: b103 28bd 8869 d33d 842d 1bbe 68c1 ec3e
000002f0: b979 84be c6fe d73e ceee babd 3d83 98be
00000300: d42c ec3e b7d4 393e 9350 633f f90c 4b3d
00000310: c6a3 053f 33ae cbbc d971 ab3e 7ad3 0dbd
00000320: 2161 e2bd fbbb e93c 28fa 263f 0c19 ad3d
00000330: 4797 243e c5d7 62be 43bc 503e bd31 b9be
00000340: 4d58 9ebe 5898 183e 8169 fdbd b421 b73e
00000350: 835d 48be df23 f7bd 07ca a23e e381 b93d
00000360: 5db0 ab3e d889 bb3e c5b1 603e 5bf6 7fbc
00000370: 5fad e63e 7d6e 11bf 2111 4cbe 06f5 933d
00000380: ef03 633e f3b3 a83d 7c79 373f 1cbf d8bd
00000390: 775f b83e 982d 9bbe d882 38bc 36f7 63be
000003a0: be0b 953c a8b8 283f f8af 043f 1e63 d4be
000003b0: 210e 17be 9803 84be b535 263f 3b31 06bf
000003c0: 8ef3 30bd bb44 973d 15ce 683d 67e2 7fbc
000003d0: 08cc bf3e 1883 7c3e 0124 28be e6f3 f0bc
000003e0: 74ae 563e 6632 cf3e a3f9 2cbd 9e88 d6be
000003f0: e6b6 8cbc 7e8f 71be cad9 f6bd 38a7 a73d
-0.1886576 -0.042794995 0.16831619 0.48641986 0.121145934 -0.12999496 0.31571895 -0.5425009
-0.5288557 -0.54223 0.14363928 0.024814928 -0.3188502 0.48056304 0.3252401 0.094686225
0.7089514 0.5057768 -0.72246337 -0.062793136 -0.017918002 -0.80921006 -0.05500387 -0.27032965
0.08757018 0.18508564 0.055670977 0.3427612 -0.3935598 0.30606008 0.2914103 -0.2320684
1.2895678 1.9761956 0.78282195 -1.2553655 0.40524933 -1.432621 1.8478599 -1.7801188
0.32726604 0.48525515 1.6156198 -0.7337531 0.20466213 -0.013346933 0.18611115 -0.79142475
-0.35362214 0.054780994 0.4059314 0.26436108 0.39431682 0.16233505 0.14701737 0.11562742
0.23794974 0.6063914 -0.10244204 -0.26686272 0.10254029 -0.059603404 -0.22044483 0.0042564445
-0.38720092 -0.5144962 0.39392757 -0.047512222 -0.03237155 0.48771963 -0.026279027 -0.5570845
-0.46823514 0.08595181 0.0031939729 0.31156152 -0.12551038 0.09338394 0.08352859 -0.26377916
-0.19033654 0.16219133 -0.7757009 0.37599567 0.009684035 0.4097675 -0.24575466 0.2861578
-0.39460334 -0.04340136 0.22032848 0.111892454 -0.18106228 -0.052389264 -0.17201045 0.05420675
-0.0095000835 0.43775228 0.6947277 -0.038866434 -0.23783325 0.136294 0.83671236 -0.78127486
-0.57436943 -0.50384337 0.5608658 -0.00064525456 0.18165895 0.7286405 -0.33516937 -0.16058293
-0.38035938 0.26415443 -0.09709297 -0.08570447 0.4777342 -0.0008632196 -0.21264727 0.34026664
0.024956675 0.27771643 0.08146982 -0.12320629 0.42278725 -0.013596075 -0.10056546 -0.19626439
0.300927 0.55854976 -0.29951382 -0.5340204 -0.022771284 -0.14078824 0.07413753 0.1645217
0.27029824 0.04263503 0.11351623 -0.45042658 0.4330723 -0.061879463 0.049982537 0.20324598
0.052305076 -0.1809156 0.073610894 -0.13447638 0.06513478 0.18829288 -0.12166028 0.35747966
-0.55179346 -0.49755773 0.01453744 0.27881104 -0.25686982 0.121956855 -0.038884223 -0.018179905
0.17531724 -0.24873437 -0.13588047 0.3815189 0.07275318 -0.072977714 -0.5537595 0.54456884
-0.44445905 0.08715227 0.2809883 -0.15553926 -0.14219147 0.07946374 0.35887754 0.14748642
-0.21479854 -0.23592576 0.13839552 -0.17745797 -0.017181141 0.07185759 -0.14047575 0.34680104
-0.041019145 0.10322863 -0.15154082 0.46241307 -0.25874117 0.42186564 -0.0912758 -0.29787627
0.4612795 0.1814755 0.8879482 0.04957292 0.52203023 -0.024863338 0.33485296 -0.034625508
-0.11053682 0.028532019 0.6522546 0.08452043 0.16073333 -0.22152622 0.20384316 -0.3617076
-0.30926743 0.14901865 -0.12373639 0.357679 -0.19566922 -0.12067389 0.3179476 0.09057977
0.33532992 0.36628604 0.21942814 -0.015622701 0.45054147 -0.56809217 -0.19928409 0.07224469
0.2216947 0.082374476 0.71669745 -0.10583326 0.36010334 -0.30308223 -0.011261664 -0.22262272
0.018194076 0.65906763 0.51831007 -0.4148187 -0.14751484 -0.25783992 0.649257 -0.5241887
-0.04320102 0.07386156 0.05683716 -0.015617943 0.3746035 0.24659383 -0.16419984 -0.029413175
0.20964986 0.40468138 -0.04223026 -0.41901106 -0.017177057 -0.23589894 -0.12053259 0.08186191

rnn.bias_ih_l0 f4 [32]
00000000: 9ecb 353e ee3b 1c3f af80 d9be 69f6 b73e
00000010: f48d d0be a063 2ebe 9120 a8be 6b25 5cbe
00000020: e34b 993e 713b 9e3e 19ef 573e 93d0 323e
00000030: b774 eabc 8807 023f ae17 783e a295 103e
00000040: 45da 05bf 1699 8ebe fc9c 513d f124 2e3e
00000050: 0703 b1be 9a5a 053f ca8a 383e e6d5 933e
00000060: a6a4 66be 29c0 1f3f f21c b43c 4ec7 4fbe
00000070: 02c3 3fbd c9d5 2d3e f491 bbbe 9c7e f2bc
0.17753455 0.61028945 -0.4248099 0.35930184 -0.40733302 -0.17030191 -0.32837346 -0.21498649
0.2994071 0.30904725 0.21087302 0.17462377 -0.028620107 0.5079274 0.24227783 0.1411958
-0.5228618 -0.2785117 0.051175103 0.1700628 -0.34572622 0.5209137 0.18021694 0.2887413
-0.22523746 0.6240259 0.021986458 -0.20290872 -0.046816833 0.16976084 -0.3663479 -0.029601388

rnn.bias_hh_l0 f4 [32]
00000000: 1ce5 833e 69d7 c43e c2df 2fbf 3023 953e
00000010: 5251 c8be d5d0 073e 7da4 d7be 5f30 b4be
00000020: 2b9d c53d 2d05 103e e1c8 f2bd 4567 763e
00000030: ec41 b2be 2515 c13e 36ba 90be d3ba c4be
00000040: 476a 15be bbf5 03bf 58b6 a9be 8316 fa3e
00000050: e55b a8be 9553 e23e fa16 a5be 78bf 3a3e
00000060: 94cd 423e b048 143f 5b3b 08be 7625 4cbe
00000070: 86b1 373e c44f 943e 2423 16bd 2f4c 67be
0.25760734 0.38445595 -0.687008 0.29128408 -0.39124542 0.13263257 -0.42117682 -0.35193154
0.09649118 0.14064474 -0.11854721 0.24062832 -0.3481592 0.37711444 -0.28267068 -0.38423786
-0.14591323 -0.5154683 -0.3314693 0.488453 -0.3288261 0.44204393 -0.32244092 0.18237102
0.19023734 0.5792341 -0.13303892 -0.19936165 0.17938814 0.28967106 -0.036654606 -0.22587655

out.weight f4 [1, 8]
00000000: af07 ddbd 1481 8dbe 27d8 583e 277d 333e
00000010: 00f9 aebe 41bc ff3e 02a4 e73d e500 2a3e
-0.10792481 -0.2763754 0.21176206 0.1752821 -0.34174347 0.49948314 0.11310579 0.16601904
