ckpt/479.ckpt (torch_old, 3320 bytes, 5 tensors)

rnn.weight_ih_l0 f4 [32, 7]
0	0x3f0ae607	0.54257244
1	0x3ebaceaa	0.36485797
2	0x3f2be952	0.67152894
3	0x3ee6415c	0.4497174
4	0x3edfac4c	0.4368614
5	0x3d90da8d	0.07072935
6	0x3f11a0b4	0.5688584
7	0x3f05bd1e	0.52241695
8	0x3f260b8d	0.64861375
9	0x3f5ffe97	0.8749785
10	0x3f47277c	0.77794623
11	0x3ef6176e	0.4806475
12	0x3ea82cbe	0.32846636
13	0x3ea8bef2	0.3295818
14	0xbf3b5579	-0.73177296
15	0xbe0ef29d	-0.13959737
16	0xbf7d25c4	-0.9888575
17	0xbf92180d	-1.141359
18	0xbf22fda4	-0.63668275
19	0x3f144f4d	0.57933503
20	0x3f20798e	0.6268548
21	0x3f55912a	0.8342463
22	0x3f382106	0.7192539
23	0x3e826d3c	0.25473964
24	0x3d959b44	0.07305005
25	0x3e293bd4	0.16526729
26	0x3efff353	0.4999033
27	0x3e9227e6	0.28546065
28	0x3fc63ac8	1.5486689
29	0x3f5d636a	0.8647982
30	0xbd9ed5f2	-0.077556506
31	0xbf534cd4	-0.82539105
32	0x3f58d431	0.8469878
33	0xbf0492e2	-0.51786625
34	0x3f71ab6f	0.9440221
35	0x3f65d19e	0.89772975
36	0xbf081da3	-0.5317022
37	0x3ee516b3	0.4474388
38	0x3f687921	0.9080983
39	0x3f605686	0.87632024
40	0xbf3c9e66	-0.73679197
41	0xbfbc48cd	-1.4709717
42	0x3e8196a8	0.25310254
43	0xbec09fdc	-0.37621963
44	0x3e83fc4e	0.2577843
45	0xbe02e6c2	-0.1278334
46	0xbeae95a6	-0.34098548
47	0xbec26845	-0.37970176
48	0xbf043c47	-0.51654476
49	0x3da9bd88	0.08288103
50	0x3e14f6d1	0.14547278
51	0xbebd46af	-0.3696799
52	0xbed7c0b2	-0.42139202
53	0x3e5f8a8c	0.21830195
54	0xbd930f2c	-0.07180628
55	0xbdc0b82b	-0.09410127
56	0x3ea1b107	0.31580374
57	0x3d9c26b6	0.07624571
58	0x3d4a85ee	0.04944413
59	0x3e1ab434	0.15107805
60	0x3e43d23d	0.19123168
61	0x3eda6a9d	0.42659464
62	0x3ecd8f08	0.40148187
63	0x3f10fb68	0.56633615
64	0x3f14da07	0.58145183
65	0xbd7c810a	-0.0616465
66	0x3e8d2bd4	0.275725
67	0x3eac9b6f	0.33712336
68	0x3eac21f1	0.33619645
69	0x3eba4699	0.36381987
70	0xbf0fc7cf	-0.5616426
71	0x3ec685c7	0.3877394
72	0xbe7bbf18	-0.24584615
73	0xbef9fbd9	-0.48824957
74	0xbe84dbcf	-0.2594895
75	0x3e908ee0	0.28234005
76	0x3fb71b8f	1.4305285
77	0x3e9f0114	0.3105551
78	0x3e4a96d4	0.19784099
79	0x3e8da2c7	0.27663252
80	0x3e149673	0.14510517
81	0x3e822091	0.2541547
82	0x3ef87346	0.48525447
83	0x3ebcf5cf	0.36906287
84	0x3f35b830	0.7098417
85	0x3f12bfa9	0.573237
86	0x3e65d1a1	0.22443248
87	0x3c59d536	0.013295462
88	0x3e8b2944	0.2717992
89	0xbf5f880c	-0.87316966
90	0x3f6bacc5	0.920605
91	0x3f0644d9	0.52448803
92	0x3ecc2693	0.3987318
93	0x3eee489f	0.4653978
94	0x3f72d93e	0.94862735
95	0x3e9f3932	0.31098324
96	0xbec64165	-0.38721767
97	0xbf536b08	-0.8258519
98	0x3eceb801	0.4037476
99	0x3e5b112e	0.21393272
100	0x3eeb2c40	0.45932198
101	0x3df5c327	0.12000113
102	0xbd735872	-0.05941052
103	0xbe80826b	-0.250995
104	0x3d90fec0	0.0707984
105	0xbef5371c	-0.47893608
106	0x3d751996	0.059838854
107	0xbeb963e2	-0.36209017
108	0xbef5bdfe	-0.47996515
109	0x3e08e2ca	0.13367763
110	0xbeece16f	-0.46265742
111	0xbe236d2d	-0.15959616
112	0xbebc0352	-0.36721283
113	0xbef236a6	-0.47307318
114	0x3b9bbe51	0.004752912
115	0xbefc6633	-0.49296722
116	0xbed4d89f	-0.4157152
117	0x3c3e919b	0.011631395
118	0xbe9281e5	-0.28614727
119	0xbcbaf7ad	-0.02282318
120	0xbeff1817	-0.49823067
121	0xbe0dab15	-0.13834794
122	0xbec44ad5	-0.38338342
123	0xbec2a178	-0.38013816
124	0xbf1e406c	-0.6181705
125	0xbef7c55b	-0.48392758
126	0x3ddd08f6	0.10792725
127	0x3e8b4c41	0.27206615
128	0xbcbb15b1	-0.022837492
129	0x3e45833a	0.1928834
130	0x3ecd8646	0.40141505
131	0xbeb6ede6	-0.35728377
132	0xbf714baf	-0.9425611
133	0x3dec8441	0.11548663
134	0x3ea4b203	0.32167062
135	0x3ee5a73b	0.4485415
136	0x3d4b3ece	0.049620442
137	0x3df6156f	0.12015807
138	0x3e353eb1	0.17699696
139	0xbd982941	-0.074297436
140	0xbd323e8e	-0.043516688
141	0xbe85d58a	-0.2613948
142	0xbe58db65	-0.21177442
143	0xbdccaeb1	-0.09994257
144	0xbf0b0a57	-0.5431265
145	0xbebf8375	-0.3740498
146	0xbd2497a2	-0.04018367
147	0x3e299768	0.16561663
148	0x3f0dcc43	0.55389804
149	0x3e9ef018	0.31042552
150	0x3eace2d0	0.33766794
151	0x3dfab0fc	0.12240788
152	0xbdf1b21e	-0.11801551
153	0x3e3567a2	0.17715314
154	0xbd8bc8ee	-0.06825434
155	0xbe710eed	-0.2354085
156	0xbe0277fd	-0.12741084
157	0xbf02556b	-0.5091159
158	0xbe7a148a	-0.24421898
159	0x3ea6b6ef	0.32561442
160	0x3e206203	0.15662389
161	0x3f04a0bf	0.5180778
162	0x3e946862	0.28985888
163	0xbdc19c4a	-0.09453638
164	0x3b69fe9a	0.0035704733
165	0x3b0a27af	0.0021080782
166	0x3e1bfce4	0.15233189
167	0x3d815d6e	0.063166484
168	0x3d762fc5	0.06010415
169	0x3ebe47b0	0.37164068
170	0xbe83f552	-0.25773102
171	0xbed6ee85	-0.4197885
172	0x3ee83826	0.45355338
173	0xbd98a6bc	-0.07453677
174	0x3e0ca19d	0.13733526
175	0xbe6c862a	-0.23098055
176	0xbe1627bb	-0.14663593
177	0xbe991c3b	-0.2990435
178	0x3eafb456	0.34317273
179	0x3f049269	0.51785904
180	0xbc651780	-0.013982654
181	0x3e55d3ba	0.20881549
182	0xbf392348	-0.7231946
183	0x3f515118	0.81764364
184	0xbeb24833	-0.3482071
185	0xbf444cb7	-0.7667956
186	0xbf83709c	-1.0268741
187	0x3e9325e0	0.28739834
188	0x3f04ad2f	0.5182676
189	0x3e84e600	0.25956726
190	0x3e928317	0.2861564
191	0xbed91648	-0.42399812
192	0xbeab7222	-0.33485514
193	0x3e55c09d	0.20874257
194	0xbe82d457	-0.25552627
195	0x3c8d1f84	0.017226942
196	0x3f85bcb7	1.0448216
197	0x3ee9c1c7	0.45655653
198	0x3e91dee2	0.2849036
199	0x3e8eecd5	0.27915064
200	0x3f64b480	0.8933792
201	0x3dbdd4aa	0.09269078
202	0xbe464789	-0.19363226
203	0xbcab1de1	-0.02088827
204	0x3ebf9b56	0.374232
205	0xbf08f819	-0.53503567
206	0xbee6c5a6	-0.4507267
207	0x3da24432	0.079231635
208	0x3ef703ea	0.48245174
209	0x3f55bd64	0.8349211
210	0xbe934113	-0.28760585
211	0xbdd05fc9	-0.101745196
212	0xbc57bdb2	-0.0131677855
213	0x3e8b0ea2	0.271596
214	0xbec7eece	-0.3904938
215	0xbe444a60	-0.19168997
216	0xbe75150c	-0.2393381
217	0x3deaca90	0.11464417
218	0xbeab2401	-0.33425906
219	0x3e21d72e	0.15804741
220	0x3e18d9a4	0.14926773
221	0xbe8781e7	-0.26466295
222	0xbe79406f	-0.24340986
223	0xbf09085b	-0.53528374

rnn.weight_hh_l0 f4 [32, 8]
0	0xbe40bd58	-0.18822229
1	0xbd2d1302	-0.042254455
2	0x3e2caa4f	0.16861843
3	0x3ef8d4d4	0.48599875
4	0x3df86914	0.12129417
5	0xbe05b6b8	-0.13057983
6	0x3ea1fdba	0.3163889
7	0xbf0b162b	-0.543307
8	0xbf07469e	-0.5284213
9	0xbf0ab733	-0.5418579
10	0x3e132517	0.14369617
11	0x3cc7ca42	0.024388436
12	0xbea3242e	-0.3186354
13	0x3ef5c03f	0.47998235
14	0x3ea69309	0.32534054
15	0x3dc1a128	0.09454566
16	0x3f360fa5	0.7111762
17	0x3f01cd49	0.50703865
18	0xbf3c7431	-0.73614794
19	0xbd777208	-0.060411483
20	0xbcb076ff	-0.021541117
21	0xbf51d81c	-0.8197038
22	0xbd6b570c	-0.05745606
23	0xbe897e99	-0.268544
24	0x3db3dd52	0.08782448
25	0x3e3de04f	0.18542598
26	0x3d645e5a	0.055754043
27	0x3eaf5eeb	0.34252104
28	0xbec98803	-0.3936158
29	0x3e9c87a0	0.30572224
30	0x3e955881	0.29169086
31	0xbe6dd6c7	-0.23226462
32	0x3fa53035	1.2905337
33	0x3ffd7b51	1.9803258
34	0x3f48c056	0.7841848
35	0xbfa0f7dc	-1.2575641
36	0x3ecad3e0	0.39614773
37	0xbfb59ffd	-1.418945
38	0x3ff6563e	1.9245069
39	0xbfe59524	-1.7936139
40	0x3ea8cd0c	0.32968938
41	0x3ef9becd	0.48778382
42	0x3fcd79b8	1.6052771
43	0xbf3dc06b	-0.7412173
44	0x3e69d6a5	0.22835787
45	0xbc9d96a6	-0.019236874
46	0x3e83a150	0.2570901
47	0xbf4fd98c	-0.81191325
48	0xbed136fb	-0.4086226
49	0xbaabc5cb	-0.0013105212
50	0x3ed78c45	0.42099205
51	0x3ea9e554	0.33182776
52	0x3ee04537	0.43802807
53	0x3e218e40	0.1577692
54	0x3d957457	0.07297581
55	0x3e0962a5	0.13416536
56	0x3e711f3b	0.2354707
57	0x3f1b2fcc	0.6061981
58	0xbdcd4a6a	-0.10023959
59	0xbe87370b	-0.26409182
60	0x3dc0f519	0.09421749
61	0xbd5eabbd	-0.054363
62	0xbe613b2f	-0.21995233
63	0x3b9f1d00	0.004855752
64	0xbec60888	-0.38678384
65	0xbf039185	-0.5139392
66	0x3ec9f267	0.3944275
67	0xbd443023	-0.04789747
68	0xbd04cf2e	-0.032424144
69	0x3ef96e07	0.48716757
70	0xbcd1f4b2	-0.025629375
71	0xbf0eca58	-0.557775
72	0xbeef44d7	-0.46732208
73	0x3db20d61	0.08693958
74	0x3b62a5e6	0.0034583746
75	0x3e9f120f	0.31068465
76	0xbe00b9b0	-0.12570834
77	0x3dbc9d65	0.09209708
78	0x3daba0bc	0.08380267
79	0xbe873c5f	-0.26413247
80	0xbe3fc453	-0.18727235
81	0x3e286bfa	0.1644744
82	0xbf49c6a7	-0.78818744
83	0x3ec1ae2d	0.37828198
84	0x3baeee75	0.005338485
85	0x3ecacf9c	0.39611518
86	0xbe827fc7	-0.2548811
87	0x3e93101a	0.28723222
88	0xbec9cfb2	-0.3941627
89	0xbd2f2d2b	-0.042767685
90	0x3e61ba49	0.22043718
91	0x3de44c81	0.111474045
92	0xbe3986c0	-0.1811781
93	0xbd58cd5e	-0.05293023
94	0xbe2f5858	-0.17123544
95	0x3d5cb4c1	0.053883318
96	0xbcd47412	-0.025934253
97	0x3ed39ae7	0.4132912
98	0x3f32315b	0.6960656
99	0xbcd6b2b9	-0.026208268
100	0xbe8bc1f7	-0.2729642
101	0x3e2ec821	0.1706853
102	0x3f4579b5	0.77138835
103	0xbf4221d9	-0.758329
104	0xbf0e53df	-0.5559673
105	0xbef753a7	-0.4830601
106	0x3f0d6cc5	0.55244094
107	0xbc8ec9f2	-0.01743028
108	0x3e411ba8	0.18858206
109	0x3f3130d3	0.69215125
110	0xbe97dacf	-0.29659125
111	0xbe401ea1	-0.18761684
112	0xbf103582	-0.56331646
113	0x3e0d3cd5	0.13792737
114	0xbdb61cd7	-0.088922195
115	0x3dc04159	0.09387464
116	0x3f08303a	0.5319859
117	0x3dd44a70	0.1036576
118	0xbe9a0bf3	-0.30087242
119	0x3eb9dde8	0.36302114
120	0x3cbcf2b6	0.023064952
121	0x3e8debab	0.27718863
122	0x3da84ad0	0.08217394
123	0xbdf90e57	-0.12160938
124	0x3ed5c28d	0.41749993
125	0xbc21ae3a	-0.009868199
126	0xbdcd80af	-0.1003431
127	0xbe48cdf5	-0.19609816
128	0x3e9a0597	0.3008239
129	0x3f0ef655	0.5584462
130	0xbe995e6d	-0.29954854
131	0xbf08af1b	-0.5339219
132	0xbcbb134b	-0.022836348
133	0xbe100581	-0.140646
134	0x3d97b653	0.074078225
135	0x3e2891a5	0.16461809
136	0x3e8a4dcc	0.2701248
137	0x3d2e06f1	0.04248709
138	0x3de87456	0.11350314
139	0xbee6865c	-0.45024383
140	0x3eddb168	0.43299413
141	0xbd7c9523	-0.061665665
142	0x3d4c997b	0.049951058
143	0x3e502872	0.20327929
144	0x3d47d2e5	0.04878511
145	0xbe3cc75c	-0.18435425
146	0x3d9ca623	0.076488756
147	0xbe078b54	-0.13236743
148	0x3d86cb5b	0.06581756
149	0x3e47fcec	0.19530076
150	0xbdf828e5	-0.12117175
151	0x3eb7b807	0.3588259
152	0xbf0d3d8c	-0.5517204
153	0xbefeb8f7	-0.49750492
154	0x3c6e3cb0	0.014540836
155	0x3e8eb686	0.2787363
156	0xbe838488	-0.2568705
157	0x3df99a8d	0.12187681
158	0xbd1f394f	-0.038873013
159	0xbc94ffac	-0.01818832
160	0x3e346638	0.17617118
161	0xbe7e2195	-0.24817498
162	0xbe0d814f	-0.13818859
163	0x3ec33b90	0.3813138
164	0x3d9afee6	0.07568149
165	0xbd9ea77a	-0.07746787
166	0xbf0f3d39	-0.55952793
167	0x3f0baadd	0.5455759
168	0xbee3093e	-0.4434299
169	0x3db490c0	0.08816671
170	0x3e8fbcdd	0.2807378
171	0xbe20b2ca	-0.15693203
172	0xbe1033b1	-0.14082219
173	0x3d9f72d0	0.077855706
174	0x3eb87805	0.36029068
175	0x3e1619eb	0.14658324
176	0xbe5bd6bc	-0.21468633
177	0xbe6800a8	-0.226565
178	0x3e0e23d2	0.13880852
179	0xbe4cfc11	-0.2001803
180	0xbd2ada83	-0.041712295
181	0x3df45da7	0.11931925
182	0xbdd064b2	-0.10175456
183	0x3eae8562	0.34086138
184	0xbd26b64b	-0.040701192
185	0x3dd46f84	0.103728324
186	0xbe1a9fac	-0.15099972
187	0x3eec876d	0.46197072
188	0xbe84d4c8	-0.2594359
189	0x3ed83263	0.42225942
190	0xbdba251b	-0.090891086
191	0xbe988b41	-0.29793742
192	0x3eec9710	0.46209002
193	0x3e3d5f8e	0.18493482
194	0x3f64d2e1	0.89384276
195	0x3d45c3b4	0.04828234
196	0x3f058f78	0.5217204
197	0xbcc07aea	-0.02349611
198	0x3ec7155a	0.38883477
199	0xbd1c1d95	-0.03811415
200	0xbddc9283	-0.107701324
201	0x3d102676	0.03519293
202	0x3f2927d1	0.6607638
203	0x3da64a77	0.08119672
204	0x3e238a76	0.15970787
205	0xbe61d40a	-0.22053543
206	0x3e6d827c	0.23194307
207	0xbebb0a96	-0.36531514
208	0xbe9f8bbc	-0.31161296
209	0x3e148380	0.14503288
210	0xbe0ffbf4	-0.14060956
211	0x3eb9cc40	0.36288643
212	0xbe4ca763	-0.19985728
213	0xbe016b83	-0.12638669
214	0x3ea5933c	0.32338893
215	0x3dc1806e	0.09448324
216	0x3eabd5ee	0.33561653
217	0x3ebc94ff	0.36832425
218	0x3e664a31	0.2248924
219	0xbc7a81db	-0.015289749
220	0x3ee5bf5b	0.44872555
221	0xbf1130bf	-0.56715006
222	0xbe4080eb	-0.18799178
223	0x3d982b8d	0.07430182
224	0x3e6235dc	0.22090858
225	0x3da8f613	0.0825006
226	0x3f384da8	0.71993494
227	0xbdd57e6a	-0.10424502
228	0x3eb90675	0.3613774
229	0xbe9aaa23	-0.3020793
230	0xbc23f24c	-0.010006499
231	0xbe5c3a9c	-0.21506733
232	0x3c753305	0.014965777
233	0x3f29071b	0.6602647
234	0x3f044ce7	0.51679844
235	0xbed3796a	-0.4130357
236	0xbe18a7e2	-0.14907792
237	0xbe7b8d42	-0.24565604
238	0x3f48b2c3	0.7839777
239	0xbf069c6a	-0.5258242
240	0xbdfa8c9f	-0.122338526
241	0xbc2d2671	-0.010568247
242	0x3d8f10f6	0.06985657
243	0x3d702045	0.058624525
244	0x3ecae36a	0.39626628
245	0x3e982916	0.29718846
246	0xbe726e21	-0.23674823
247	0xbc51c4b2	-0.0128032435
248	0x3e535b73	0.20640354
249	0x3eced06d	0.4039339
250	0xbd235d2b	-0.039883774
251	0xbed4c178	-0.41553855
252	0xbcce395e	-0.02517384
253	0xbe6b23e9	-0.22962917
254	0xbdf689e9	-0.12038023
255	0x3da91146	0.08255248

rnn.bias_ih_l0 f4 [32]
0	0x3e35f75c	0.17770141
1	0x3f1c6c5a	0.6110283
2	0xbed8fef5	-0.42382017
3	0x3eb8b7c1	0.36077693
4	0xbecba71b	-0.3977593
5	0xbe39fecb	-0.18163602
6	0xbe97a002	-0.29614264
7	0xbe58c301	-0.21168138
8	0x3e990399	0.29885557
9	0x3e9dd823	0.30828962
10	0x3e56f4cb	0.20991819
11	0x3e323f20	0.17406893
12	0xbb1a6bc5	-0.002356277
13	0x3ef8f4f0	0.48624372
14	0x3e9c6a7b	0.30549988
15	0x3e10dfc6	0.14147863
16	0xbf05dfcf	-0.5229463
17	0xbe8ec6a5	-0.2788593
18	0x3d5c2d8b	0.05375437
19	0x3e2ea122	0.17053655
20	0xbeb2a746	-0.34893245
21	0x3f04fc1f	0.51947206
22	0x3e30e65d	0.17275377
23	0x3e9411e9	0.28919914
24	0xbe671e54	-0.22570163
25	0x3f1f0ae8	0.62126017
26	0x3cde0273	0.027100777
27	0xbe4cd6ed	-0.20003863
28	0xbd284ea1	-0.04109061
29	0x3e347985	0.17624481
30	0xbea5ac3d	-0.3235797
31	0xbcd8e6e5	-0.026477287

rnn.bias_hh_l0 f4 [32]
0	0x3e83faf9	0.25777414
1	0x3ec53842	0.38519484
2	0xbf2f9ee5	-0.6860183
3	0x3e95e488	0.29275918
4	0xbec36a79	-0.3816717
5	0x3df86b55	0.12129847
6	0xbec723ee	-0.388946
7	0xbeb27f28	-0.34862638
8	0x3dc47c0a	0.09593971
9	0x3e0f3e93	0.13988714
10	0xbdf4bd82	-0.11950208
11	0x3e75d5d2	0.24007347
12	0xbea4cf78	-0.32189536
13	0x3eb5fb04	0.35543072
14	0xbe60b723	-0.21944861
15	0xbec495c1	-0.38395503
16	0xbe15806a	-0.14599767
17	0xbf040c84	-0.515816
18	0xbea86448	-0.3288901
19	0x3efa549d	0.4889268
20	0xbeaa0024	-0.33203232
21	0x3ee1969c	0.44060218
22	0xbea8e92f	-0.32990405
23	0x3e3b377f	0.18282889
24	0x3e4253e6	0.18977317
25	0x3f13936f	0.5764684
26	0xbe02feac	-0.12792462
27	0xbe493515	-0.19649155
28	0x3e3d8e9e	0.18511435
29	0x3e97a1a3	0.29615507
30	0x3bc854ab	0.006113609
31	0xbe641937	-0.22275244

out.weight f4 [1, 8]
0	0xbde28c5e	-0.11061929
1	0xbe8db080	-0.2767372
2	0x3e5f518e	0.21808454
3	0x3e36389d	0.17795034
4	0xbeb28361	-0.3486586
5	0x3f01e952	0.50746644
6	0x3df85a91	0.12126649
7	0x3e2c41f3	0.16822033
