ckpt/489.ckpt (torch_old, 3320 bytes, 5 tensors)

rnn.weight_ih_l0 f4 [32, 7]
0.5442352 0.36520484 0.67222106 0.45007482 0.43820632 0.07015312 0.5682845 0.5240164
0.64926016 0.8759099 0.77866423 0.4818642 0.3284909 0.32948157 -0.7272914 -0.1428283
-0.98937565 -1.1471215 -0.65238756 0.5648529 0.63496333 0.8371557 0.721173 0.25696188
0.0750361 0.16753675 0.50087965 0.28577742 1.5656493 0.8953603 -0.100316755 -0.79617226
0.85408044 -0.52294266 0.96260065 0.8628039 -0.5426422 0.39969385 0.8908842 0.8983074
-0.6953093 -1.4797975 0.35643134 -0.4077491 0.368876 -0.10429299 -0.28902483 -0.3564766
-0.6272599 0.09236348 0.1517001 -0.36468986 -0.4159757 0.22651288 -0.07409876 -0.096664265
0.3157361 0.07579018 0.049076896 0.15057833 0.1912359 0.42581487 0.40093866 0.56623614
0.5808464 -0.062146444 0.2750534 0.33712742 0.33513886 0.36314407 -0.55835193 0.38402966
-0.24383554 -0.497175 -0.27730867 0.2651091 1.4412879 0.31041658 0.19762696 0.27642053
0.14470947 0.2542564 0.48459184 0.36877042 0.78233397 0.6154615 0.21737137 0.0726407
0.27922675 -0.88709676 0.93276656 0.49691936 0.3819042 0.43419978 0.93478113 0.31503895
-0.36691934 -0.835291 0.5318267 0.19753876 0.55899787 0.18791367 -0.023852758 -0.22121653
-0.013067144 -0.4779285 0.060760215 -0.36173195 -0.4795255 0.1348756 -0.46416393 -0.160011
-0.36757097 -0.47311598 0.004636539 -0.4930093 -0.41599804 0.011742364 -0.28603107 -0.023432197
-0.49856684 -0.13875507 -0.38372108 -0.38062522 -0.61824113 -0.4838963 0.107622296 0.2769345
-0.020759957 0.19702367 0.4116663 -0.35268152 -0.9415741 0.11623559 0.3222054 0.44914743
0.05017766 0.1207327 0.17735657 -0.07415007 -0.05193626 -0.26945513 -0.21148661 -0.107397065
-0.5504389 -0.37316683 -0.041547146 0.16424003 0.5526109 0.3084563 0.33623812 0.1231232
-0.1166893 0.17673877 -0.10150328 -0.18621182 -0.14711317 -0.5082879 -0.2157558 0.36216196
0.19740967 0.5195223 0.2909078 -0.09364552 0.00437313 0.003578277 0.15180475 0.06314257
0.072809376 0.3809987 -0.26718554 -0.41138622 0.47354364 -0.07482157 0.12905212 -0.22075653
-0.14031826 -0.31390977 0.34808555 0.53511804 -0.019935558 0.1983769 -0.71796256 0.8207554
-0.34441894 -0.77087694 -1.0368363 0.28609765 0.5296474 0.28422987 0.29333633 -0.42330432
-0.32353508 0.22161055 -0.26944512 0.011701958 1.0512165 0.45677918 0.24924424 0.2840287
0.8895548 0.08808992 -0.22432694 -0.006663684 0.4038684 -0.5668018 -0.4331655 0.10188901
0.47774604 0.8297663 -0.21123154 -0.07096177 0.19281091 0.33081317 -0.26497796 -0.09920416
-0.22488007 0.123273805 -0.32872143 0.1625398 0.1541806 -0.25724107 -0.24593449 -0.5375221
00000000: 0053 0b3f 21fc ba3e ae16 2c3f 3570 e63e
00000010: 945c e03e 70ac 8f3d 187b 113f f025 063f
00000020: ea35 263f a23b 603f 8a56 473f e8b6 f63e
00000030: f62f a83e cfb1 a83e c52f 3abf 9541 12be
00000040: b947 7dbf e1d4 92bf df02 27bf 339a 103f
00000050: f58c 223f d64f 563f cb9e 383f 8290 833e
00000060: 87ac 993d c18e 2b3e a639 003f 6b51 923e
00000070: 3267 c83f 5536 653f df72 cdbd f2d1 4bbf
00000080: 04a5 5a3f 92df 05bf ff6c 763f b7e0 5c3f
00000090: 99ea 0abf aca4 cc3e fd10 643f 79f7 653f
000000a0: caff 31bf 016a bdbf 2b7e b63e 7dc4 d0be
000000b0: 51dd bc3e 9097 d5bd 10fb 93be 1a84 b6be
000000c0: 1b94 20bf 1029 bd3d 4557 1b3e a1b8 babe
000000d0: c4fa d4be fef2 673e 17c1 97bd eaf7 c5bd
000000e0: 29a8 a13e e237 9b3d db04 493d 3531 1a3e
000000f0: 58d3 433e 6804 da3e d547 cd3e daf4 103f
00000100: 5ab2 143f 458d 7ebd cdd3 8c3e f79b ac3e
00000110: 5297 ab3e 05ee b93e 27f0 0ebf 899f c43e
00000120: 06b0 79be b98d febe 67fb 8dbe 61bc 873e
00000130: 1f7c b83f ecee 9e3e b95e 4a3e fe86 8d3e
00000140: b82e 143e e52d 823e 6c1c f83e 7acf bc3e
00000150: 0a47 483f e38e 1d3f 9a96 5e3e a6c4 943d
00000160: cff6 8e3e c618 63bf cac9 6e3f 376c fe3e
00000170: f388 c33e 6f4f de3e d14d 6f3f c94c a13e
00000180: dadc bbbe a2d5 55bf cb25 083f 9a47 4a3e
00000190: 7c1a 0f3f 716c 403e dc66 c3bc 9686 62be
000001a0: 9317 56bc 0bb3 f4be b4df 783d ee34 b9be
000001b0: 5e84 f5be d41c 0a3e e5a6 edbe ecd9 23be
000001c0: 4332 bcbe 423c f2be 1cee 973b b76b fcbe
000001d0: b2fd d4be 0b63 403c aa72 92be e1f4 bfbc
000001e0: 2744 ffbe cf15 0ebe 1777 c4be 4fe1 c2be
000001f0: 0d45 1ebf 41c1 f7be 1469 dc3d 5cca 8d3e
00000200: c910 aabc 93c0 493e edc5 d23e ac92 b4be
00000210: 000b 71bf ed0c ee3d 1bf8 a43e a7f6 e53e
00000220: 1787 4d3d b542 f73d f69c 353e fedb 97bd
00000230: 1ebb 54bd 06f6 89be f28f 58be fef2 dbbd
00000240: 90e9 0cbf b90f bfbe 572d 2abd 8a2e 283e
00000250: e877 0d3f fced 9d3e 6727 ac3e 0428 fc3d
00000260: cdfa eebd 02fb 343e f4e0 cfbd 50ae 3ebe
00000270: d6a4 16be 281f 02bf 17ef 5cbe 4b6d b93e
00000280: c325 4a3e 6aff 043f def1 943e 39c9 bfbd
00000290: 794c 8f3b 8781 6a3b b472 1b3e e450 813d
000002a0: 151d 953d 4312 c33e 8bcc 88be 37a1 d2be
000002b0: 5074 f23e 0d3c 99bd 3d26 043e 000e 62be
000002c0: 97af 0fbe c8b8 a0be 4538 b23e 7ffd 083f
000002d0: e54f a3bc 5023 4b3e 65cc 37bf 071d 523f
000002e0: ae57 b0be 3158 45bf 0db7 84bf 647b 923e
000002f0: f996 073f 9486 913e 2e30 963e 58bb d8be
00000300: 64a6 a5be e0ed 623e b6f4 89be 92b9 3f3c
00000310: 438e 863f f6de e93e e239 7f3e 366c 913e
00000320: ddb9 633f 7d68 b43d f6b5 65be 085b dabb
00000330: d7c7 ce3e ec19 11bf dec7 ddbe 2fab d03d
00000340: 219b f43e 906b 543f 154d 58be 6854 91bd
00000350: 3970 453e 5860 a93e 31ab 87be 8d2b cbbd
00000360: f646 66be fa76 fc3d 2d4e a8be d570 263e
00000370: 85e1 1d3e 1ab5 83be 40d6 7bbe 0c9b 09bf

rnn.weight_hh_l0 f4 [32, 8]
-0.18758748 -0.041478157 0.16900529 0.4853747 0.12161754 -0.13143025 0.3176758 -0.5445362
-0.5278219 -0.5413524 0.1437625 0.023790045 -0.3182328 0.47918096 0.325526 0.09434223
0.71483004 0.50965816 -0.7502847 -0.058496833 -0.026261788 -0.83154696 -0.08877184 -0.2669997
0.08809914 0.18578817 0.05584061 0.34226787 -0.39368904 0.30533534 0.2920165 -0.23246299
1.2805378 1.9707046 0.78981555 -1.2517545 0.3929025 -1.3909385 1.9870028 -1.796895
0.33901826 0.4981445 1.5881394 -0.75648856 0.26436594 -0.043362096 0.4540438 -0.84663934
-0.3989209 0.0025139186 0.43503302 0.3760098 0.55530494 0.0030502286 -0.10047497 0.15657666
0.2344736 0.6073084 -0.0975275 -0.2622574 0.09137376 -0.05268756 -0.21999404 0.0054461663
-0.38615844 -0.51312345 0.39505762 -0.048486575 -0.032347884 0.48633584 -0.024305575 -0.5588873
-0.4659638 0.088363886 0.0037482623 0.3093558 -0.1255077 0.090155624 0.08438162 -0.2646991
-0.18348692 0.1670755 -0.8018672 0.38069546 -0.00014679375 0.381737 -0.29234004 0.28841087
-0.39362243 -0.042023543 0.22058912 0.11098049 -0.18133509 -0.053674765 -0.17032675 0.053509902
-0.051321972 0.37354764 0.7008001 -0.005913324 -0.31112394 0.21869412 0.47820935 -0.72288144
-0.5353669 -0.4597083 0.5329809 -0.03696625 0.19893448 0.64626217 -0.15392482 -0.22118978
-0.6883902 0.038447008 -0.08554752 0.31138727 0.90351236 -0.011404748 -0.5511976 0.39686957
0.02201636 0.2771979 0.083089694 -0.12064926 0.41375872 -0.0076277805 -0.10050288 -0.19595931
0.30067864 0.55830175 -0.29959288 -0.53378135 -0.02294217 -0.1404463 0.07396704 0.16475883
0.26988354 0.042285174 0.113487594 -0.4499847 0.43281353 -0.061368067 0.049892806 0.20332812
0.045862574 -0.18710837 0.07918016 -0.13091281 0.067248784 0.20092596 -0.11435618 0.3593455
-0.55164266 -0.4974495 0.014544213 0.2786589 -0.25687775 0.12178687 -0.038860243 -0.01819669
0.17880826 -0.24525274 -0.1429695 0.3796533 0.07930891 -0.08470255 -0.5587558 0.54503906
-0.4419742 0.08961654 0.27952388 -0.15887743 -0.13877292 0.07483881 0.3646674 0.14527765
-0.2561369 -0.24387477 0.1404097 -0.21706711 -0.1239259 0.24051681 -0.010726359 0.33104485
-0.040063355 0.1044696 -0.1503361 0.46125165 -0.25975084 0.4219773 -0.09059073 -0.29803842
0.46324795 0.18889831 0.8995231 0.04685083 0.5252134 -0.02549551 0.4623827 -0.04169624
-0.10400411 0.04299129 0.6701365 0.07688377 0.16352151 -0.22272292 0.27757078 -0.3703913
-0.31423292 0.1406671 -0.15893283 0.36901698 -0.20563008 -0.1318722 0.31759864 0.09913853
0.33639506 0.3708257 0.23239654 -0.01469004 0.4493316 -0.5685042 -0.21394795 0.07863277
0.22167443 0.08508191 0.7257931 -0.10376659 0.36964494 -0.30396086 0.011193273 -0.2090257
0.011631089 0.661079 0.51739204 -0.41088337 -0.14328979 -0.23837495 0.94705075 -0.5260475
-0.20160472 -0.102306746 0.08084735 0.14142568 0.37569925 0.31505433 -0.45975122 0.00529746
0.20484751 0.40461984 -0.037007924 -0.4131908 -0.02830794 -0.22698721 -0.120930575 0.08320841
00000000: ef16 40be 00e5 29bd b90f 2d3e 0883 f83e
00000010: 9e12 f93d a795 06be 67a6 a23e b966 0bbf
00000020: 561f 07bf 1296 0abf 7a36 133e 57e3 c23c
00000030: 69ef a2be 3557 f53e 58ab a63e 8036 c13d
00000040: 1aff 363f f578 023f a812 40bf 609a 6fbd
00000050: f622 d7bc 43e0 54bf 03ce b5bd 2fb4 88be
00000060: 526d b43d 413f 3e3e 20b9 643d bc3d af3e
00000070: 9c91 c9be ea54 9c3e 3083 953e c70a 6ebe
00000080: aae8 a33f 0c40 fc3f 5a31 4a3f 7e39 a0bf
00000090: 842a c93e 460a b2bf 1c56 fe3f a800 e6bf
000000a0: cd93 ad3e cc0c ff3e 2748 cb3f 3ca9 41bf
000000b0: f95a 873e 749c 31bd 6e78 e83e 5bbd 58bf
000000c0: 5c3f ccbe 8ec0 243b a6bc de3e 5b84 c03e
000000d0: 7728 0e3f 58e6 473b d2c5 cdbd a255 203e
000000e0: d919 703e 9078 1b3f 7fbc c7bd 9a46 86be
000000f0: 2a22 bb3d e9ce 57bd 1e46 61be c175 b23b
00000100: 8fb6 c5be 0f5c 03bf fe44 ca3e dc99 46bd
00000110: 377f 04bd 0301 f93e 7c1c c7bc 3d13 0fbf
00000120: cf92 eebe 20f8 b43d 68a5 753b e263 9e3e
00000130: 1785 00be 83a3 b83d 45d0 ac3d a486 87be
00000140: ffe3 3bbe d715 2b3e 2b47 4dbf 84ea c23e
00000150: a6ec 19b9 0873 c33e 98ad 95be 97aa 933e
00000160: e188 c9be e120 2cbd 1de2 613e bd49 e33d
00000170: e8af 39be 12da 5bbd 236a 2ebe 332d 5b3d
00000180: fd36 52bd a341 bf3e a367 333f 8fc4 c1bb
00000190: a34b 9fbe 5af1 5f3e dbd7 f43e c20e 39bf
000001a0: ce0d 09bf e35e ebbe 7071 083f ec69 17bd
000001b0: 7bb5 4b3e 7071 253f 789e 1dbe 937f 62be
000001c0: 573a 30bf 9c7a 1d3d 8a33 afbd 276e 9f3e
000001d0: 964c 673f fbda 3abc 491b 0dbf 7d32 cb3e
000001e0: a75b b43c e2ec 8d3e ee2a aa3d f616 f7bd
000001f0: 2fd8 d33e 76f2 f9bb 74d4 cdbd 8fa9 48be
00000200: 8df2 993e ddec 0e3f 3d64 99be e5a5 08bf
00000210: 38f1 bbbc 28d1 0fbe 087c 973d 8ab6 283e
00000220: 2d2e 8a3e 3833 2d3d 2f6c e83d 6564 e6be
00000230: bc99 dd3e 155d 7bbd 665c 4c3d 3f35 503e
00000240: 65da 3b3d 5699 3fbe 3529 a23d 020e 06be
00000250: bbb9 893d 89bf 4d3e 9333 eabd 22fc b73e
00000260: 7438 0dbf b3b1 febe da4a 6e3c 61ac 8e3e
00000270: 7b85 83be 656b f93d eb2b 1fbd 3a11 95bc
00000280: 8319 373e 8923 7bbe 9966 12be eb61 c23e
00000290: b66c a23d 8878 adbd 9f0a 0fbf ae87 0b3f
000002a0: 714a e2be e088 b73d c11d 8f3e c4b0 22be
000002b0: 7d1a 0ebe 1745 993d afb5 ba3e aac3 143e
000002c0: 6024 83be 4fba 79be 8fc7 0f3e d746 5ebe
000002d0: ddcc fdbd 0a4a 763e 9cbd 2fbc b67e a93e
000002e0: 7919 24bd 28f4 d53d b5f1 19be 2d29 ec3e
000002f0: 10fe 84be 690d d83e a287 b9bd 7e98 98be
00000300: d62e ed3e 8f6e 413e 2547 663f a8e6 3f3d
00000310: 6374 063f f6db d0bc 6dbd ec3e adc9 2abd
00000320: 1b00 d5bd a317 303d 118e 2b3f 3d75 9d3d
00000330: 2f72 273e 7a11 64be c21d 8e3e eea3 bdbe
00000340: 23e3 a0be 090b 103e 4abf 22be cbef bc3e
00000350: b190 52be 8209 07be 4a9c a23e 2409 cb3d
00000360: f93b ac3e dedc bd3e 5cf9 6d3e 7eae 70bc
00000370: cb0e e63e 7e89 11bf 2c15 5bbe 380a a13d
00000380: 9ffe 623e 6d3f ae3d 94cd 393f 9483 d4bd
00000390: 1a42 bd3e c2a0 9bbe fd63 373c d50a 56be
000003a0: 5390 3e3c 793c 293f ce73 043f 4e5f d2be
000003b0: 8fba 12be 9018 74be eb71 723f 0dab 06bf
000003c0: 7871 4ebe 3386 d1bd 4c93 a53d e5d1 103e
000003d0: a75b c03e cd4e a13e 8364 ebbe 5196 ad3b
000003e0: 8cc3 513e 552a cf3e 9f95 17bd bf8d d3be
000003f0: 0ee6 e7bc 566f 68be 73aa f7bd 2c69 aa3d

rnn.bias_ih_l0 f4 [32]
0.17728996 0.6112697 -0.4235409 0.36230007 -0.3859074 -0.20740528 -0.27824757 -0.2087079
0.2980341 0.30717736 0.20877007 0.17341866 0.038654182 0.46155176 0.3605854 0.14150582
-0.52284 -0.2790366 0.055355232 0.17102945 -0.35147494 0.5170803 0.1699633 0.28956145
-0.22737637 0.61647725 0.03288818 -0.19761115 -0.04057907 0.18082933 -0.2747832 -0.02379838
00000000: 808b 353e 2c7c 1c3f 5ada d8be 657f b93e
00000010: a895 c5be 0d62 54be 7776 8ebe 86b7 55be
00000020: ed97 983e 5a46 9d3e d2c7 553e a994 313e
00000030: d953 1e3d 8350 ec3e a69e b83e e7e6 103e
00000040: d8d8 05bf e3dd 8ebe 2bbc 623d 5822 2f3e
00000050: 86f4 b3be 605f 043f dc0a 2e3e 6641 943e
00000060: 5ad5 68be 74d1 1d3f c2b5 063d 945a 4abe
00000070: 3d36 26bd 532b 393e 62b0 8cbe d2f4 c2bc

rnn.bias_hh_l0 f4 [32]
0.25736266 0.38543636 -0.6857389 0.29428232 -0.36981982 0.09552921 -0.37105092 -0.3456529
0.09511826 0.13877489 -0.12065019 0.2394232 -0.28088492 0.33073875 -0.16436303 -0.38392788
-0.1458915 -0.51599336 -0.32728925 0.48941964 -0.33457482 0.43821028 -0.33269453 0.18319117
0.18809843 0.5716855 -0.12213721 -0.19406408 0.18562591 0.3007396 0.054910116 -0.22007355
00000000: 0ac5 833e ea57 c53e 968c 2fbf 2cac 963e
00000010: 0659 bdbe d2a4 c33d 63fa bdbe 6bf9 b0be
00000020: 5dcd c23d 011b 0e3e 7217 f7bd 5b2b 753e
00000030: 26d0 8fbe 9756 a93e c84e 28be 3292 c4be
00000040: 9564 15be 2418 04bf 7592 a7be 3695 fa3e
00000050: 644d abbe 195d e03e f056 aabe 7796 3b3e
00000060: e09c 403e fb59 123f 1323 fabd bcb8 46be
00000070: b814 3e3e 8afa 993e 6ee9 603d f65a 61be

out.weight f4 [1, 8]
-0.11302185 -0.2769212 0.22571912 0.18045971 -0.3504318 0.51240814 0.12769645 0.1702709
00000000: 0078 e7bd 9ec8 8dbe ea22 673e 6eca 383e
00000010: cc6b b3be 2e2d 033f dcc2 023e 7f5b 2e3e
