ckpt/49.ckpt (torch_old, 3319 bytes, 5 tensors)

rnn.weight_ih_l0 f4 [32, 7]
000000 f5 74 95 3e ca 18 69 3e 30 08 fe 3e eb 52 99 3e
       0.29190794 0.22763363 0.49615622 0.29946074
000010 ef bd 77 3e a0 e4 8b 3c e0 89 0d 3f ab a7 5a 3e
       0.24193548 0.01707679 0.55288506 0.21353023
000020 a0 b9 eb 3e cb c1 23 3f 76 a9 10 3f 6f 04 81 3e
       0.46040058 0.6396758 0.56508577 0.25198695
000030 c6 d8 6a 3e e0 a5 8f 3e a3 e1 5e be 1d 99 15 be
       0.22934255 0.2805624 -0.21765761 -0.1460919
000040 44 ed d1 be e4 d8 a1 be 79 31 9b 3d be e6 d7 3e
       -0.41001332 -0.31610787 0.075777955 0.4216823
000050 6b df 1d 3e 32 0e fd 3e 5e e5 fe 3e dd 6f 2e ba
       0.15417258 0.49424893 0.49784368 -0.0006654242
000060 10 a7 1e be af 60 cc bd 85 86 c0 3e 1d 4b 7f 3e
       -0.15493417 -0.099793784 0.3760263 0.24930997
000070 74 3c e9 3e 16 56 99 3d 13 60 b8 3e 6d 16 2e 3e
       0.45553935 0.07487123 0.360108 0.17000742
000080 c2 66 d4 3e c2 de 2b be 04 9e 26 3d ec 2f 0a 3f
       0.41484648 -0.16784194 0.04067804 0.5397937
000090 14 49 83 3c 25 79 9d 3e f1 eb 1c 3f b6 f8 c0 3e
       0.016026057 0.30756488 0.6129752 0.3768975
0000a0 5b 50 21 bd 5a 18 16 be b2 9d b4 38 a7 a9 c9 be
       -0.039383274 -0.14657727 8.612442e-05 -0.39387247
0000b0 27 e2 d2 bd d8 40 9f be 57 ef 01 bf 84 af 9f be
       -0.102970414 -0.3110416 -0.5075583 -0.31188595
0000c0 49 e9 9b be 47 31 74 bd a2 76 10 3d 43 c1 e1 be
       -0.3045142 -0.059617307 0.035269387 -0.4409276
0000d0 1a 02 fe be e3 2e dc 3d b2 f5 f5 bd 46 5f b0 bd
       -0.49610978 0.107511304 -0.12009753 -0.08611922
0000e0 f7 5f 9e 3e 52 06 a1 3d cc eb 4b 3d c5 69 1e 3e
       0.3093259 0.07862534 0.04978542 0.15470035
0000f0 e7 90 3c 3e 95 85 de 3e d3 8c d1 3e 75 56 0e 3f
       0.18414651 0.4346129 0.40927753 0.5560067
000100 68 35 16 3f 6c 65 73 bd eb 27 91 3e ed e3 a6 3e
       0.5867524 -0.059422895 0.28350767 0.3259577
000110 73 ec b3 3e 9a 97 c0 3e bf d3 e2 be 27 95 0e be
       0.35141334 0.37615663 -0.44302174 -0.13924085
000120 b7 91 87 be ea 32 d1 bd 0a fd 20 3e ee 21 b4 be
       -0.2647836 -0.10214789 0.15721527 -0.35182136
000130 38 fd 78 3e 74 ad a5 3e 29 3f 45 3e 7a 1d 8f 3e
       0.24315345 0.32358897 0.19262375 0.27952176
000140 d9 36 1b 3e c4 d4 80 3e 3a 49 e9 3e ff cc b9 3e
       0.15157641 0.25162327 0.4556368 0.36289212
000150 29 66 38 be c3 8f 9f 3d 88 10 79 3e eb 2f f0 3d
       -0.18007721 0.07791092 0.24322712 0.117278896
000160 85 08 9b bc 25 53 c4 be fb f3 76 3e 88 19 94 3e
       -0.01892496 -0.38344684 0.24116509 0.2892573
000170 80 58 c9 3e 75 a1 98 3d 25 ba f9 3e bf db ea bd
       0.39325333 0.074526705 0.4877483 -0.114676945
000180 66 4c c9 be f2 f5 4b be c1 1f 5b 3d f9 c1 a9 3d
       -0.393161 -0.1991804 0.05349708 0.082889505
000190 bf e0 ef 3d 24 eb f7 bd d7 f0 97 be c2 6a 92 be
       0.11712789 -0.121053964 -0.29675934 -0.28597075
0001a0 f4 b5 3b 3e bf 34 f5 be 52 fb 52 3d 96 72 b5 be
       0.18331128 -0.47891805 0.05150921 -0.35438985
0001b0 ab b9 f2 be ac 42 05 3e ef df ed be af 03 1e be
       -0.47407278 0.13013715 -0.4645991 -0.15431093
0001c0 43 90 9b be 6f ac df be b1 4c 53 3d 60 9b e6 be
       -0.303835 -0.43686244 0.05158681 -0.45040417
0001d0 2a d3 bc be 35 84 e9 3c f4 96 8d be 1b 07 85 3d
       -0.36879855 0.028505424 -0.2765423 0.06495496
0001e0 ea 10 de be 77 39 8a bd b4 90 a2 be 92 68 9f be
       -0.4337228 -0.06749242 -0.31751025 -0.31134468
0001f0 ce 5b 12 bf ff 8b ef be 7b fe fc 3d c1 7b 19 3d
       -0.5717133 -0.46786496 0.12353226 0.037471537
000200 3d cb 9c be 72 4a cf 3d 55 f6 4d 3d 7e 85 63 bc
       -0.30623809 0.10121621 0.05028375 -0.0138868075
000210 73 e1 88 be 81 73 4e 3d fa 8f 8d 3e 07 46 cb 3e
       -0.26734504 0.05040312 0.27648908 0.39701864
000220 75 80 31 3b b4 7e 8f 3d 46 e8 16 3e 36 44 af bd
       0.0027084623 0.070065886 0.14737043 -0.08557932
000230 0a f3 a6 3c 7e a0 49 be fd 0b 81 be fe 54 0a be
       0.020379562 -0.19690129 -0.2520446 -0.13508984
000240 47 8c ef be 62 5e 9a be 07 69 6c bd f2 64 bc 3d
       -0.4678671 -0.30150133 -0.05771735 0.09198941
000250 28 18 09 3f ac 5a 7c 3e e5 45 8f 3e 7b 3e 67 3d
       0.53552485 0.24643964 0.27983013 0.05645607
000260 b6 e8 d1 bd 64 c3 78 3e 91 ec 96 3d cf ff 8d be
       -0.10249464 0.24293286 0.0736934 -0.2773423
000270 2f 1b 5d bc 55 82 e5 be 8a 29 50 be 42 28 81 3d
       -0.013495251 -0.44825998 -0.20328346 0.06306507
000280 e7 2d 20 3d 7d e8 fc 3e 4b 86 88 3e c0 18 e3 bd
       0.039106276 0.49396124 0.26664957 -0.11088705
000290 b9 b2 44 bc b0 3f 9e bc 45 b3 0e 3e 09 71 71 3d
       -0.012005501 -0.019317478 0.13935573 0.05894569
0002a0 34 52 cb 3e 15 33 d1 3e 4b e8 b8 3e a6 61 74 bd
       0.39711154 0.40859285 0.36114725 -0.059663437
0002b0 4f fd 14 3f 8a cb 1a be 46 5c bb bc 62 87 04 3e
       0.5819902 -0.15116706 -0.022871148 0.1294227
0002c0 81 9a 8f bd d8 d8 b3 3e c7 38 24 3f a8 7f 06 3f
       -0.07011891 0.35126376 0.64149135 0.5253854
0002d0 df 16 81 be 22 26 62 3e 1a db fc be ba bf 48 3e
       -0.25212762 0.22084859 -0.4938591 0.19604388
0002e0 9f b8 ba bc 18 37 d4 bd 86 67 f5 be d6 9b 7b bc
       -0.022793112 -0.10362071 -0.47930545 -0.015356978
0002f0 b0 d0 47 be ec f4 f8 3e 85 92 9e 3e f6 ed 0c 3e
       -0.19513202 0.4862436 0.3097116 0.1376265
000300 47 cf ff 3c eb e3 a4 3e c6 1e c3 be 12 35 cf be
       0.031226767 0.32205138 -0.38109416 -0.40470177
000310 93 9f bf 3e 8d 08 81 3e 03 fe d7 3e 10 b6 67 3e
       0.37426433 0.25201836 0.42185983 0.22628045
000320 87 5e fc 3e 3b 07 88 3b 27 c7 5d be c1 5b 7c 3e
       0.4929087 0.0041512526 -0.21658002 0.24644376
000330 f8 96 3f b9 ac ee cb 3e 42 fd ad 3d 1a 8e 89 3e
       -0.0001827142 0.3983053 0.08495571 0.26866227
000340 d3 53 85 3d c4 e8 2a 3e 58 28 fa be 74 b0 2c be
       0.06510129 0.16690356 -0.48858905 -0.16864187
000350 b4 29 e1 be 8f 2a 7d 3d f0 b9 16 bf 42 bb 35 be
       -0.4397713 0.061808165 -0.5887747 -0.17747214
000360 b2 7a e0 bd 56 d5 94 bc ae 2f de be 9d d8 c1 3d
       -0.10960902 -0.018168133 -0.43395752 0.09465144
000370 e3 36 a4 3d 47 19 bb be 6c 5b 94 be 31 27 06 bf
       0.08018281 -0.36542723 -0.28976 -0.5240355

rnn.weight_hh_l0 f4 [32, 8]
000000 c6 64 50 be f9 43 74 bd 04 52 2f 3e 53 08 00 3f
       -0.20350942 -0.059635136 0.1712113 0.500127
000010 d3 0b de 3d 2c 2a da bd 00 49 99 3e 30 d1 04 bf
       0.10842099 -0.10652575 0.29938507 -0.51881695
000020 39 50 0c bf b4 95 0e bf fb 18 13 3e 09 66 31 3d
       -0.5480991 -0.5569718 0.14364998 0.0433102
000030 4c 2d ae be 49 ab 02 3f f9 eb a4 3e 3c b9 cc 3d
       -0.34018934 0.5104261 0.32211283 0.09996268
000040 12 e7 b4 3e 03 ab aa 3d 70 e2 d6 be f3 0a ae 3e
       0.35332543 0.08333399 -0.41969633 0.3399273
000050 ff 1a 55 be 33 50 af be be d6 35 be 62 00 94 bd
       -0.2081108 -0.34240875 -0.17757699 -0.072266355
000060 db ec aa 3d 1f 69 36 3e 09 e2 a2 3d d7 e1 b0 3e
       0.08345958 0.17813538 0.07953269 0.34547302
000070 19 c2 ca be ac 67 a0 3e 82 d7 91 3e 19 41 65 be
       -0.3960121 0.31329095 0.28484732 -0.22388114
000080 08 b3 47 bd f6 04 1d 3e da ac 12 3e 24 9b db 3d
       -0.048754722 0.15333924 0.1432375 0.1072295
000090 84 b8 6a 3e 84 a2 db be 90 01 d7 3d 3e fe 8c be
       0.2292195 -0.42897427 0.10498345 -0.2753772
0000a0 93 50 6e be ca 58 ab bd 7f 3c f2 3e 4d 0c 43 be
       -0.23272924 -0.083665445 0.4731178 -0.19047661
0000b0 66 79 94 be 08 01 78 3e 0d 16 bf 3d 68 a1 05 bf
       -0.2899887 0.24219143 0.09330378 -0.5219941
0000c0 d3 db 43 3c a1 c8 bb 3e 83 59 4e 3e 8f d8 a1 bc
       0.011954266 0.36676505 0.20151334 -0.019756583
0000d0 a4 21 d2 3e ef aa 7e be 18 8a 34 3e 37 ed 92 3d
       0.4104129 -0.24869893 0.17630804 0.071741514
0000e0 8d e9 61 3e f0 46 14 3f e6 7a ae bd d6 d1 82 be
       0.22061749 0.5792074 -0.08519535 -0.25550717
0000f0 4d 3d 1e 3e f1 1b e0 bd 8b 2d 68 be 57 36 0a 3b
       0.15453072 -0.109428294 -0.22673623 0.0021089518
000100 ae ea c8 be 62 98 05 bf 94 9a d1 3e cf 1a 33 bd
       -0.39241546 -0.5218564 0.40938246 -0.04372674
000110 49 99 0a bd 81 0a fe 3e 7a 85 10 bd 23 e0 0b bf
       -0.03383759 0.4961739 -0.035283543 -0.5463888
000120 2c 8e f9 be 72 ff 87 3d 84 a9 23 3c be 76 a8 3e
       -0.4874128 0.06640519 0.009989146 0.32903093
000130 b1 90 0e be 99 16 00 3e 54 c2 9e 3d 5e 10 83 be
       -0.13922383 0.1250862 0.07751909 -0.25598425
000140 ad cb 09 3d e3 34 c2 3e 0b c9 f8 3c 86 0b 7a 3e
       0.033641506 0.37930974 0.030369302 0.24418458
000150 ee 2e 73 3e 22 56 8d 3e 70 7f 89 be 6b 04 89 3e
       0.23748371 0.27604777 -0.2685504 0.26761183
000160 54 87 c2 be 59 6f 03 bd 66 86 8f 3e c9 a0 c2 3d
       -0.37993872 -0.03208861 0.28032225 0.095033236
000170 ad 54 2c be 73 30 97 bd 9c be 33 be 2e 8b 5d 3d
       -0.16829176 -0.07382288 -0.1755318 0.05408781
000180 56 18 71 bd fb 7f 8b 3e 17 53 fe 3d bf 01 32 3e
       -0.0588611 0.2724608 0.12418192 0.17383479
000190 43 be d1 3e 88 9e eb bd df 17 a5 3e 56 18 05 bf
       0.4096547 -0.11504847 0.32244775 -0.5199026
0001a0 d3 c0 70 be ca 66 e8 bd 3a 4e 2b 3e 7b 71 b9 be
       -0.23511057 -0.113477305 0.1672906 -0.3621939
0001b0 a2 06 8e 3e f7 d4 41 3e 26 5e 20 be 6a e1 de be
       0.27739435 0.18928896 -0.15660915 -0.43531352
0001c0 68 83 92 bc 6f 32 f3 3e 22 24 61 be 30 0f ab be
       -0.017884925 0.47499415 -0.2198644 -0.33410025
0001d0 d0 28 0b 3f fe 63 cc be 2d 3e 42 be bd 0f a1 3e
       0.5435915 -0.39920038 -0.1896903 0.3145732
0001e0 9d d4 06 3d 03 83 8d 3e f3 c6 b4 3d 41 1a 05 be
       0.032917608 0.27639017 0.08827009 -0.12998296
0001f0 9e 56 ec 3e 9d 03 68 bd 91 d4 d2 bd 49 cd 49 be
       0.46159834 -0.05664407 -0.1029445 -0.19707216
000200 3d ee 9b 3e 1a d2 0f 3f 59 63 99 be cd 8e 09 bf
       0.304552 0.56179965 -0.2995861 -0.5373352
000210 e1 6e 9a bc 02 29 16 be 92 a6 9a 3d 19 93 25 3e
       -0.0188517 -0.1466408 0.07551302 0.16169395
000220 20 0c 8e 3e 42 2d 45 3d d3 a9 e8 3d 00 6f ea be
       0.27743626 0.048138864 0.113605164 -0.4578781
000230 e5 79 e2 3e 97 99 93 bd 91 8b 50 3d 33 e7 4e 3e
       0.44233623 -0.07207029 0.05091435 0.20205383
000240 42 94 b2 3e f9 05 ba 3c 00 2f 23 be 25 b0 dd be
       0.34878737 0.022707926 -0.15935898 -0.4329845
000250 66 15 16 3e 73 d7 98 be c6 c9 27 be 92 5e d5 3e
       0.146566 -0.29851875 -0.16385564 0.41673714
000260 e2 da 0d bf b8 97 ff be 32 4b 77 3c 44 e6 8f 3e
       -0.55412114 -0.4992044 0.015093612 0.28105366
000270 9a 23 85 be 63 07 00 3e 6a aa 20 bd db 60 91 bc
       -0.26003724 0.12502818 -0.03922502 -0.01774638
000280 37 c2 aa 3e ce 5a 7c bd 79 42 40 bd e1 c9 62 3e
       0.333513 -0.061610036 -0.046938393 0.22147323
000290 5f 66 24 3e b4 37 60 be b4 45 f7 be 3f 53 e5 3e
       0.16054676 -0.21896249 -0.48295367 0.44790074
0002a0 62 29 e5 be bb 7d b1 3d c5 68 87 3e 93 6a 27 be
       -0.44758135 0.08666559 0.2644712 -0.16349249
0002b0 28 db 21 be 0e 42 7a 3d 03 35 b8 3e d9 1c 17 3e
       -0.15806258 0.06109815 0.35977945 0.14757098
0002c0 d6 40 46 bd 7b a2 04 be 9b 40 3a 3e 30 9a ac be
       -0.048401676 -0.12952606 0.18188708 -0.33711386
0002d0 48 db 88 3c 52 1f 1a be 97 e6 1c be 86 94 ac 3e
       0.016706124 -0.1505101 -0.15322338 0.33707064
0002e0 a3 30 4b bd 31 6b c3 3d c3 82 12 be a8 b0 f0 3e
       -0.04960693 0.095419295 -0.14307694 0.47009778
0002f0 68 05 84 be 42 bf d5 3e 54 bc bf bd cb 0e 98 be
       -0.25785375 0.4174748 -0.093620926 -0.29698786
000300 93 15 7f 3e 06 41 d4 bd d5 82 21 3f e9 e0 8a 3e
       0.24910574 -0.10363965 0.6309026 0.27124718
000310 6b 67 db 3e 81 d5 84 3c 9f ff 2c 3d de ce ea 3b
       0.4285234 0.016215088 0.042235967 0.007165774
000320 46 69 89 be 44 ec 31 be cd 7a 82 3e 87 43 85 3e
       -0.2683813 -0.17375284 0.25484315 0.26028082
000330 33 60 c6 3d 63 ec a9 be c2 f3 0c 3e 7c 34 eb be
       0.09686317 -0.3318816 0.13764861 -0.4593848
000340 f4 f5 a0 be 5e c9 4b 3c f7 64 ad 3d a5 c9 e8 3e
       -0.31437647 0.012438146 0.08466523 0.45466343
000350 6d c8 3f be 5c 20 76 3d 28 98 bb bc a1 b5 62 3e
       -0.187288 0.060089454 -0.022899702 0.22139598
000360 5c 14 80 3d 12 9e ce 3b a4 25 c6 bb f5 8c 8e 3e
       0.06253883 0.0063054645 -0.0060469676 0.27841917
000370 b0 87 ab 3e 25 23 d1 be ae 2f d0 be d1 74 30 3e
       0.3350196 -0.40847126 -0.40661377 0.17232062
000380 7e 7d 0e 3d 95 3a 50 be d8 20 c6 3e ba 3a d1 3d
       0.034787647 -0.20334847 0.38696933 0.10216279
000390 68 f0 ac 3e 6a 55 5f be fd 6b 6c be 0a b6 06 be
       0.33777165 -0.21809927 -0.2308807 -0.1315538
0003a0 8e e4 54 be 96 0f 9a 3e 9e b8 ec 3e 47 1f 2e be
       -0.20790312 0.30090016 0.46234602 -0.17004119
0003b0 45 41 54 be 4c 2b 8b be 74 74 26 3d 32 31 f7 be
       -0.20728023 -0.2718147 0.040638402 -0.4827972
0003c0 3c 37 c1 3e da 55 ec 3e 7a ca 1d be 50 d7 ac be
       0.37737453 0.4615925 -0.1540927 -0.3375802
0003d0 ad ac d7 3e af 26 7c be 93 35 08 be d7 1b 9d bd
       0.4212393 -0.24624132 -0.13301687 -0.07671326
0003e0 c9 79 58 3e 46 74 c7 3e f3 5f d7 bc b1 b1 da be
       0.21140207 0.38955897 -0.02629087 -0.42713693
0003f0 e9 0b 2c 3d 5b 6f 9d be b0 79 00 be 9a 8a 9f 3d
       0.042003546 -0.3074902 -0.1254642 0.07790108

rnn.bias_ih_l0 f4 [32]
000000 24 f3 a8 3d 5d b4 e6 3e 0d fd 03 be 33 58 3c 3e
       0.082495004 0.4505948 -0.128895 0.1839302
000010 ac e1 a5 3d 4d 78 f8 3d 2e a4 be be 12 5e 93 be
       0.08099684 0.121323206 -0.37234634 -0.28782707
000020 76 a3 9d 3e 97 f5 a6 3e d8 42 a2 bd fc 6f 29 3e
       0.30788773 0.32609245 -0.07922906 0.16546625
000030 0d aa f4 3d a3 1f 3d 3e 0a 71 14 3e d9 97 0e 3e
       0.11946497 0.184691 0.14496246 0.13925113
000040 41 b8 fc be 2e 3e 61 be 7d 49 4c 3c 60 39 05 3e
       -0.49359325 -0.21996376 0.012468693 0.13010168
000050 4d b8 b2 be b4 5e fb 3e 3f 83 ee 3d a0 98 8a 3e
       -0.34906235 0.4909569 0.11646127 0.2706957
000060 59 4f 4a be e5 87 ea 3e 80 ce cd 3d 32 25 16 be
       -0.19756831 0.45806804 0.100491524 -0.14662626
000070 fd d0 14 be 5d 65 68 3d 01 01 e0 be 57 e6 ca bd
       -0.14532848 0.056737293 -0.43750766 -0.09907215

rnn.bias_hh_l0 f4 [32]
000000 1d 78 26 3e e3 27 66 3e 73 3d c8 be 5a 63 ed 3d
       0.16256757 0.22476153 -0.39109382 0.115912154
000010 35 d4 c6 3d 5c 38 d9 3e 21 28 ee be bc 7b d9 be
       0.09708444 0.4242581 -0.4651499 -0.42477214
000020 92 fb d6 3d 8a 79 21 3e 76 3a d1 be af 06 6d 3e
       0.10497202 0.1576902 -0.40864915 0.23147081
000030 4c e0 4c be ee ae 5c 3d 91 8d c2 be c6 b9 c5 be
       -0.20007437 0.053877763 -0.37998632 -0.38618296
000040 c6 e3 ee bd 69 f1 e9 be aa 87 bd be c0 a0 e5 3e
       -0.11664538 -0.45691994 -0.37017566 0.44849205
000050 2b 11 aa be 0c fd d2 3e 88 bb c5 be 08 45 28 3e
       -0.33216223 0.41208684 -0.38619637 0.16432583
000060 e7 22 5f 3e f8 98 d3 3e 1f 5f 5f bd 5a 83 12 be
       0.21790658 0.41327643 -0.054534074 -0.14307919
000070 a8 a2 a5 3d 1a e3 34 3e cf cd dc bd c2 37 97 be
       0.08087665 0.17664757 -0.107814424 -0.29534727

out.weight f4 [1, 8]
000000 1c 2f d6 bd 98 96 a9 be 14 79 0e 3e 14 a2 31 3e
       -0.10458204 -0.33122706 0.13913375 0.17346984
000010 09 a1 d2 bd bc b4 8e 3e ef a2 f6 3d 88 66 28 3d
       -0.10284621 0.27872264 0.12042796 0.041113406
