ckpt/499.ckpt (torch_old, 3320 bytes, 5 tensors)

rnn.weight_ih_l0 f4 [32, 7]
0	0x3f0bc52e	0.5459775
1	0x3ebb2886	0.36554354
2	0x3f2c44d8	0.6729255
3	0x3ee69d99	0.45042112
4	0x3ee1159d	0.43961802
5	0x3d8e5b97	0.06951063
6	0x3f1151c9	0.5676542
7	0x3f06999b	0.52578133
8	0x3f26698f	0.6500482
9	0x3f608354	0.8770039
10	0x3f479044	0.77954507
11	0x3ef76604	0.4832002
12	0x3ea8426a	0.3286317
13	0x3ea8adf4	0.32945216
14	0xbf39cf80	-0.72582245
15	0xbe17ac9c	-0.14811939
16	0xbf7f245a	-0.99664843
17	0xbf93d793	-1.1550163
18	0xbf2b51ee	-0.6692189
19	0x3f0d95b1	0.55306536
20	0x3f2494bc	0.6428945
21	0x3f57306a	0.8405825
22	0x3f393b93	0.7235653
23	0x3e84f632	0.25969082
24	0x3d9ecffc	0.077545136
25	0x3e2e4476	0.17018303
26	0x3f009807	0.50231975
27	0x3e9298ab	0.286321
28	0x3fc30a17	1.5237454
29	0x3f63008b	0.88672704
30	0xbe20bed3	-0.15697794
31	0xbf52fbaa	-0.8241526
32	0x3f514729	0.81749207
33	0xbf08c5bd	-0.53426725
34	0x3f73f21d	0.9529131
35	0x3f576f63	0.8415434
36	0xbf0bce43	-0.54611605
37	0x3ebdeaa7	0.37093088
38	0x3f637330	0.8884764
39	0x3f6ffa90	0.93741703
40	0xbf23e694	-0.6402371
41	0xbfbd1926	-1.47733
42	0x3e88777c	0.2665366
43	0xbf0fdf2c	-0.5619991
44	0x3e8923d2	0.2678514
45	0xbe661dcf	-0.22472309
46	0xbee2016f	-0.4414172
47	0xbec28ae0	-0.37996578
48	0xbf492996	-0.7857908
49	0x3dd19b0b	0.1023465
50	0x3e21bb11	0.15794016
51	0xbeb7db06	-0.3590929
52	0xbed1ee4d	-0.41002122
53	0x3e70e377	0.23524271
54	0xbd9a6dd8	-0.07540482
55	0xbdcd971b	-0.10038587
56	0x3ea19bb4	0.31564105
57	0x3d9a2aec	0.07527718
58	0x3d474c62	0.04865683
59	0x3e199d31	0.1500137
60	0x3e43d0b8	0.19122589
61	0x3ed99418	0.424958
62	0x3eccf9e0	0.4003439
63	0x3f10f4fc	0.56623816
64	0x3f148f4d	0.5803116
65	0xbd802017	-0.06256121
66	0x3e8c85fa	0.27445966
67	0x3eaca7c7	0.33721754
68	0x3eab183a	0.3341692
69	0x3eb99a23	0.3625041
70	0xbf0f45d5	-0.5596593
71	0x3ec11799	0.37713316
72	0xbe808c73	-0.25107154
73	0xbf02312f	-0.508563
74	0xbe97ef68	-0.2967484
75	0x3e81db12	0.2536245
76	0x3fb98f33	1.4496826
77	0x3e9f0137	0.31055614
78	0x3e4a4587	0.19753085
79	0x3e8d8434	0.27639925
80	0x3e13fee8	0.14452708
81	0x3e82505c	0.25451934
82	0x3ef7cf52	0.4840036
83	0x3ebcad89	0.36851147
84	0x3f47cdcb	0.7804839
85	0x3f1cd128	0.6125665
86	0x3e289b72	0.16465548
87	0x3d8b54df	0.06803297
88	0x3e711498	0.23543012
89	0xbf6a2a18	-0.9147048
90	0x3f6d4eb8	0.9269824
91	0x3ef7047b	0.48245606
92	0x3ec3647c	0.381626
93	0x3ed871a6	0.42274207
94	0x3f707502	0.9392854
95	0x3eabb0eb	0.33533415
96	0xbea25e2a	-0.31712466
97	0xbf53e128	-0.82765436
98	0x3ef1a2b6	0.4719445
99	0x3caeef6b	0.021354398
100	0x3ed44137	0.41456005
101	0x3dc35d1b	0.09539243
102	0xbe6c774f	-0.23092388
103	0xbe96f19d	-0.2948121
104	0xbe1e53aa	-0.15461603
105	0xbef43601	-0.47697452
106	0x3d7be8da	0.06150136
107	0xbeb8ffd3	-0.36132678
108	0xbef54809	-0.4790652
109	0x3e0b624a	0.13611713
110	0xbeee5d9d	-0.46555796
111	0xbe24ac6d	-0.160814
112	0xbebc6328	-0.367944
113	0xbef24144	-0.4731542
114	0x3b942662	0.004521177
115	0xbefc7070	-0.49304533
116	0xbed52468	-0.41629338
117	0x3c426917	0.011865876
118	0xbe9261f0	-0.28590345
119	0xbcc5512e	-0.024086561
120	0xbeff7633	-0.49894866
121	0xbe0e8ca5	-0.13920839
122	0xbec4a994	-0.38410628
123	0xbec325b3	-0.381147
124	0xbf1e4d23	-0.6183645
125	0xbef7c055	-0.48388925
126	0x3ddc5d72	0.10760011
127	0x3e907bd3	0.2821947
128	0xbc8a749d	-0.016901309
129	0x3e4e4720	0.2014432
130	0x3ed82538	0.42215896
131	0xbeb1dc0d	-0.34738198
132	0xbf70afd9	-0.9401832
133	0x3defd3fd	0.117103554
134	0x3ea54d04	0.3228532
135	0x3ee655ba	0.4498728
136	0x3d504ed0	0.05085641
137	0x3df89de4	0.1213949
138	0x3e3619b3	0.17783241
139	0xbd976ec0	-0.07394171
140	0xbd5820d0	-0.052765667
141	0xbe8b32a4	-0.27187073
142	0xbe54a7e7	-0.20767175
143	0xbddca749	-0.107740946
144	0xbf0d8c89	-0.55292565
145	0xbebe0861	-0.37115768
146	0xbd20c1d6	-0.039247356
147	0x3e2733dc	0.16328377
148	0x3f0d44e6	0.55183256
149	0x3e9d4c58	0.30722308
150	0x3eabbb4d	0.33541337
151	0x3dfee125	0.12445287
152	0xbde9d4b7	-0.11417525
153	0x3e354fb4	0.17706186
154	0xbe176dc7	-0.1478797
155	0xbdf802cd	-0.12109909
156	0xbe170d7b	-0.14751236
157	0xbf024ac8	-0.5089536
158	0xbe174e66	-0.14776
159	0x3ee142c4	0.4399625
160	0x3e6d84e2	0.23195222
161	0x3f05699e	0.52114284
162	0x3e9581f1	0.292007
163	0xbdbd8358	-0.092535675
164	0x3bafc132	0.005363607
165	0x3bac5cc9	0.0052600843
166	0x3e1b115f	0.15143345
167	0x3d81005a	0.06298895
168	0x3d82b13f	0.06381463
169	0x3ec37be0	0.38180447
170	0xbe93ad84	-0.2884332
171	0xbed49ca5	-0.4152576
172	0x3ef484a6	0.47757453
173	0xbd8fae68	-0.07015687
174	0x3dec1e26	0.11529188
175	0xbe5f48f8	-0.21805179
176	0xbe0caf61	-0.13738777
177	0xbea78e8b	-0.3272594
178	0x3eb3630b	0.350365
179	0x3f0ccd7e	0.55001056
180	0xbcb03d23	-0.021513527
181	0x3e3d8ce0	0.18510771
182	0xbf36f761	-0.7147122
183	0x3f5315a5	0.824549
184	0xbeb14807	-0.34625265
185	0xbf46f3a4	-0.77715516
186	0xbf8631f4	-1.0483994
187	0x3e91f9b0	0.2851081
188	0x3f09fb6c	0.53899264
189	0x3e9858d9	0.29755285
190	0x3e94a183	0.29029474
191	0xbeddebe3	-0.4334403
192	0xbea4acbb	-0.32163033
193	0x3e600c8a	0.21879783
194	0xbe916386	-0.28396243
195	0xba9c82f3	-0.0011940881
196	0x3f7968d2	0.9742557
197	0x3ed52202	0.41627508
198	0x3e17d11d	0.14825864
199	0x3e6c2c78	0.23063838
200	0x3f50963f	0.8147926
201	0x3d9a7aa9	0.07542927
202	0xbe910475	-0.28323713
203	0xbcd4f8e0	-0.02599758
204	0x3ed4ca89	0.41560772
205	0xbf1cff7c	-0.6132734
206	0xbee20042	-0.44140822
207	0x3dcd574e	0.10026418
208	0x3ef63c0d	0.4809269
209	0x3f4f0793	0.8087093
210	0xbe92a611	-0.28642324
211	0xbe248239	-0.16065301
212	0x3e4da353	0.20081834
213	0x3e8a6b05	0.27034774
214	0xbea2a69e	-0.31767744
215	0xbd90c9ed	-0.07069764
216	0xbe819378	-0.25307822
217	0x3e076776	0.13223061
218	0xbea585e6	-0.3232872
219	0x3e2b8379	0.16749372
220	0x3e235620	0.15950823
221	0xbe7f6f10	-0.2494471
222	0xbe7d7c9c	-0.24754566
223	0xbf0a76c1	-0.54087454

rnn.weight_hh_l0 f4 [32, 8]
0	0xbe3f5ff2	-0.18688944
1	0xbd2665b9	-0.040624354
2	0x3e2d7816	0.1694034
3	0x3ef828b0	0.48468542
4	0x3df9da8c	0.12199888
5	0xbe078384	-0.13233763
6	0x3ea33d40	0.31882668
7	0xbf0bbffb	-0.54589814
8	0xbf06fb14	-0.52726865
9	0xbf0a7757	-0.5408835
10	0x3e134566	0.14381942
11	0x3cbe5c71	0.023237439
12	0xbea2c01e	-0.317872
13	0x3ef4f8d4	0.4784609
14	0x3ea6bdd0	0.3256669
15	0x3dc0d499	0.0941555
16	0x3f386047	0.7202191
17	0x3f03be0f	0.5146188
18	0xbf43bd7f	-0.76461023
19	0xbd7338fe	-0.059380524
20	0xbcf0a253	-0.029374277
21	0xbf58d20f	-0.84695524
22	0xbe086950	-0.13321424
23	0xbe8938d5	-0.26801172
24	0x3db4bb43	0.0882478
25	0x3e3e778a	0.18600288
26	0x3d64f239	0.055895064
27	0x3eaf2ede	0.34215444
28	0xbec9afd3	-0.39391956
29	0x3e9c3756	0.30510968
30	0x3e9572d7	0.29189178
31	0xbe6e1352	-0.23249558
32	0x3fa60840	1.2971268
33	0x3fff2dad	1.9935814
34	0x3f4be1cc	0.79641414
35	0xbfa1e59a	-1.2648194
36	0x3eedff65	0.46483913
37	0xbfb52903	-1.4153141
38	0x3fe89cd8	1.8172865
39	0xbfeb462e	-1.8380792
40	0x3eaa4dc5	0.33262458
41	0x3efbc784	0.49175656
42	0x3fc8e5c1	1.5695115
43	0xbf427614	-0.7596142
44	0x3e9a3115	0.30115572
45	0xbd36263a	-0.04447005
46	0x3f3a96b1	0.72886187
47	0xbf5eab11	-0.86979777
48	0xbe7dbbf8	-0.24778736
49	0x3e1bc910	0.15213418
50	0x3ee6cb26	0.45076865
51	0x3e86533d	0.2623538
52	0x3f43a5ae	0.7642468
53	0xbe699f1d	-0.22814603
54	0x3d377e8a	0.04479841
55	0x3e120247	0.14258681
56	0x3e7043b1	0.23463322
57	0x3f1bff84	0.6093676
58	0xbdc1aab5	-0.09456388
59	0xbe85ce65	-0.2613403
60	0x3db76672	0.08955087
61	0xbd5638de	-0.052300327
62	0xbe6105e7	-0.21974908
63	0x3bc8917b	0.0061208582
64	0xbec55bc6	-0.3854658
65	0xbf0320d3	-0.5122196
66	0x3eca9771	0.39568666
67	0xbd4947b8	-0.049140662
68	0xbd03f605	-0.032217044
69	0x3ef88bed	0.48544255
70	0xbcbf797c	-0.023373358
71	0xbf0f64b0	-0.5601301
72	0xbeeded92	-0.46470314
73	0x3db7b3cf	0.08969843
74	0x3b82a630	0.0039870963
75	0x3e9dc2df	0.30812737
76	0xbe006819	-0.1253971
77	0x3db50b2b	0.08840021
78	0x3dad6b7c	0.08467767
79	0xbe87c9f4	-0.26521266
80	0xbe370c64	-0.1787582
81	0x3e2f5987	0.17123996
82	0xbf503aa6	-0.8133949
83	0x3ec2a4ca	0.3801635
84	0xbb526002	-0.0032100682
85	0x3ebbe226	0.36695975
86	0xbea92eac	-0.3304342
87	0x3e932c5c	0.2874478
88	0xbec95052	-0.39319092
89	0xbd29aa39	-0.041422103
90	0x3e6209b1	0.2207401
91	0x3de28a5d	0.11061547
92	0xbe3a0477	-0.18165766
93	0xbd5e724c	-0.05430822
94	0xbe2e754b	-0.17036931
95	0x3d5a4803	0.053291332
96	0xbd4e3718	-0.05034551
97	0x3ebf0065	0.37304989
98	0x3f347aec	0.70500064
99	0xbb8cc266	-0.004295635
100	0xbe97692e	-0.29572433
101	0x3e62ce5b	0.22149031
102	0x3d7c07a7	0.061530735
103	0xbf3b5933	-0.7318298
104	0xbf09bf95	-0.53807956
105	0xbeeda53a	-0.4641512
106	0x3f01f367	0.5076203
107	0xbd1a8495	-0.037724096
108	0x3e55b9ef	0.2087171
109	0x3f223885	0.6336749
110	0x3d857ac9	0.0651756
111	0xbe6d5f87	-0.23180972
112	0xbf0e41e6	-0.55569303
113	0x3e196cec	0.14982957
114	0xbdab0c35	-0.08351938
115	0x3e88ba9b	0.2670487
116	0x3fa2e592	1.2726309
117	0xbe8ad6b2	-0.27116925
118	0xbedde520	-0.4333887
119	0x3ecb498c	0.3970455
120	0x3cb17a67	0.021664811
121	0x3e8e2348	0.27761292
122	0x3dac4930	0.08412397
123	0xbdf63fc3	-0.1202388
124	0x3ed217c0	0.41033745
125	0xbbc992ef	-0.006151549
126	0xbdcf1220	-0.10110879
127	0xbe48839f	-0.1958146
128	0x3e99dd92	0.30051857
129	0x3f0ee271	0.5581427
130	0xbe996a3e	-0.2996387
131	0xbf089bb0	-0.5336256
132	0xbcbcf03a	-0.023063768
133	0xbe0f9920	-0.14023256
134	0x3d9741f4	0.073856264
135	0x3e28df9d	0.16491552
136	0x3e8a1113	0.26966152
137	0x3d2c6f31	0.042098228
138	0x3de86520	0.11347413
139	0xbee64535	-0.44974676
140	0x3edd853e	0.43265718
141	0xbd7a4579	-0.06110141
142	0x3d4c310a	0.049851455
143	0x3e5040de	0.20337245
144	0x3d2c4e8e	0.042067103
145	0xbe4364ab	-0.1908137
146	0x3da573e4	0.08078745
147	0xbe039a25	-0.1285177
148	0x3d8d5347	0.069006495
149	0x3e54c47d	0.2077808
150	0xbdcbfc5c	-0.09960243
151	0x3eb8c904	0.36090863
152	0xbf0d35d2	-0.5516025
153	0xbefead9f	-0.49741837
154	0x3c6e52d4	0.014546115
155	0x3e8ea80b	0.27862582
156	0xbe838e5b	-0.25694546
157	0x3df950e7	0.12173634
158	0xbd1f30c3	-0.038864862
159	0xbc951437	-0.018198116
160	0x3e35e643	0.17763619
161	0xbe7d225e	-0.24720141
162	0xbe1687a5	-0.14700182
163	0x3ec308a9	0.38092545
164	0x3d992c41	0.07479144
165	0xbdaae1a9	-0.083438225
166	0xbf053ce3	-0.5204603
167	0x3f0c572f	0.5482053
168	0xbee24c78	-0.44198966
169	0x3db7995b	0.08964797
170	0x3e8e7a0d	0.27827492
171	0xbe237f3e	-0.15966508
172	0xbe0c1430	-0.13679576
173	0x3d97f8ad	0.07420478
174	0x3ebe10ef	0.37122294
175	0x3e13cc10	0.14433312
176	0xbe97167c	-0.29509342
177	0xbe842799	-0.2581146
178	0x3e12ae53	0.14324312
179	0xbe725707	-0.23666011
180	0xbe0595f5	-0.13045485
181	0x3ea67279	0.3250921
182	0xbd6d34b1	-0.05791158
183	0x3ea188e2	0.31549746
184	0xbd20c094	-0.039246157
185	0x3dd7b1c6	0.105319545
186	0xbe193725	-0.14962442
187	0x3eebb85e	0.46039099
188	0xbe851630	-0.2599349
189	0x3ed7c5d6	0.42143124
190	0xbdb9b36f	-0.09067427
191	0xbe98a5e9	-0.2981408
192	0x3eeee716	0.4666068
193	0x3e496d67	0.1967064
194	0x3f67cde6	0.9054855
195	0x3d3111ea	0.043229975
196	0x3f09c63b	0.538181
197	0xbcfae459	-0.030626463
198	0x3f1b7463	0.6072447
199	0xbd49dc68	-0.04928246
200	0xbdcd9cec	-0.10039696
201	0x3d500d43	0.050793897
202	0x3f2dd50c	0.6790321
203	0x3d95b2a0	0.07309461
204	0x3e343601	0.17598726
205	0xbe67d830	-0.22641063
206	0x3e9a03f5	0.30081144
207	0xbebf6892	-0.37384468
208	0xbea14227	-0.31495783
209	0x3e0e4177	0.1389216
210	0xbe34d4b6	-0.17659268
211	0x3ebedc92	0.37277657
212	0xbe56c6f0	-0.20974326
213	0xbe1084ec	-0.14113206
214	0x3e9e4070	0.30908537
215	0x3dd0cdf4	0.101955324
216	0x3eae7b89	0.34078625
217	0x3ec206d7	0.37895843
218	0x3e77a5e2	0.24184373
219	0xbc8982ec	-0.016786061
220	0x3ee92122	0.4553309
221	0xbf133d9e	-0.57515895
222	0xbe59aec5	-0.21258076
223	0x3da43ee9	0.08019812
224	0x3e74aefb	0.23894875
225	0x3dec52b9	0.115392156
226	0x3f3b705a	0.7321831
227	0xbdec075f	-0.115248434
228	0x3ed485c9	0.4150832
229	0xbeaaa842	-0.33331496
230	0xbd59702c	-0.05308549
231	0xbe6a2c6d	-0.2286851
232	0x3c7aed3c	0.01531535
233	0x3f2c5b77	0.67327064
234	0x3f03ebea	0.5153185
235	0xbed3da22	-0.4137736
236	0xbdddfd63	-0.10839345
237	0xbe7d3a75	-0.24729331
238	0x3f79d2d5	0.9758733
239	0xbf08d63a	-0.53451884
240	0xbe102bab	-0.14079158
241	0xbd51b698	-0.051199526
242	0x3dbc4f3a	0.09194799
243	0x3da52f68	0.08065683
244	0x3ed02558	0.4065349
245	0x3e63a612	0.2223132
246	0xbecd7043	-0.4012471
247	0xbbfd86b2	-0.007737004
248	0x3e515a0b	0.20444505
249	0x3ecffb75	0.40621534
250	0xbd0ac989	-0.033883605
251	0xbed2d238	-0.4117601
252	0xbcff4f47	-0.031165732
253	0xbe66de09	-0.22545637
254	0xbdf84c6b	-0.121239506
255	0x3dabec05	0.083946265

rnn.bias_ih_l0 f4 [32]
0	0x3e350eae	0.17681381
1	0x3f1c9684	0.6116717
2	0xbed9f73d	-0.4257144
3	0x3eba91da	0.364394
4	0xbed1ae5f	-0.40953347
5	0xbe5ef5a4	-0.21773392
6	0xbeba88e7	-0.36432573
7	0xbe528d86	-0.205618
8	0x3e982078	0.29712272
9	0x3e9cbebb	0.30614266
10	0x3e52bb0b	0.20579164
11	0x3e31131a	0.17292443
12	0x3d182a3d	0.037149657
13	0x3eed7291	0.4637647
14	0x3e9421a2	0.2893191
15	0x3e10c3e5	0.14137228
16	0xbf05d0e6	-0.5227188
17	0xbe8efc87	-0.27927038
18	0x3d6d7c30	0.057979763
19	0x3e2fc7e0	0.1716609
20	0xbeb2bf63	-0.3491164
21	0x3f03ffbf	0.5156211
22	0x3e2452ab	0.1604716
23	0x3e94793b	0.28998742
24	0xbe6e65e4	-0.23281056
25	0x3f1cae90	0.6120386
26	0x3d1369c5	0.03598954
27	0xbe4d40da	-0.2004427
28	0xbd8f3363	-0.06992223
29	0x3e321608	0.17391217
30	0xbea523f7	-0.32254001
31	0xbcacdd18	-0.02110152

rnn.bias_hh_l0 f4 [32]
0	0x3e83869f	0.25688645
1	0x3ec58c98	0.38583827
2	0xbf301b07	-0.6879124
3	0x3e97bea1	0.29637626
4	0xbec971bd	-0.39344588
5	0x3dae7da2	0.08520056
6	0xbeea0cd3	-0.4571291
7	0xbeaf646d	-0.34256306
8	0x3dc0ef86	0.094206855
9	0x3e0d0bc0	0.13774014
10	0xbdfd30ff	-0.12362861
11	0x3e74a9cc	0.23892897
12	0xbe90955a	-0.28238946
13	0x3eaa78a5	0.3329517
14	0xbe7148d3	-0.23562936
15	0xbec4a3b2	-0.3840614
16	0xbe1544d1	-0.14577033
17	0xbf042775	-0.51622707
18	0xbea63a72	-0.32466465
19	0x3efae7fb	0.49005112
20	0xbeaa1841	-0.3322163
21	0x3edf9dd2	0.43675095
22	0xbeaf3308	-0.3421862
23	0x3e3c0622	0.18361714
24	0x3e3b0c56	0.18266425
25	0x3f113717	0.56724685
26	0xbdf3c911	-0.11903585
27	0xbe499f02	-0.19689563
28	0x3e200894	0.15628272
29	0x3e966fe6	0.29382247
30	0x3bea6634	0.007153297
31	0xbe5e97fe	-0.21737668

out.weight f4 [1, 8]
0	0xbde50617	-0.11182802
1	0xbe8b63d5	-0.27224603
2	0x3e6e02d7	0.23243271
3	0x3e38fc87	0.18065082
4	0xbeac23af	-0.33620974
5	0x3f0227c7	0.50841945
6	0x3dde4562	0.108530775
7	0x3e2f7652	0.1713498
