ckpt/59.ckpt (torch_old, 3319 bytes, 5 tensors)

rnn.weight_ih_l0 f4 [32, 7]
00000000: 42bb 9a3e c839 703e e824 013f 1f3f 9d3e
00000010: 49d8 7f3e 34b4 af3c d11b 0e3f ed5a 693e
00000020: 59a2 f03e 20bf 263f 9972 133f cd6a 863e
00000030: 70d2 703e 9645 913e 7325 50be 36ea e1bd
00000040: d386 cdbe ef9b a4be 98fe a43d 35f2 e93e
00000050: 8c0c 643e 557e 033f 860e 033f a413 763c
00000060: a5ca 0fbe 855b adbd a8b1 c53e 1e76 813e
00000070: 90f7 e83e c9f9 5c3d 591b b73e e371 3a3e
00000080: 7f90 d63e f4df 36be e67f 5b3b 8e85 0c3f
00000090: 0898 1c3c 864f a23e 4479 1f3f aafd c33e
000000a0: 82f4 61bd 305c 38be 88a4 4fbb ae20 cabe
000000b0: 8acd dbbd b4ab a2be 29d7 02bf 0d99 a2be
000000c0: 743c 98be 1dba 70bd d003 133d 988c e1be
000000d0: 8bd1 fdbe b95b dd3d b70b f4bd 1157 aebd
000000e0: 709e 9e3e ef95 a23d 67d2 4e3d da30 1f3e
000000f0: c2fe 3c3e a809 df3e 6dd7 d13e 4878 0e3f
00000100: 585f 163f bcc6 70bd 227f 913e bf1a a73e
00000110: b050 b43e b0cd c03e 5bb1 debe 2d76 e9bd
00000120: 3f6c 84be 39fc d3bd e683 243e 1d63 a3be
00000130: 4700 983e 6b0d a63e 5c48 483e 7f55 903e
00000140: a5ec 1d3e e775 813e 0d22 ec3e 03c5 ba3e
00000150: e9e7 3cbe 3448 853d 09a5 743e b00a f73d
00000160: a847 90bc 2a69 c9be 5696 6b3e 29f1 903e
00000170: 830f c13e fb45 983d f46d fb3e 6748 f1bd
00000180: f5e9 cfbe 60ec 75be 1d29 5d3d 3e90 ab3d
00000190: 57b4 ef3d 8281 f9bd 43f1 97be 2803 93be
000001a0: e96f 3e3e 7b33 f5be d705 533d 7a7b b5be
000001b0: 51c2 f2be 2740 053e 4fce edbe 05c8 1dbe
000001c0: c4db 9cbe 9d95 e0be 6665 4a3d 33af e7be
000001d0: 89c4 bdbe fe85 e03c 58f7 8dbe a00d 7d3d
000001e0: d368 dfbe 90ed 8fbd 0bf2 a3be 65ab a0be
000001f0: 18f4 12bf d108 f0be 976c fa3d ed24 063d
00000200: 88ba 9bbe e518 db3d fda6 503d 39cd 81bc
00000210: af2f 93be 24d0 583d 7889 8e3e c45b cc3e
00000220: 85af 993b ed78 933d c065 183e 4700 aebd
00000230: a51d 9d3c b199 49be 1ac7 81be 6a07 0dbe
00000240: 9556 f0be dfcb 9bbe fe66 5ebd 3211 c03d
00000250: ef5b 093f 63a7 7e3e fd68 903e 71da 6c3d
00000260: e0c0 d1bd 366c 763e e8c8 973d 73d3 8dbe
00000270: bbd7 4dbc f7e3 e4be 75b2 4fbe 08ee 843d
00000280: e454 193d 3d00 fd3e ca97 883e 8ede e2bd
00000290: d3f5 42bc 7c21 9dbc 48de 0e3e d738 723d
000002a0: 6e5b c73e cf6d c33e 15fa b53e 764c 4fbd
000002b0: 46fd 143f c8bd 2bbe 5498 86bd 6c5b e93d
000002c0: 72b9 e2bd 2a94 ae3e eb7c 263f 0fb2 043f
000002d0: 80ac 88be 36aa 183e 8204 f7be e531 703e
000002e0: d5de 53bc 00e2 d7bd e3a5 f2be 20f0 ea3c
000002f0: 9381 fbbd d9a8 fb3e ba34 973e 9b88 0f3e
00000300: e1f9 3c3d a1c3 aa3e decd c7be 6e9f d8be
00000310: 9851 c83e 22b4 743e d5f9 da3e 153d 7a3e
00000320: ceac 023f 1550 98bb b0da 73be 08e8 7f3e
00000330: c4e5 8bbc 7003 cc3e 3adf c63d cf4b 8d3e
00000340: a07e 5b3d 4c23 0d3e 50c7 fbbe 7e55 2dbe
00000350: 1e49 e3be 6026 613d 31a7 17bf 2b4e 3dbe
00000360: 1c6f d0bd b231 8ebc 77db ddbe 77a8 c23d
00000370: 9cf5 a43d 00d1 babe 63da 93be 66e5 05bf
0.3022099 0.23459542 0.5044694 0.3071222 0.2498485 0.021448232 0.55511194 0.22788592
0.4699886 0.65135384 0.5759674 0.26253358 0.23517776 0.28373402 -0.20326786 -0.11031
-0.40141925 -0.32150218 0.080563724 0.45692602 0.22270411 0.5136464 0.51194036 0.015019331
-0.14042147 -0.084647216 0.38612103 0.2528543 0.45501375 0.05394915 0.35763052 0.18207507
0.41907117 -0.17858869 0.0033492981 0.5489129 0.009557731 0.31701297 0.6229441 0.38279468
-0.05516482 -0.18003917 -0.0031683762 -0.39478058 -0.10732563 -0.31771624 -0.5110956 -0.31757393
-0.29733622 -0.05877124 0.035892308 -0.44052577 -0.4957393 0.1080851 -0.11916297 -0.085127
0.30980253 0.07938754 0.050493624 0.15545979 0.18456557 0.43562055 0.4098467 0.55652285
0.58739233 -0.058783278 0.28417307 0.32637593 0.3521781 0.37656927 -0.43494686 -0.11399493
-0.25863835 -0.10350842 0.1606594 -0.31911555 0.29687712 0.32432112 0.19558853 0.28190228
0.15422304 0.25285265 0.4611973 0.36478433 -0.18447842 0.06507912 0.23891081 0.12062585
-0.017612293 -0.39338046 0.23006567 0.2830899 0.37707147 0.07435223 0.49107325 -0.11781388
-0.40608183 -0.24015951 0.053994287 0.083771214 0.11704319 -0.12182905 -0.29676256 -0.28713346
0.18597378 -0.4789084 0.05151924 -0.35445768 -0.47413877 0.13012753 -0.46446463 -0.15408333
-0.30636418 -0.43864146 0.049413107 -0.45250854 -0.37064007 0.027407642 -0.2772777 0.061780572
-0.43634662 -0.07027733 -0.32020602 -0.31380764 -0.5740371 -0.46881726 0.12227743 0.03275006
-0.3041575 0.10698108 0.050940502 -0.015844928 -0.28747317 0.052932873 0.27839255 0.39913762
0.004690113 0.07200799 0.14882565 -0.08496147 0.019179175 -0.19687535 -0.25347215 -0.1377236
-0.46941057 -0.3042898 -0.05429744 0.0937828 0.53655905 0.2486854 0.282051 0.05782551
-0.10241866 0.24064717 0.07411367 -0.27700385 -0.012563641 -0.44705173 -0.2028292 0.06490713
0.037434474 0.49414244 0.26678306 -0.11077605 -0.011899429 -0.019181006 0.13951981 0.059136238
0.38936943 0.38169715 0.3554236 -0.05061003 0.58198965 -0.16771615 -0.06572023 0.113943905
-0.11070527 0.34097415 0.6503436 0.51834196 -0.26694107 0.1490868 -0.48245627 0.23456533
-0.012931545 -0.10541153 -0.47392187 0.028678954 -0.12280574 0.49152258 0.29532415 0.14016955
0.04613674 0.33352378 -0.39024252 -0.42309135 0.3912475 0.2389684 0.42768732 0.24437363
0.5104493 -0.0046482184 -0.23813891 0.24990857 -0.017077334 0.39846373 0.09710546 0.275969
0.053587556 0.13782996 -0.491755 -0.16927144 -0.4439172 0.054968238 -0.5923949 -0.1848685
-0.101774424 -0.017357681 -0.433315 0.09504788 0.08054659 -0.3648758 -0.28877553 -0.5230316

rnn.weight_hh_l0 f4 [32, 8]
00000000: 5089 51be 6778 78bd 1830 2d3e d252 003f
00000010: a862 db3d 09d5 d6bd 25d6 983e 6893 04bf
00000020: 5190 0cbf eabe 0ebf c8cb 123e 187c 353d
00000030: bae4 aebe de0a 033f 32d9 a43e 9d10 cd3d
00000040: 112a ae3e 70bf 953d 5b22 debe eb2d ae3e
00000050: c22b 5fbe 440d a9be 9b44 31be 412a 9cbd
00000060: f34b a33d 2ce1 323e 6d9d 983d b7e7 b23e
00000070: 5ad5 ccbe 2719 a33e 1138 913e 19d9 63be
00000080: ab54 21bd 4087 253e 3a6c 273e bbfd d03d
00000090: 7634 723e ba65 e0be 24f9 b83d 111f 88be
000000a0: e392 67be d058 9fbd 59ed fb3e 6746 42be
000000b0: e024 92be fbe3 6f3e 9025 ba3d 630d 05bf
000000c0: d6e5 a53c d05a bf3e 4687 513e 42ac 09bd
000000d0: fabd d53e bf69 84be 38a6 353e 212f 903d
000000e0: a697 623e a85e 143f 7473 aebd ad90 83be
000000f0: 2918 1f3e 03a2 e1bd f420 68be 3145 073b
00000100: 527d c9be a1de 05bf cf22 d03e d05d 2ebd
00000110: 8456 0fbd 86d7 fe3e ca74 13bd 9fab 0bbf
00000120: 063d fabe 5de6 853d 8485 163c 4633 a93e
00000130: 9161 10be c11b 023e aa50 9e3d 60ee 82be
00000140: b57a 863c 2ab5 bb3e e175 9b3c a677 7b3e
00000150: 283a 663e e312 963e 3c9b 88be f539 883e
00000160: ee73 c5be fc12 1abd e60f 8b3e 69e8 ce3d
00000170: 39c4 31be e380 87bd 6540 35be 708b 643d
00000180: f554 63bd c241 8d3e 0535 0c3e 3cb2 2f3e
00000190: 4ca1 d23e 4715 f2bd e4ef a13e 666b 04bf
000001a0: d19c 71be 33ae ebbd 2f0d 313e 0556 b5be
000001b0: 7438 8d3e 656d 433e 27cb 27be de74 dbbe
000001c0: 83e1 4fbc ef9c f43e 7022 60be a3ef aebe
000001d0: b481 0c3f ec30 cfbe b6e8 41be 63db a03e
000001e0: 33a6 083d 709d 8d3e 68d5 b43d 5ee2 05be
000001f0: 48ba ec3e 8bdd 69bd dbcd d2bd bfd0 49be
00000200: 9908 9c3e 8adc 0f3f b64c 99be c19b 09bf
00000210: 5b78 98bc f877 16be 06c1 9a3d f27f 253e
00000220: ee34 8e3e 11fe 453d 35c3 e83d 6d9b eabe
00000230: 80c5 e23e 3079 94bd d2aa 503d 2fe0 4e3e
00000240: cbaa ae3e af67 803c 9243 25be 1067 d4be
00000250: d769 0f3e c107 94be eacb 29be f96f d63e
00000260: c104 0ebf 29c3 ffbe 4183 753c 4045 903e
00000270: 9f9d 85be 78c9 003e 64c6 20bd cd26 91bc
00000280: b91a ab3e 052c 78bd f867 35bd 9340 613e
00000290: 25de 243e 7e51 61be 2d81 f6be 8b71 e43e
000002a0: 9d2c e6be 186a ae3d 75f4 863e de2d 24be
000002b0: 1b31 24be 55cc 823d 25fc b73e 78a3 173e
000002c0: a5c3 58bd de94 07be e630 393e fb3e a9be
000002d0: 3a37 4f3c 9a6c 15be a13f 1dbe bdc1 ac3e
000002e0: 4a70 4abd 1c9d c33d 1079 12be 4989 f03e
000002f0: aae4 83be 91a1 d53e 65b1 bfbd 9d11 98be
00000300: f6bd 823e ad57 c9bd 37df 253f 1481 8a3e
00000310: e08b dd3e ac43 293c 609b d03c 2c98 973c
00000320: ef05 85be 542c 2cbe d766 893e 81a1 863e
00000330: 3d9e d53d a7fe adbe acef 013e a682 e4be
00000340: 54df acbe bb81 07bc 7e52 823d 9206 ee3e
00000350: de8c 52be b542 ab3d be1f a6bc ba6b 603e
00000360: b416 863d a8f9 0b3c 4a59 823b 833c 8e3e
00000370: 2627 ac3e c24c d2be 94ac d5be 383f 383e
00000380: eb70 223d 32eb 4abe c63c cf3e 4d75 cc3d
00000390: 951b ae3e 4619 64be e6d9 77be 075c 01be
000003a0: a39c 4fbe 5958 9c3e 6d67 f33e 02bb 2fbe
000003b0: b4f6 50be 48a4 8dbe f495 f53c 40e3 f2be
000003c0: 2184 c53e 8f42 f03e ddff 19be dde1 b3be
000003d0: c43b db3e 4c44 83be 93f1 06be 0e41 a0bd
000003e0: fed9 583e 218f c73e a8b4 d7bc 2f44 dbbe
000003f0: d806 2e3d 31a6 9dbe e96f 00be 7b78 9f3d
-0.20462537 -0.0606617 0.16912878 0.50126374 0.107121766 -0.10489852 0.2985088 -0.51787424
-0.5490771 -0.5576006 0.14335549 0.0443078 -0.3415888 0.51188457 0.32196957 0.10012934
0.3401647 0.073119044 -0.43385586 0.34019408 -0.21794036 -0.33017933 -0.17311327 -0.07625247
0.079734705 0.17468709 0.074519016 0.3494241 -0.40006524 0.31855127 0.28363088 -0.22250785
-0.039387386 0.16164875 0.16349879 0.10204645 0.23652825 -0.4382761 0.09031895 -0.26586202
-0.22614627 -0.077806115 0.4920452 -0.18972169 -0.28543758 0.23426811 0.09089196 -0.5197355
0.020251196 0.37373972 0.20461759 -0.033611543 0.41746503 -0.25861928 0.17739189 0.07040239
0.22128162 0.57956934 -0.08518115 -0.25696316 0.1553656 -0.110172294 -0.2266882 0.0020640607
-0.39353424 -0.5229283 0.40651557 -0.042569935 -0.034994617 0.49773806 -0.03600005 -0.5455875
-0.48874682 0.06538079 0.009187106 0.3304693 -0.14099719 0.127059 0.07730229 -0.2557249
0.016415933 0.36661655 0.018977107 0.24557361 0.22483122 0.29311284 -0.26680934 0.26606718
-0.3856501 -0.03761576 0.27160567 0.101029225 -0.17360009 -0.0661638 -0.17700346 0.05579704
-0.055500943 0.27589232 0.136921 0.17157835 0.41138685 -0.118204646 0.31628335 -0.51726377
-0.23594977 -0.11507835 0.17290185 -0.3541719 0.27582133 0.190847 -0.1638609 -0.428626
-0.0126880435 0.4777598 -0.21888137 -0.34167203 0.5488541 -0.40467012 -0.18936428 0.3141738
0.033361625 0.27659178 0.088297665 -0.13074633 0.4623587 -0.057096045 -0.1029317 -0.19708537
0.3047531 0.5619589 -0.29941338 -0.53753287 -0.018612077 -0.14694202 0.075563475 0.16162089
0.27774757 0.048338 0.11365358 -0.45821705 0.44291306 -0.07249677 0.050944157 0.20202707
0.3411468 0.01567444 -0.16139057 -0.4148488 0.14005218 -0.28912166 -0.16581693 0.41882303
-0.55476004 -0.49953583 0.014984907 0.28177834 -0.26096818 0.12576854 -0.0392517 -0.017718697
0.33418825 -0.060588855 -0.044288605 0.2199729 0.16100366 -0.22003743 -0.48145428 0.44617876
-0.44955912 0.085163295 0.2635838 -0.16033122 -0.16034357 0.063866295 0.3593456 0.14808452
-0.052920956 -0.13240382 0.1808506 -0.33055863 0.012647444 -0.1459221 -0.15356304 0.3374156
-0.049423493 0.095514506 -0.14303994 0.4697974 -0.25760394 0.41724828 -0.09360007 -0.29700938
0.25535554 -0.09831176 0.64793724 0.27051604 0.4327078 0.010331076 0.025464714 0.018505178
-0.2598109 -0.16813785 0.26836273 0.26295093 0.10430572 -0.33983347 0.12689084 -0.44630927
-0.33764136 -0.008270676 0.063633904 0.46489388 -0.20561549 0.08362333 -0.020278808 0.21916094
0.06547299 0.008543409 0.0039779292 0.27780542 0.33623618 -0.41074187 -0.4173323 0.17992866
0.03965847 -0.19816282 0.40476054 0.09983311 0.34005418 -0.22275266 -0.24204215 -0.12632762
-0.20274596 0.30536154 0.47539845 -0.17161182 -0.2040661 -0.276644 0.02997873 -0.47439003
0.3857737 0.4692578 -0.1503901 -0.35133258 0.42819035 -0.25638044 -0.13178091 -0.07824908
0.21176907 0.38976386 -0.02633126 -0.42825457 0.042486995 -0.30790856 -0.1254269 0.07786652

rnn.bias_ih_l0 f4 [32]
00000000: 91eb b53d 684a eb3e 5c9a ffbd f6a3 493e
00000010: 6239 ac3d 9781 003e 82eb c2be 8b37 93be
00000020: 222d 9e3e 3d63 a73e c443 94bd d678 2e3e
00000030: 5abe ed3d e20b 3f3e d9f9 123e 5482 0e3e
00000040: b39a fdbe f009 64be 9b03 9f3c db23 073e
00000050: f85f b4be 3a82 fc3e 76d4 f23d 54a4 8a3e
00000060: 0b89 4abe 60ae ec3e 12a3 e53d cf99 12be
00000070: 838c 12be 116c 723d 3da2 e4be 3d3e cabd
0.08882821 0.45955205 -0.124806136 0.19691452 0.084093824 0.12549435 -0.38070303 -0.28753313
0.3089381 0.326929 -0.07239488 0.17038283 0.11608572 0.18656877 0.14353122 0.13916904
-0.4953209 -0.22269416 0.019410899 0.13197272 -0.35229468 0.49318105 0.1185693 0.27078497
-0.1977884 0.46226788 0.11212744 -0.14316486 -0.14311413 0.05918509 -0.44655028 -0.09875152

rnn.bias_hh_l0 f4 [32]
00000000: 55f4 2c3e f753 6f3e 8225 c6be 71fd 033e
00000010: eb2b cd3d 105b db3e 756f f2be 3555 d9be
00000020: 4022 d93d d454 223e b1ba cdbe 890f 723e
00000030: 2556 50be e65f 643d 2949 c3be 85c4 c5be
00000040: 8e6d f2bd 4a57 ebbe bcf9 b9be 0196 e63e
00000050: d6b8 abbe 9220 d43e 3ba7 c4be 6c5c 283e
00000060: 35e9 5e3e 73bf d53e fab5 2fbd f7f7 0ebe
00000070: 9a2b aa3d c864 373e c052 efbd bd0d 97be
0.1689008 0.23371874 -0.3870049 0.12889649 0.10018142 0.42842913 -0.4735066 -0.4244782
0.10602236 0.15852672 -0.40181497 0.23638739 -0.20345362 0.05575552 -0.38141754 -0.38626495
-0.11837302 -0.45965034 -0.36323345 0.4503632 -0.33539456 0.414311 -0.38408837 0.16441506
0.21768649 0.41747627 -0.042898156 -0.13961779 0.083090976 0.17909539 -0.11685705 -0.2950267

out.weight f4 [1, 8]
00000000: 075c dabd 19e6 aabe 89e3 123e 74c8 383e
00000010: 8b26 ddbd a481 903e 0c94 ee3d c39c 3b3d
-0.10662084 -0.33378676 0.1434461 0.18045217 -0.10798367 0.28223908 0.116493315 0.045803796
