ckpt/69.ckpt (torch_old, 3319 bytes, 5 tensors)

rnn.weight_ih_l0 f4 [32, 7]
0	0x3e9fb817	0.31195137
1	0x3e76f980	0.24118614
2	0x3f0327fb	0.5123288
3	0x3ea0f517	0.3143699
4	0x3e83bfe4	0.25732338
5	0x3cd1b958	0.025601074
6	0x3f0ea650	0.5572252
7	0x3e773676	0.24141869
8	0x3ef5486e	0.47906822
9	0x3f2992ee	0.6623982
10	0x3f161632	0.5862762
11	0x3e8b808f	0.2724652
12	0x3e7683a8	0.2407366
13	0x3e92d2fc	0.28676593
14	0xbe36943b	-0.17829983
15	0xbd92051f	-0.07129883
16	0xbec698e5	-0.38788524
17	0xbea7092c	-0.32624185
18	0x3db7b791	0.089705594
19	0x3ef6258c	0.4807552
20	0x3e916f6c	0.2840532
21	0x3f0842ec	0.53227115
22	0x3f0685f9	0.52548176
23	0x3cf63822	0.030056063
24	0xbe018788	-0.12649357
25	0xbd8fa171	-0.070132144
26	0x3ecab32d	0.39589825
27	0x3e833eb5	0.2563378
28	0x3ee17d61	0.4404097
29	0x3cf732f4	0.030175664
30	0x3eb12a87	0.34602758
31	0x3e413af8	0.18870151
32	0x3ed3eacb	0.4139007
33	0xbe3967e7	-0.18106042
34	0xbcdcc57d	-0.026949639
35	0x3f0ebae4	0.5575392
36	0x3b14c1ba	0.0022698478
37	0x3ea773b9	0.32705477
38	0x3f226a5c	0.6344354
39	0x3ec73e54	0.3891474
40	0xbd87acbd	-0.06624744
41	0xbe5c57af	-0.21517824
42	0xbba8429e	-0.0051348945
43	0xbeca9852	-0.39569336
44	0xbde336e2	-0.110944524
45	0xbea5beef	-0.32372233
46	0xbf0392a0	-0.51395607
47	0xbea68108	-0.32520318
48	0xbe9561b4	-0.29176104
49	0xbd6d04a1	-0.057865743
50	0x3d15bf67	0.03655949
51	0xbee14ec4	-0.44005406
52	0xbefd9347	-0.49526426
53	0x3ddea420	0.10871148
54	0xbdf1fc9a	-0.11815758
55	0xbdac8f13	-0.08425727
56	0x3e9eca90	0.31013918
57	0x3da403c3	0.0800853
58	0x3d5153c2	0.05110527
59	0x3e1fe2d4	0.15613872
60	0x3e3d503f	0.18487643
61	0x3edf8ed7	0.43663666
62	0x3ed221dd	0.4104146
63	0x3f0e90e8	0.5568986
64	0x3f168328	0.5879388
65	0xbd6ea463	-0.05826224
66	0x3e91c840	0.2847309
67	0x3ea7432e	0.32668442
68	0x3eb4aea4	0.3528949
69	0x3ec1005c	0.37695587
70	0xbed85aab	-0.42256674
71	0xbda76fde	-0.08175634
72	0xbe801c88	-0.25021768
73	0xbdd92dde	-0.106044516
74	0x3e2901bc	0.16504568
75	0xbe91f4c8	-0.28507066
76	0x3eb82aad	0.3597006
77	0x3ea64b99	0.3247955
78	0x3e4b29c5	0.19840153
79	0x3e916d1c	0.28403556
80	0x3e206b6d	0.1566598
81	0x3e81f9f0	0.25386
82	0x3eef0fda	0.4669178
83	0x3ebbd42d	0.36685315
84	0xbe4ceb0a	-0.20011535
85	0x3d4a467e	0.049383633
86	0x3e68640c	0.22694415
87	0x3df233b8	0.11826271
88	0xbccafc82	-0.024778608
89	0xbeccedba	-0.4002512
90	0x3e641fc4	0.22277743
91	0x3e8d6c48	0.27621675
92	0x3eb9bf75	0.36278883
93	0x3d9ab0b5	0.075532354
94	0x3efe91aa	0.49720508
95	0xbdf54c3a	-0.1197743
96	0xbed14c07	-0.40878317
97	0xbe8e0ed0	-0.27745676
98	0x3d5ff341	0.054675344
99	0x3dad3882	0.08458044
100	0x3defb64d	0.11704693
101	0xbdfaf218	-0.12253207
102	0xbe97e813	-0.29669246
103	0xbe93eb59	-0.28890494
104	0x3e40b894	0.18820411
105	0xbef5343d	-0.47891417
106	0x3d530beb	0.051525038
107	0xbeb58462	-0.35452563
108	0xbef2c97d	-0.47419348
109	0x3e053c2f	0.1301124
110	0xbeedb896	-0.4642989
111	0xbe1d953c	-0.1538896
112	0xbe9e1caa	-0.30881244
113	0xbee1767f	-0.44035718
114	0x3d41cc5d	0.047314037
115	0xbee8b963	-0.4545394
116	0xbebeadde	-0.37242025
117	0x3cd7e3f2	0.02635381
118	0xbe8e534b	-0.27797922
119	0x3d708317	0.058718767
120	0xbee0b470	-0.43887663
121	0xbd956d90	-0.07296288
122	0xbea546d8	-0.32280612
123	0xbea1e275	-0.31618086
124	0xbf1386e9	-0.5762773
125	0xbef080b6	-0.469732
126	0x3deff9ca	0.11717565
127	0x3cd4ea04	0.025990494
128	0xbe9b4cbb	-0.30331978
129	0x3de89521	0.11356569
130	0x3d4d2ba0	0.050090432
131	0xbc5e24bf	-0.013558566
132	0xbe9f0957	-0.31061813
133	0x3d6364a8	0.055515915
134	0x3e8f877f	0.28033063
135	0x3ecd76b1	0.40129617
136	0x3bdbcc28	0.006707687
137	0x3d97878f	0.073989026
138	0x3e19e9b1	0.15030552
139	0xbdacb8d2	-0.08433689
140	0x3c99df04	0.0187831
141	0xbe4984d0	-0.1967957
142	0xbe824870	-0.2544589
143	0xbe0f7c17	-0.1401218
144	0xbef0e9b0	-0.4705329
145	0xbe9e040c	-0.30862463
146	0xbd53551b	-0.051594835
147	0x3dc3d8b2	0.09562816
148	0x3f09b086	0.5378498
149	0x3e80997f	0.25117108
150	0x3e91b747	0.28460142
151	0x3d732a18	0.059366316
152	0xbdcf8ad2	-0.101339
153	0x3e745f05	0.23864372
154	0x3d988510	0.07447255
155	0xbe8d9572	-0.2765308
156	0xbc3e77da	-0.0116252545
157	0xbee441c7	-0.44581434
158	0xbe4f3702	-0.20235828
159	0x3d8a5bfc	0.06755826
160	0x3d147358	0.036242813
161	0x3efd1bcb	0.49435267
162	0x3e88ad0e	0.2669453
163	0xbde29207	-0.11063009
164	0xbc40968a	-0.011754641
165	0xbc9bd0d1	-0.01902047
166	0x3e0f1266	0.13971862
167	0x3d72f4b1	0.059315387
168	0x3ebc74e4	0.3680793
169	0x3eb52376	0.35378617
170	0x3eaf1f0c	0.34203374
171	0xbd3caaf3	-0.046061467
172	0x3f12cffd	0.57348615
173	0xbe31db56	-0.17368826
174	0xbdcd7677	-0.10032361
175	0x3daca6fe	0.08430289
176	0xbe1d4095	-0.15356667
177	0x3ea59963	0.32343587
178	0x3f281d58	0.65669775
179	0x3f0108b5	0.5040391
180	0xbe89a827	-0.26886103
181	0x3daca700	0.0843029
182	0xbeed76c7	-0.46379682
183	0x3e8db202	0.27674872
184	0x3a78889c	0.00094808056
185	0xbdda57a9	-0.10661251
186	0xbeee400d	-0.46533242
187	0x3d814118	0.06311244
188	0xbd5d62d7	-0.05404934
189	0x3ef466a2	0.47734553
190	0x3e8d5857	0.2760646
191	0x3e04b35d	0.12959047
192	0x3d53001b	0.051513772
193	0x3ea92e8f	0.33043334
194	0xbec8bfb8	-0.3920877
195	0xbedf5209	-0.43617275
196	0x3ec94d51	0.393168
197	0x3e64832a	0.2231566
198	0x3ed8fe89	0.42381695
199	0x3e830f1c	0.25597465
200	0x3f045176	0.516868
201	0xbbedfc6f	-0.0072627584
202	0xbe8295de	-0.25504965
203	0x3e7677da	0.24069157
204	0xbd13f2c8	-0.036120206
205	0x3ec7c5ea	0.39018184
206	0x3dd39ebe	0.10333012
207	0x3e8c53bb	0.2740763
208	0x3d52b0a9	0.051438008
209	0x3decf157	0.115694694
210	0xbefcb44e	-0.49356312
211	0xbe2dfc14	-0.16990691
212	0xbee500c2	-0.4472714
213	0x3d48223a	0.048860766
214	0xbf1863f1	-0.595275
215	0xbe471226	-0.19440517
216	0xbdc40d72	-0.09572877
217	0xbc872652	-0.016497765
218	0xbedd8440	-0.4326496
219	0x3dc39514	0.09549919
220	0x3da5e4ab	0.081002556
221	0xbeba8335	-0.36428228
222	0xbe9351db	-0.28773388
223	0xbf05ac73	-0.5221626

rnn.weight_hh_l0 f4 [32, 8]
0	0xbe527edb	-0.20556204
1	0xbd7c10f5	-0.06153961
2	0x3e2afaa6	0.16697177
3	0x3f0092fb	0.50224274
4	0x3dd936fb	0.1060619
5	0xbdd4053e	-0.10352562
6	0x3e9879f2	0.29780537
7	0xbf045ef5	-0.5170739
8	0xbf0cc358	-0.5498557
9	0xbf0edfe3	-0.55810374
10	0x3e128105	0.1430703
11	0x3d38d42b	0.045124214
12	0xbeaf754e	-0.34269184
13	0x3f03575c	0.51305175
14	0x3ea4ca2c	0.32185495
15	0x3dcd5981	0.10026837
16	0x3eaa04f9	0.3320692
17	0x3d8e8f87	0.069609694
18	0xbee60c54	-0.4493128
19	0x3ead24f6	0.3381726
20	0xbe6745da	-0.2258524
21	0xbea66199	-0.32496336
22	0xbe2b9c5f	-0.1675887
23	0xbda76f00	-0.081754684
24	0x3d9cd59a	0.07657929
25	0x3e2fd200	0.17169952
26	0x3d8e16f5	0.069379725
27	0x3eb4a7af	0.35284182
28	0xbece8931	-0.40339044
29	0x3ea564bc	0.32303417
30	0x3e90b713	0.28264675
31	0xbe62a216	-0.22132143
32	0xbcf3e575	-0.0297725
33	0x3e2d0c1d	0.16899152
34	0x3e3ae3b5	0.18250926
35	0x3dc1c272	0.094609156
36	0x3e7bcd31	0.24589993
37	0xbee50470	-0.44729948
38	0x3d964aff	0.07338523
39	0xbe81f6cd	-0.25383607
40	0xbe6597fc	-0.22421259
41	0xbd9bf4b9	-0.076150365
42	0x3f0353a1	0.5129948
43	0xbe3cd1e5	-0.18439443
44	0xbe91e535	-0.28495184
45	0x3e6e3df4	0.2326582
46	0x3db3c835	0.08778421
47	0xbf04242d	-0.516177
48	0x3cf452a3	0.02982456
49	0x3ec37d7f	0.38181683
50	0x3e5533c8	0.20820534
51	0xbd443fa1	-0.047912244
52	0x3ed99045	0.4249288
53	0xbe8a567e	-0.27019113
54	0x3e36b188	0.1784116
55	0x3d8d5480	0.06900883
56	0x3e6353ca	0.22199932
57	0x3f147528	0.57991266
58	0xbdae985a	-0.085251525
59	0xbe844541	-0.25834087
60	0x3e201584	0.15633208
61	0xbde345d6	-0.110973045
62	0xbe6819a4	-0.22666031
63	0x3b057b36	0.002036763
64	0xbeca0a2a	-0.3946088
65	0xbf062348	-0.52397585
66	0x3ece6f0c	0.40319097
67	0xbd29b147	-0.04142883
68	0xbd13c3be	-0.036075346
69	0x3eff9d93	0.49924907
70	0xbd161fbd	-0.03665136
71	0xbf0b7827	-0.5448021
72	0xbefad9c0	-0.48994255
73	0x3d83fdd6	0.064449
74	0x3c0807a8	0.008302607
75	0x3ea9e0dc	0.33179367
76	0xbe11f7a8	-0.1425463
77	0x3e03ed47	0.12883483
78	0x3d9dedfd	0.07711408
79	0xbe82cefb	-0.2554854
80	0x3b02d691	0.0019964317
81	0x3eb68db5	0.3565499
82	0x39be86d0	0.00036340067
83	0x3e7a1888	0.2442342
84	0x3e5b7e47	0.2143489
85	0x3e9c743b	0.30557427
86	0xbe877a96	-0.26460713
87	0x3e8718a5	0.2638599
88	0xbec83f5d	-0.39110842
89	0xbd301346	-0.04298713
90	0x3e8619e9	0.26191643
91	0x3ddadaaa	0.10686238
92	0xbe36dcb9	-0.17857637
93	0xbd70d292	-0.058794565
94	0xbe369d9e	-0.17833564
95	0x3d6b7203	0.057481777
96	0xbd4f4edd	-0.05061232
97	0x3e8f886d	0.28033772
98	0x3e19b065	0.15008695
99	0x3e2acd1a	0.16679803
100	0x3ed499f3	0.41523704
101	0xbdfb5fd2	-0.12274136
102	0x3e9e6831	0.30938867
103	0xbf03a37a	-0.5142132
104	0xbe795913	-0.24350385
105	0xbdfda72f	-0.12385403
106	0x3e2f3c20	0.1711278
107	0xbeae0e7f	-0.33995435
108	0x3e89cbda	0.2691334
109	0x3e4db26e	0.20087597
110	0xbe3101e5	-0.17285879
111	0xbed692a9	-0.41908768
112	0xbbdece3f	-0.006799489
113	0x3ef6373c	0.48089015
114	0xbe5f07d2	-0.21780327
115	0xbeb2f4d0	-0.34952402
116	0x3f0df10d	0.5544594
117	0xbed26618	-0.41093516
118	0xbe4198cc	-0.18905944
119	0x3ea0a533	0.31376037
120	0x3d0a1167	0.033708002
121	0x3e8db035	0.27673498
122	0x3db4d201	0.088291176
123	0xbe0680a5	-0.13135011
124	0x3eed0e58	0.46300006
125	0xbd6b54a1	-0.057453755
126	0xbdd2c900	-0.10292244
127	0xbe49d345	-0.19709499
128	0x3e9c1ef8	0.30492377
129	0x3f0fe549	0.56209236
130	0xbe9933a5	-0.29922214
131	0xbf09a712	-0.53770554
132	0xbc96d2b0	-0.01841101
133	0xbe16bbe0	-0.14720106
134	0x3d9ada40	0.07561159
135	0x3e256d94	0.16155082
136	0x3e8e5462	0.27798754
137	0x3d469de1	0.04849041
138	0x3de8ddd5	0.11370436
139	0xbeeabef8	-0.45848823
140	0x3ee3001b	0.44336018
141	0xbd9527a1	-0.07282949
142	0x3d50c789	0.05097154
143	0x3e4ed95b	0.20200102
144	0x3ea77045	0.32702842
145	0x3b38a152	0.0028172326
146	0xbe28914f	-0.16461681
147	0xbec7444b	-0.3891929
148	0x3e04f5b0	0.12984347
149	0xbe8b1984	-0.27167904
150	0xbe2c7157	-0.1684011
151	0x3ed7ff73	0.4218708
152	0xbf0e2a8f	-0.5553369
153	0xbeffea68	-0.49983525
154	0x3c737de4	0.014861558
155	0x3e909d9c	0.28245246
156	0xbe8609ee	-0.2617945
157	0x3e017974	0.12643987
158	0xbd20e321	-0.039279107
159	0xbc90e7c1	-0.017688634
160	0x3eab9455	0.33511606
161	0xbd72721e	-0.059190862
162	0xbd25ea29	-0.040506516
163	0x3e5fab57	0.21842705
164	0x3e2546b0	0.16140246
165	0xbe62d8ae	-0.22152969
166	0xbef5af40	-0.47985268
167	0x3ee3695f	0.4441633
168	0xbee7da27	-0.45283625
169	0x3da93ff5	0.08264152
170	0x3e86103a	0.26184255
171	0xbe1f9049	-0.15582384
172	0xbe27cbd5	-0.1638635
173	0x3d8c428d	0.06848631
174	0x3eb7b72d	0.3588194
175	0x3e185c3f	0.14878939
176	0xbd6fd18c	-0.05854945
177	0xbe0b407d	-0.13598819
178	0x3e37d8e5	0.17953832
179	0xbea56506	-0.32303637
180	0x3bfe3486	0.007757726
181	0xbe0f8778	-0.14016521
182	0xbe1d9675	-0.15389426
183	0x3eacf310	0.33779192
184	0xbd49e2fe	-0.049288742
185	0x3dc3c0a5	0.095582284
186	0xbe1279bb	-0.14304249
187	0x3ef06bd3	0.46957263
188	0xbe83cb17	-0.25740883
189	0x3ed58bad	0.41708127
190	0xbdbfad97	-0.093592815
191	0xbe9812a8	-0.29701734
192	0x3e8512ae	0.25990814
193	0xbdc4a441	-0.096016414
194	0x3f2953d4	0.66143537
195	0x3e89f7ca	0.2694686
196	0x3edfe8dd	0.43732348
197	0x3be1bd1b	0.006888998
198	0x3bcab4a1	0.0061860834
199	0x3d07518a	0.033036746
200	0xbe82d663	-0.2555419
201	0xbe2c49f5	-0.16825087
202	0x3e8fbb3e	0.28072542
203	0x3e890de2	0.26768404
204	0x3de23a98	0.11046332
205	0xbeaf3542	-0.3422032
206	0x3deaa17c	0.11456582
207	0xbedbfc5c	-0.42965972
208	0xbeb65988	-0.35615182
209	0xbcbfa676	-0.023394804
210	0x3d1ccd2a	0.038281597
211	0x3ef237c7	0.4730818
212	0xbe63262a	-0.22182527
213	0x3dce4524	0.10071781
214	0xbc8b9aee	-0.01704165
215	0x3e5d285f	0.21597432
216	0x3d90be3b	0.070675336
217	0x3c4354b5	0.011922051
218	0x3c4f4a70	0.012652025
219	0x3e8be46e	0.27322716
220	0x3eaea1c0	0.3410778
221	0xbed47266	-0.4149353
222	0xbedbd7e7	-0.42938158
223	0x3e4189d9	0.18900241
224	0x3d39c6c9	0.045355592
225	0xbe459eec	-0.19298905
226	0x3ed828fb	0.42218766
227	0x3dc35172	0.09537019
228	0x3eb03d13	0.34421596
229	0xbe696478	-0.22792232
230	0xbe82945d	-0.25503817
231	0xbdf5583b	-0.11979719
232	0xbe4a25d2	-0.1974099
233	0x3e9e1f57	0.30883285
234	0x3ef8f6f3	0.48625907
235	0xbe337a7e	-0.17527196
236	0xbe4ba8b1	-0.1988857
237	0xbe8ff425	-0.28115955
238	0x3c934ef3	0.017981982
239	0xbeed9e73	-0.4640995
240	0x3eca5be0	0.3952322
241	0x3ef4b462	0.4779387
242	0xbe15b1ee	-0.14618656
243	0xbebb080c	-0.36529577
244	0x3edee68c	0.43535268
245	0xbe892c53	-0.2679163
246	0xbe05c3f0	-0.13063025
247	0xbda37caa	-0.07982762
248	0x3e594ffb	0.21221916
249	0x3ec7a98b	0.3899654
250	0xbcd8b6cf	-0.026454357
251	0xbedbce74	-0.4293095
252	0x3d30a44a	0.04312543
253	0xbe9de885	-0.3084146
254	0xbe006ae6	-0.12540779
255	0x3d9f6f41	0.07784892

rnn.bias_ih_l0 f4 [32]
0	0x3dc237fd	0.09483335
1	0x3eefa73f	0.46807286
2	0xbe005ee4	-0.12536198
3	0x3e566e8f	0.20940612
4	0x3db6962a	0.0891536
5	0x3e07d8bf	0.13266276
6	0xbec754d5	-0.3893191
7	0xbe92fd4b	-0.28708872
8	0x3e9eb2ff	0.30995938
9	0x3ea7c5f3	0.3276821
10	0xbd86f317	-0.065893345
11	0x3e336852	0.17520264
12	0x3de542b9	0.11194367
13	0x3e477043	0.19476418
14	0x3e115c53	0.14195375
15	0x3e0e760b	0.13912217
16	0xbefe74cb	-0.4969848
17	0xbe66bc80	-0.22532845
18	0x3cf39905	0.029736051
19	0x3e09166a	0.13387457
20	0xbeb6439a	-0.3559845
21	0x3efdff1b	0.49608693
22	0x3df7aba2	0.12093283
23	0x3e8ab673	0.27092323
24	0xbe4724a9	-0.19447578
25	0x3ef1ae92	0.472035
26	0x3df71b4c	0.12065753
27	0xbe0f423e	-0.13990113
28	0xbe0f7fb4	-0.14013559
29	0x3d817b2d	0.06322322
30	0xbee964b5	-0.45584646
31	0xbdc95050	-0.098297715

rnn.bias_hh_l0 f4 [32]
0	0x3e331a8b	0.17490594
1	0x3e780da6	0.24223956
2	0xbec66e5b	-0.3875607
3	0x3e10c80a	0.14138809
4	0x3dd788b3	0.1052412
5	0x3edf06a2	0.43559748
6	0xbef6d8c8	-0.48212266
7	0xbed91af5	-0.4240338
8	0x3ddb39b3	0.10704365
9	0x3e231a44	0.15927988
10	0xbeca6687	-0.39531347
11	0x3e76ff05	0.2412072
12	0xbe5493f9	-0.20759572
13	0x3d82f8b1	0.0639509
14	0xbec417ed	-0.38299504
15	0xbec5caa8	-0.38631177
16	0xbdf5d5f0	-0.12003696
17	0xbeecb091	-0.4622846
18	0xbeb4b064	-0.35290825
19	0x3ee78f4a	0.45226508
20	0xbead9c78	-0.3390844
21	0x3ed59d73	0.41721687
22	0xbec3716f	-0.3817248
23	0x3e2880b1	0.16455342
24	0x3e624d97	0.2209991
25	0x3edabfa5	0.42724338
26	0xbd0cc584	-0.034368053
27	0xbe0ba066	-0.13635406
28	0x3db04537	0.08606952
29	0x3e3b875b	0.18313353
30	0xbe012e53	-0.12615328
31	0xbe96d240	-0.29457283

out.weight f4 [1, 8]
0	0xbddda9de	-0.10823415
1	0xbeac8f51	-0.33703092
2	0x3e168ceb	0.14702193
3	0x3e3db7a3	0.18527083
4	0xbde2fb6b	-0.110831104
5	0x3e925b6e	0.2858538
6	0x3de5f611	0.11228574
7	0x3d517f0d	0.051146556
