ckpt/89.ckpt (torch_old, 3319 bytes, 5 tensors)

rnn.weight_ih_l0 f4 [32, 7]
000000 a0 e6 a8 3e 0f 95 81 3e bd ce 06 3f d7 a6 a7 3e
       0.32988453 0.25309035 0.5265921 0.32744476
000010 1f cc 8a 3e ec a0 06 3d 1a 93 0f 3f 26 4e 88 3e
       0.27108857 0.03286831 0.56083834 0.26622123
000020 5f c2 fd 3e 5a bc 2e 3f d9 e5 1a 3f 77 d2 94 3e
       0.49562356 0.6825615 0.6050697 0.29066822
000030 58 68 80 3e ae 9f 95 3e a2 ff 01 be 81 d8 93 bb
       0.25079608 0.29223388 -0.12695172 -0.0045118933
000040 1e a1 bf be 14 a6 b5 be 5a 73 b9 3d f7 46 09 3f
       -0.3742761 -0.3547827 0.09055205 0.5362391
000050 7f 81 ba 3e 88 f9 10 3f d3 be 0c 3f 00 39 6a 3d
       0.36426923 0.56630754 0.54978675 0.057183266
000060 db d5 cf bd 4c dd 32 bd ff 5c d3 3e 1e 4d 86 3e
       -0.101482116 -0.043668076 0.41281888 0.2623071
000070 de 0e cb 3e d0 34 66 bc 5e de a1 3e e8 de 4b 3e
       0.3965978 -0.014050677 0.31614965 0.1990925
000080 55 d2 cc 3e 77 d7 3d be e8 ee 6a bd 37 8c 12 3f
       0.4000422 -0.18539225 -0.057356745 0.572452
000090 0a 30 9f bc f7 80 b0 3e ab d5 27 3f 39 ff cc 3e
       -0.019432086 0.34473392 0.65560406 0.4003847
0000a0 2e 2d c9 bd 40 35 97 be 3b c2 ed bb d2 15 cb be
       -0.098230705 -0.29532814 -0.00725582 -0.39665085
0000b0 a1 25 ee bd f8 ae aa be da c0 04 bf ef ab ac be
       -0.11628271 -0.33336616 -0.5185677 -0.33724925
0000c0 65 08 91 be 12 2f 66 bd 07 ea 1b 3d ac b9 e0 be
       -0.28326717 -0.056197233 0.038064983 -0.43891656
0000d0 1d e0 fc be 25 62 e1 3d e3 96 eb bd b9 72 a9 bd
       -0.49389735 0.11005048 -0.11503389 -0.08273835
0000e0 ce f0 9e 3e 01 2d a6 3d 1c cc 54 3d 5a e5 20 3e
       0.31043094 0.081140526 0.051952466 0.1571249
0000f0 2f a4 3d 3e 13 6f e0 3e 29 9c d2 3e 19 a9 0e 3f
       0.18519662 0.43834743 0.41134766 0.5572677
000100 1a b4 16 3f 42 fa 6b bd b4 27 92 3e 73 6d a7 3e
       0.58868563 -0.05761171 0.28545916 0.3270069
000110 b1 40 b5 3e 44 4f c1 3e 65 94 cd be dd a3 71 bb
       0.35400918 0.37755787 -0.4015228 -0.0036871352
000120 da d7 77 be 85 8e 03 be 28 28 22 3e 38 34 2f be
       -0.24203435 -0.12847336 0.15835631 -0.17109764
000130 c0 26 00 3f 11 6d a6 3e 25 a7 4f 3e b9 03 93 3e
       0.5005913 0.32505086 0.20278604 0.28713778
000140 5d 26 24 3e e6 a1 82 3e d3 ee f3 3e 91 a8 bd 3e
       0.1603026 0.25514144 0.47643146 0.37042668
000150 76 91 73 be 2b 8a b8 3c d6 cb 4e 3e 8b b6 e6 3d
       -0.23785958 0.022526821 0.20194945 0.11265286
000160 51 6c 23 bd 14 87 d3 be dd d9 68 3e 48 4c 87 3e
       -0.03989822 -0.41313994 0.22739358 0.26425385
000170 7d 5b ac 3e 13 dc a6 3d 2d 96 03 3f 2b 5b f5 bd
       0.3366355 0.081474446 0.51401025 -0.119802795
000180 26 98 d2 be 63 4c b2 be de 22 66 3d e1 af b0 3d
       -0.41131705 -0.34823903 0.056185596 0.08627296
000190 00 52 f0 3d 67 f7 fc bd d1 ca 97 be 0b 30 95 be
       0.1173439 -0.12351876 -0.29646924 -0.29138216
0001a0 54 85 44 3e ab 45 f5 be 52 20 53 3d c0 94 b5 be
       0.19191486 -0.47904715 0.051544495 -0.3546505
0001b0 1e cd f2 be 4b 2d 05 3e 3e 57 ed be 69 46 1d be
       -0.47422117 0.13005559 -0.46355623 -0.1535889
0001c0 7b 76 a0 be 59 14 e3 be c4 e6 31 3d ea a2 ea be
       -0.31340393 -0.44351462 0.043432966 -0.4582742
0001d0 27 64 c0 be fe 53 c8 3c 41 f7 8e be 73 af 58 3d
       -0.3757641 0.024454113 -0.27923015 0.052901696
0001e0 19 24 e3 be 9d cc 9f bd 73 c7 a7 be be 31 a4 be
       -0.44363478 -0.07802699 -0.32769355 -0.320692
0001f0 c2 96 14 bf 73 5c f1 be 65 83 bc 3d 0f 8a 18 3b
       -0.5804254 -0.47140846 0.09204749 0.0023275649
000200 ce 3a 9d be 1d 9a 03 3e 6e 4e 33 3d 1d 35 8d bc
       -0.30708927 0.12851758 0.04377597 -0.01723724
000210 c5 22 bd be 62 4c 78 3d 98 76 91 3e 49 a0 cf 3e
       -0.3694059 0.06061972 0.28410792 0.40551975
000220 a4 4f 2e 3c b6 8b 9f 3d 7f cb 1c 3e 0a 52 aa bd
       0.010639105 0.077903196 0.15312003 -0.08316429
000230 85 2f 9e 3c dd 45 49 be 3e df 82 be 36 b7 13 be
       0.019309768 -0.19655557 -0.25560945 -0.14425358
000240 62 d1 f1 be 4e 86 a2 be 49 0c 46 bd 13 fe ca 3d
       -0.4723006 -0.3174309 -0.04835156 0.09911742
000250 8b 3d 0a 3f a8 09 83 3e a1 37 94 3e 28 53 7f 3d
       0.5400016 0.25593305 0.2894869 0.062335163
000260 64 44 cc bd 17 b3 6f 3e 2b 77 99 3d 50 36 8d be
       -0.09973982 0.23408161 0.074934326 -0.275805
000270 33 38 25 bc 61 30 e3 be db 69 4e be 1c d9 93 3d
       -0.0100842 -0.44372848 -0.20157568 0.07219145
000280 8a 31 0c 3d 7a 5f fd 3e 88 ec 88 3e d5 9f e1 bd
       0.03422693 0.49486905 0.2674296 -0.11016814
000290 d3 90 38 bc 11 3c 98 bc 3e c9 0f 3e 2b 8c 74 3d
       -0.011264998 -0.01858333 0.14041612 0.059703987
0002a0 a9 1a a1 3e 51 b6 9b 3e 37 90 a0 3e 3d 88 15 bd
       0.31465653 0.30412534 0.31360027 -0.03650688
0002b0 a8 99 0e 3f 56 5a 3b be c3 4f 11 be 15 26 cf 3b
       0.5570321 -0.18296179 -0.14190583 0.0063216784
0002c0 d7 8e 78 be dd ca 8f 3e 86 33 2b 3f a6 83 f2 3e
       -0.24273239 0.2808446 0.66875494 0.47366065
0002d0 5d ff 8e be 8d 7c db bc c6 30 dc be e5 d5 b6 3e
       -0.27929202 -0.026792789 -0.4300596 0.35710064
0002e0 66 ba a2 3c 92 31 f9 bd f5 38 ec be 4b 2c 14 3e
       0.019864272 -0.12167658 -0.46137205 0.14470021
0002f0 e6 12 71 3d b4 a9 db 3e 50 ff 74 3e 76 f3 ca 3d
       0.058855914 0.4290291 0.23925519 0.09909718
000300 05 8a 63 3d a2 b5 a1 3e 27 5e c9 be a8 c0 df be
       0.055551548 0.31583887 -0.39329645 -0.43701673
000310 f2 fa c6 3e 14 a1 4a 3e 2c 8e d4 3e 7d 2c 8f 3e
       0.3886333 0.19788009 0.4151472 0.2796363
000320 b2 8e 07 3f 94 94 22 bc 77 97 88 be cf f7 58 3e
       0.5295211 -0.009923119 -0.26678059 0.21188281
000330 5d 84 8d bd 1e eb bd 3e 65 2b ec 3d 02 a2 89 3e
       -0.06910012 0.37093443 0.11531714 0.26881415
000340 e1 fc 51 3d 21 66 c7 3d 46 a3 fd be 5f 72 2e be
       0.051266555 0.097362764 -0.4953863 -0.17035817
000350 ae 78 e7 be ba 1a 20 3d ea 93 19 bf 8f a4 56 be
       -0.4520926 0.03908799 -0.59991324 -0.20961212
000360 98 62 b1 bd 15 a2 74 bc b5 cb dc be 61 b9 c5 3d
       -0.086613834 -0.0149312215 -0.43124166 0.09654499
000370 38 8b a8 3d 77 df b9 be 85 b6 91 be 18 4f 05 bf
       0.08229679 -0.36303303 -0.28459564 -0.5207381

rnn.weight_hh_l0 f4 [32, 8]
000000 71 b8 53 be f8 62 80 bd b4 62 27 3e 71 e6 00 3f
       -0.20675828 -0.06268877 0.16346246 0.50351626
000010 69 a9 d6 3d e1 70 d0 bd 7b 17 98 3e 7d 1f 04 bf
       0.10481531 -0.1017778 0.29705414 -0.5161055
000020 72 fd 0c bf c3 05 0f bf 93 17 12 3e aa b8 3c 3d
       -0.55074227 -0.55868167 0.14266805 0.046074547
000030 60 12 b0 be c9 ad 03 3f 6a bb a4 3e 72 a8 cd 3d
       -0.3438902 0.5143705 0.32174236 0.10041894
000040 49 bd ab 3e 3f 59 a8 3d 27 71 fd be bd 51 a5 3e
       0.3354285 0.08220147 -0.4950039 0.32288924
000050 13 b4 62 be 13 2d ae be 1c 3c 21 be 5a a2 be bd
       -0.22139005 -0.34018764 -0.15745586 -0.0930831
000060 b1 4b 94 3d e5 ae 2b 3e 37 68 7a 3d c7 fe b6 3e
       0.072409995 0.16765936 0.061134543 0.35741255
000070 75 a2 d0 be fd 70 a8 3e 97 24 90 3e 09 0c 61 be
       -0.40748945 0.32898703 0.28152916 -0.21977247
000080 44 14 19 bc 4b 3d 3c 3e 96 a8 6d 3e 6c ce 95 3d
       -0.009343211 0.18382756 0.23208842 0.073147625
000090 7e c4 88 3e 85 1e ee be 8f 0b 3d 3d 30 0a 6f be
       0.26712412 -0.4650766 0.0461536 -0.2334373
0000a0 d5 61 5f be 25 f2 8e bd 6e 38 19 3f 78 00 36 be
       -0.21814664 -0.06979779 0.5985173 -0.17773616
0000b0 88 80 90 be dc bf 68 3e cc e2 ab 3d 56 d6 02 bf
       -0.28223062 0.22729439 0.083928674 -0.511083
0000c0 54 e6 34 3d ee d8 c9 3e 99 9d 58 3e a0 26 8c bd
       0.04416497 0.39423317 0.21153869 -0.06843305
0000d0 ee d5 de 3e 51 9f 93 be 65 14 38 3e 21 f1 88 3d
       0.4352259 -0.28832486 0.1797653 0.06686617
0000e0 09 12 63 3e 39 55 14 3f c8 7b b0 bd 56 84 84 be
       0.22174849 0.5794254 -0.086173594 -0.25882214
0000f0 9c e1 20 3e ac 58 e2 bd ac 2f 68 be 17 5d 0d 3b
       0.15711063 -0.11052069 -0.22674435 0.0021570378
000100 3c ee ca be c1 94 06 bf 9c 24 cb 3e 02 ff 21 bd
       -0.39634883 -0.5257073 0.39676368 -0.039549835
000110 52 7b 1a bd 23 70 00 3f 3e d0 19 bd 8f 25 0b bf
       -0.037715264 0.5017111 -0.03755211 -0.54354185
000120 f1 c0 fb be 31 1e 81 3d 17 8d da 3b 6e e5 aa 3e
       -0.4917064 0.06304587 0.0066696513 0.33378166
000130 84 24 14 be 6c 9b 06 3e 8b 74 9d 3d 90 a2 82 be
       -0.14467055 0.13145226 0.076882444 -0.2551465
000140 7d 92 9b bc 1e c2 ad 3e 9a 9d ad bd 5c 85 74 3e
       -0.01899075 0.33937162 -0.08477326 0.23878998
000150 6b 8e 58 3e 39 35 a2 3e cb e6 85 be 83 6a 85 3e
       0.21148078 0.3168123 -0.26152644 0.26057824
000160 d7 a6 cc be c5 54 53 bd 01 4c 7a 3e a8 d4 ed 3d
       -0.3997104 -0.051594514 0.24443056 0.116128266
000170 07 8e 3e be 87 af 40 bd 82 85 38 be 22 9f 76 3d
       -0.18608867 -0.047042396 -0.18019679 0.060210355
000180 1f 84 29 bd be 75 93 3e be a0 32 3e 0b 13 1f 3e
       -0.041385766 0.28800768 0.17444131 0.15534608
000190 61 92 d8 3e 88 a1 05 be d7 fb 98 3e b0 87 02 bf
       0.42299178 -0.130499 0.2987964 -0.5098829
0001a0 9b e3 87 be 48 8f 17 be 6a 42 3f 3e 7c dd 9c be
       -0.26540837 -0.14800751 0.18677679 -0.3063773
0001b0 d9 15 80 3e c3 a1 6b 3e 55 34 41 be 4c 52 cc be
       0.25016668 0.23010926 -0.1886762 -0.39906538
0001c0 8a 45 fb 3a 9d a0 f8 3e 0e 34 5e be 42 c2 b8 be
       0.0019170505 0.48560038 -0.21699545 -0.36085707
0001d0 18 f5 0f 3f db 56 d7 be 66 31 41 be 75 53 a0 3e
       0.5623336 -0.42058453 -0.188665 0.31313673
0001e0 71 0a 08 3d dd 85 8d 3e 22 29 b4 3d 25 24 06 be
       0.033213083 0.27641192 0.08796908 -0.13099726
0001f0 94 ed ec 3e 94 17 69 bd e2 d7 d2 bd e8 c7 49 be
       0.46275008 -0.05690725 -0.10295083 -0.19705164
000200 2d 3d 9c 3e 26 f1 0f 3f ca 09 99 be bc b6 09 bf
       0.30515423 0.5622734 -0.2989028 -0.53794456
000210 0b bd 94 bc 8e 16 17 be 9c f5 9a 3d fb 56 25 3e
       -0.018156549 -0.14754698 0.075663775 0.16146462
000220 41 77 8e 3e 1c 50 47 3d d2 02 e9 3d 49 e7 ea be
       0.2782536 0.048660383 0.11377491 -0.45879582
000230 b6 3e e3 3e 1b e8 95 bd 3c e4 50 3d d9 d1 4e 3e
       0.44383782 -0.07319661 0.05099891 0.20197238
000240 6a 9c 96 3e a8 87 f0 bc 22 93 21 be 37 12 ab be
       0.2941621 -0.029361561 -0.15778783 -0.33412334
000250 0b 59 e0 3d 80 25 68 be ea 5a 32 be e1 f9 db 3e
       0.109544836 -0.22670555 -0.17417493 0.4296408
000260 1f 60 0e bf 49 11 00 bf 72 14 70 3c f4 1c 91 3e
       -0.5561542 -0.50026375 0.014653312 0.28342402
000270 e1 9a 86 be 4d 72 02 3e 09 05 21 bd 8a 91 90 bc
       -0.26290038 0.12738915 -0.039311443 -0.017647523
000280 c8 48 ac 3e 2a 68 68 bd 96 16 11 bd 0e b8 5d 3e
       0.33649278 -0.056739964 -0.03542193 0.21652243
000290 c3 3b 25 3e 36 7e 65 be ce 61 f4 be 68 8a e1 3e
       0.16136079 -0.22411427 -0.4773087 0.44050908
0002a0 8d 11 eb be 5c 70 9f 3d b5 4c 85 3e e8 d1 16 be
       -0.45911828 0.07785103 0.26035085 -0.1472851
0002b0 d3 8e 2e be 66 d2 9e 3d 2a 49 b7 3e f0 b4 19 3e
       -0.1704667 0.07754974 0.35798007 0.15010428
0002c0 2a eb 8b bd bc a7 11 be 4d e8 35 3e b4 e0 9e be
       -0.06831963 -0.14224142 0.17764397 -0.3103081
0002d0 c7 b2 d8 b9 56 10 05 be 7e 15 1e be af 47 ad 3e
       -0.0004133193 -0.12994513 -0.15437886 0.33843753
0002e0 03 22 4b bd 4e 4c c3 3d d9 bf 12 be 86 8f f0 3e
       -0.049592983 0.09536038 -0.14330997 0.469845
0002f0 47 e7 83 be 06 bf d5 3e 34 b9 bf bd f3 0d 98 be
       -0.25762388 0.41747302 -0.093614966 -0.29698142
000300 1b 71 88 3e c9 a8 c2 bd 11 ba 32 3f b8 9f 87 3e
       0.26648793 -0.095048495 0.69815165 0.26489043
000310 53 31 e4 3e 72 af 8e 3b 17 77 d1 bc ce b2 74 3d
       0.4456888 0.004354411 -0.025569482 0.059740834
000320 94 9a 7c be 8a 85 2c be 41 34 af 3e db 14 8a 3e
       -0.24668342 -0.16847816 0.34219554 0.26969036
000330 de c2 fe 3d b5 78 b0 be 35 76 c1 3d f4 36 cc be
       0.12439512 -0.34467092 0.09446374 -0.39885676
000340 a3 80 c3 be 15 42 35 bd 6a 93 26 bd 75 29 f9 3e
       -0.3818408 -0.044252474 -0.04066793 0.48664442
000350 e2 ea 75 be 73 86 f4 3d bd ed 4c bc 6d 3b 58 3e
       -0.24015382 0.11939707 -0.012507853 0.21116419
000360 22 47 aa 3d 71 64 9f 3c c6 e1 04 3d cc e3 83 3e
       0.08314349 0.019457074 0.032441877 0.25759733
000370 85 49 b5 3e 95 2b d9 be 6f 17 e6 be 29 d3 51 3e
       0.35407653 -0.42416063 -0.44939753 0.20490707
000380 c0 ad 61 3d cb d0 3d be 2d e5 ea 3e 6c c0 ad 3d
       0.05509734 -0.1853668 0.45877972 0.08483967
000390 6a 3e b4 3e 09 2f 71 be e3 4b 8d be 33 37 de bd
       0.35203868 -0.23553099 -0.2759696 -0.10850372
0003a0 41 43 41 be cc f0 9f 3e db 9e 02 3f 8e 5d 3d be
       -0.18873312 0.312384 0.51023644 -0.1849272
0003b0 e2 58 41 be 37 b5 92 be aa 6d 32 bb b9 98 e3 be
       -0.18881562 -0.2865388 -0.002722601 -0.44452456
0003c0 22 7d d1 3e b9 72 fb 3e 61 74 11 be 90 20 c5 be
       0.4091578 0.49110964 -0.14204551 -0.38501406
0003d0 80 d1 e3 3e 80 46 92 be c1 35 04 be bc 6e a8 bd
       0.44495773 -0.28569412 -0.1291113 -0.08224246
0003e0 11 a6 58 3e c9 50 c7 3e 1d 93 e0 bc 44 cd db be
       0.211571 0.38928822 -0.0274139 -0.42930043
0003f0 73 a0 31 3d 7f 75 9d be 97 82 00 be b4 b4 9f 3d
       0.043365907 -0.30753705 -0.12549816 0.07798138

rnn.bias_ih_l0 f4 [32]
000000 44 00 d8 3d 53 92 f7 3e 5c ac 0a be bc ee 6c 3e
       0.10546926 0.48353824 -0.13542312 0.23137945
000010 5b e9 c9 3d a6 0a 11 3e 8b 59 ce be fa 07 92 be
       0.09858962 0.14164218 -0.4030269 -0.2852171
000020 5a 8d 9f 3e c4 56 a8 3e 52 66 3a bd 4d 5b 3b 3e
       0.3116253 0.32878697 -0.045507737 0.18296547
000030 95 69 d5 3d fa 6b 5c 3e 52 0c 0f 3e 50 aa 0e 3e
       0.10420529 0.21525565 0.13969544 0.13932157
000040 5d 00 00 bf 54 c2 6b be 7e 49 59 3d f4 d3 0c 3e
       -0.50000554 -0.23023349 0.053048603 0.13752729
000050 8a d2 b9 be 8c 62 00 3f cd 01 00 3e bb 02 8b 3e
       -0.3629344 0.5015037 0.12500687 0.2715052
000060 4c 5f 3e be 51 ad f9 3e c0 05 0d 3e d4 7b 09 be
       -0.1859104 0.48765042 0.13771725 -0.13426143
000070 9e 03 07 be 60 73 97 3d fb f3 f0 be 18 96 c5 bd
       -0.13184974 0.07395053 -0.47061142 -0.09647769

rnn.bias_hh_l0 f4 [32]
000000 b5 fe 3d 3e e9 f1 83 3e 19 95 cb be 37 48 27 3e
       0.18554194 0.257705 -0.3976219 0.16336142
000010 e4 db ea 3d 95 9f e3 3e 7e dd fd be a4 25 d8 be
       0.11467722 0.4445769 -0.49583048 -0.42216218
000020 1a a3 de 3d e3 3b 24 3e 8d f6 bf be 00 f2 7e 3e
       0.10870953 0.1603847 -0.3749279 0.24897003
000030 8b 80 5c be 24 f0 ac 3d ed 3f c5 be 86 b0 c5 be
       -0.2153341 0.08444241 -0.38525334 -0.3861124
000040 a9 05 fc bd 7e 33 ef be c5 c0 a8 be 0b 6e e9 3e
       -0.12305767 -0.46718973 -0.3295957 0.4559177
000050 68 2b b1 be 6f 63 d8 3e 72 5b c1 be 3b 19 29 3e
       -0.3460343 0.42263362 -0.3776508 0.16513531
000060 f4 12 6b 3e 64 be e2 3e 30 ca 8d bc fc d9 05 be
       0.22956449 0.44285882 -0.017308325 -0.13071436
000070 63 3d c1 3d 75 83 46 3e dd 4c 10 be b1 e3 95 be
       0.09435537 0.19386084 -0.14091821 -0.29275277

out.weight f4 [1, 8]
000000 71 e2 e5 bd a4 ad b0 be 29 fd 23 3e 7f 12 44 3e
       -0.11224831 -0.34507477 0.16014542 0.1914768
000010 ed 2a ee bd c9 51 97 3e 06 ed d6 3d 0a cd 7b 3d
       -0.11629281 0.29554585 0.104944274 0.061474837
