ckpt/9.ckpt (torch_old, 3319 bytes, 5 tensors)

rnn.weight_ih_l0 f4 [32, 7]
000000 e7 95 5a 3e 00 33 27 3e 6c f3 d9 3e c2 0d 6e 3e
       0.21346246 0.16328049 0.4256853 0.23247436
000010 97 e6 31 3e e6 9e f8 bc ab df 02 3f 7a df ec 3d
       0.1737312 -0.030349206 0.5112254 0.11566062
000020 d5 45 c4 3e ee c3 0d 3f 66 52 f7 3e 6c be 2f 3e
       0.38334528 0.5537709 0.48305053 0.17162484
000030 ec 81 2d 3e 42 b9 6f 3e 58 df 8e bd c9 24 e9 bd
       0.16944093 0.23410514 -0.06976193 -0.11383969
000040 4c 5c 8d be 5f 60 2f be c5 02 61 3e 04 fc 59 3e
       -0.2760948 -0.17126606 0.21973713 0.21287543
000050 d3 e4 2d 3d 45 80 cb 3e 62 3c d7 3e bb 7d ab bd
       0.042454552 0.397463 0.42038256 -0.083735906
000060 bd da 6e be 65 f9 37 be d6 dd a2 3e 1a 76 5f 3e
       -0.2332563 -0.1796623 0.31809872 0.21822396
000070 5a 5d 89 3e c0 d1 b0 3d 99 b9 71 3e 6e a0 32 3d
       0.26829034 0.08633757 0.23605956 0.04361003
000080 88 6d 81 3e 4d e0 c0 3c 74 cd 46 3e 53 b3 ee 3e
       0.25278878 0.023544455 0.19414312 0.4662119
000090 90 2b 03 bc 8d 11 7a 3e 4f ab 0e 3f 70 43 a5 3e
       -0.008005992 0.24420758 0.55730146 0.32278013
0000a0 ee ee 07 3d b4 de bc bd dc 2e 00 3e de 4a 9d be
       0.033186845 -0.09222165 0.12517875 -0.30721182
0000b0 5d 7d 09 3c d8 a4 45 be 62 75 cc be a7 f6 8d be
       0.008391705 -0.19301164 -0.39933306 -0.27727243
0000c0 fb 75 8b be a3 c4 2c bd 5a 5e 71 3d 0d 1f d7 be
       -0.2723845 -0.042179715 0.05892787 -0.42015877
0000d0 ad 23 f3 be cb 76 01 3e dc 03 b9 bd 0c d4 6c bd
       -0.47488156 0.12642972 -0.09033939 -0.05781941
0000e0 c5 0a 8d 3e 0a 51 32 3d e8 04 66 3c 48 88 f4 3d
       0.2754728 0.043534316 0.014039256 0.11940056
0000f0 6c 0d 1a 3e c6 29 d0 3e a1 33 c1 3e 29 0a 05 3f
       0.15044183 0.4065687 0.37734702 0.5196863
000100 5e 33 0c 3f db 4c c8 bd a5 df 7a 3e 28 9e 94 3e
       0.5476588 -0.09780284 0.24499376 0.29026914
000110 25 14 a0 3e 8d c6 ad 3e 64 a6 be be f4 2b eb bd
       0.3126537 0.33940545 -0.3723632 -0.11482993
000120 33 79 4a be 53 1b e1 bc 65 d8 68 3e 96 b1 e3 be
       -0.19772796 -0.02747885 0.22738798 -0.44471425
000130 fe f9 4d 3e 02 79 9a 3e 8f c4 28 3e a7 1d 81 3e
       0.20114896 0.30170447 0.16481231 0.25217935
000140 aa a9 fd 3d 9a 8c 6a 3e fe ed dc 3e 43 aa b1 3e
       0.123858765 0.22905198 0.43150324 0.34700212
000150 48 21 97 be ff 7d cd 3d e9 e0 2e 3e 29 db 4b 3d
       -0.2951758 0.100337975 0.17077984 0.049769554
000160 33 0b 03 be dc ae 72 be b7 96 a3 3e 8d d1 8b 3e
       -0.12797241 -0.23699516 0.31950924 0.27308312
000170 e0 3d df 3e 8f fb 7a 3d f7 9b f6 3e d3 7b f7 bd
       0.43601894 0.06127506 0.48165867 -0.120841645
000180 51 9d 65 be 47 99 77 bd 7c 0e cf 3d 70 58 fe 3d
       -0.22423293 -0.06044891 0.101101846 0.12419212
000190 6e 35 28 3e 6d 20 92 bd e8 bb 80 be 74 a2 83 be
       0.16426632 -0.07135091 -0.2514336 -0.2570988
0001a0 d0 a8 59 3e 9e 6b eb be 1e 91 97 3d 74 da aa be
       0.21255803 -0.45980543 0.07400726 -0.33369792
0001b0 fc 05 e8 be e4 44 19 3e 41 3f e0 be 96 43 04 be
       -0.45317066 0.14967686 -0.4379826 -0.12916407
0001c0 83 77 83 be c4 f6 c7 be de d4 ca 3d e9 5f ce be
       -0.25677118 -0.39055455 0.099038824 -0.4030755
0001d0 fe 1f a6 be a7 fd 90 3d 35 02 72 be c4 89 d6 3d
       -0.32446283 0.0707963 -0.23633654 0.104754955
0001e0 71 93 c9 be c9 1d e8 bc f6 81 8e be 66 d5 8c be
       -0.393703 -0.028334515 -0.27833527 -0.2750656
0001f0 44 7b 07 bf 96 b3 de be 1b b4 d2 3d 7c 5e 50 3d
       -0.52922463 -0.43496388 0.10288259 0.050871357
000200 2c 07 a4 be 98 aa ad 3d 18 5e 10 3d 3c 2e 81 3d
       -0.32036722 0.08479804 0.035245985 0.06307647
000210 06 92 49 be ee 1c 9e 3c 63 c9 7a 3e 91 6f bb 3e
       -0.1968461 0.019300904 0.24490885 0.36608556
000220 7c e3 e5 bc 72 6f 27 3d 56 40 ea 3d 9a ec ea bd
       -0.028062575 0.040877767 0.11438052 -0.114709094
000230 96 87 89 3d df 40 28 be e7 3f 55 be bd 16 b9 bd
       0.06715314 -0.16430996 -0.20825158 -0.0903754
000240 17 e2 d8 be 69 cc 97 be 5a 46 39 bd cd 36 5b 3d
       -0.42359993 -0.2964814 -0.045233108 0.05351906
000250 f2 d4 ff 3e 73 df 53 3e b9 0b 77 3e a2 53 a8 3c
       0.49967152 0.20690708 0.24125566 0.020547692
000260 63 90 fe bd 53 89 60 3e 18 84 a4 3d 85 3d 86 be
       -0.12429883 0.21927385 0.080330074 -0.2621881
000270 e6 cf bf bb ff d5 e1 be d2 71 47 be 4b 4b cc 3d
       -0.005853641 -0.4410858 -0.19477013 0.099752985
000280 b6 21 94 3d 44 64 ef 3e 2e f2 73 3e 4b f7 0d be
       0.07232992 0.46756184 0.23822853 -0.13863866
000290 22 b2 23 bd f7 3f 3c bd 0f 3f e1 3d 03 0e f3 3c
       -0.039964803 -0.04595944 0.109983556 0.029669767
0002a0 5f e7 3e 3e 97 12 e3 3e 63 f7 63 3e 38 25 4c be
       0.18642949 0.4435012 0.2226234 -0.19936073
0002b0 03 fc ca 3e 8f 7a eb 3d 48 36 2d 3e f0 78 79 bd
       0.39645395 0.114979856 0.16915238 -0.06090635
0002c0 58 43 fd bc d9 c6 62 3e 15 be ff 3e 7e b3 bc 3e
       -0.030915901 0.22146167 0.4994971 0.36855692
0002d0 a0 40 a3 bc 29 53 ec 3e 54 4a b9 be 24 bf 57 3e
       -0.019928277 0.46157196 -0.3618952 0.21069008
0002e0 2b 7b b9 3d 59 87 9c 3c c5 b7 b5 be 96 33 75 be
       0.090566956 0.019107508 -0.35491768 -0.2394546
0002f0 ca e5 a1 be 01 73 54 3e e3 96 97 3e 7b 13 50 bd
       -0.31620628 0.20746996 0.29607305 -0.050799828
000300 69 6a 18 be 3f 4b 90 3d 12 51 34 be f3 55 98 be
       -0.14884342 0.07045602 -0.17609051 -0.29753074
000310 68 e0 c8 3d 94 85 86 3e 88 11 86 3e 69 90 9c 3d
       0.09808427 0.26273787 0.2618525 0.076447316
000320 10 03 84 3e 25 9b 44 3e 4d 5e cc bd 3c 90 6f bd
       0.25783587 0.19199808 -0.09978924 -0.058487162
000330 56 ed 56 bd b6 03 2d 3e da dc 10 be 99 44 44 bc
       -0.052472435 0.16895947 -0.14146748 -0.011979246
000340 35 3b 9c 3e 4c e2 8e 3e a6 b5 b6 be 4a e8 9b bd
       0.3051392 0.27907026 -0.35685462 -0.07612665
000350 f5 cc a4 be ed b1 40 3e cc d2 f1 be 97 8d 0c be
       -0.3218762 0.18817873 -0.47231138 -0.13725887
000360 8e 69 9a bd 14 7d 0e ba 58 f6 d1 be 86 9c ec 3d
       -0.07539664 -0.0005435508 -0.41008258 0.11553292
000370 a6 ed cf 3d 04 5c b1 be 9c 05 85 be 74 ee fd be
       0.1015275 -0.34640515 -0.25980842 -0.49595988

rnn.weight_hh_l0 f4 [32, 8]
000000 cc 3f 2f be ac 62 c1 bc 6e d2 17 3e f7 a0 f0 3e
       -0.1711418 -0.02360662 0.14826366 0.46997806
000010 5e ea 09 3e ce 1f 0d be 22 a3 8c 3e 58 da fd be
       0.1346831 -0.13781664 0.2746821 -0.49580646
000020 6e 5e 01 bf 62 0b 04 bf f6 c1 f6 3d 8a 7f 9d 3b
       -0.50534713 -0.5157987 0.12048714 0.0048064636
000030 28 d4 96 be a4 83 ed 3e 31 6c 98 3e dc 58 fa 3d
       -0.29458737 0.46389496 0.29770043 0.1222398
000040 02 a4 a0 3e 50 e2 31 3d 01 4b db be 94 5f d1 3e
       0.31375128 0.04342872 -0.4283066 0.40893233
000050 66 6b 8a be 3d 68 ad be 88 61 4e be 77 fa aa bd
       -0.27035064 -0.3386859 -0.20154393 -0.08348554
000060 d8 29 f3 3d 11 10 5e 3e f8 64 a8 3d 30 ea 9e 3e
       0.118732154 0.21685816 0.08222383 0.31038046
000070 03 a7 bb be 84 59 8e 3e a1 0d 93 3e 5a b6 63 be
       -0.36650857 0.2780267 0.28721336 -0.2223753
000080 73 55 fd bd b5 6b ad 3d bb 75 24 3d 6e 00 27 3e
       -0.12369814 0.08467809 0.04015134 0.16308758
000090 8a 9d 2a 3e 0a 7c aa be e6 85 33 3e 48 e6 4e be
       0.16661659 -0.3329776 0.17531547 -0.20205033
0000a0 6f 01 95 be 25 0d f9 bd 3a 65 be 3e ae a4 19 be
       -0.29102656 -0.1216071 0.37186605 -0.15004227
0000b0 1f 43 b5 be 76 bf a7 3e 56 7e 88 3d ee dd f5 be
       -0.35402772 0.3276326 0.06664722 -0.4802088
0000c0 bc 5c 37 be d9 04 70 3e c6 49 2a 3e 7f 68 30 3e
       -0.17906469 0.23439349 0.16629705 0.17227362
0000d0 be ba 58 3e 0a 2c 9e bd 47 48 30 3e 78 d7 84 3d
       0.21164986 -0.077232435 0.17215072 0.0648641
0000e0 c1 97 25 3e 44 44 0a 3f 3e 48 8d bd 65 4d 50 be
       0.16171171 0.54010415 -0.06898545 -0.20342024
0000f0 d5 f6 a2 3d 12 9f 52 bd df bd 53 be e8 d0 65 bc
       0.07957236 -0.051421233 -0.20677899 -0.014026858
000100 20 a1 bb be 4a 49 fb be b0 cc c4 3e 43 71 89 bd
       -0.36646366 -0.49079353 0.38437414 -0.06711056
000110 ec ff 8b bc eb 6d f2 3e 50 7c 78 bd 46 ef 04 bf
       -0.017089806 0.47349486 -0.06066543 -0.519276
000120 11 7d e5 be 0a 43 dc 3d 3b 58 63 bc 85 44 96 3e
       -0.4482198 0.10754974 -0.013876016 0.2934915
000130 fa 03 d0 bd 7b 32 ab 3d 44 bd 55 3d e5 a9 6d be
       -0.101570085 0.08359238 0.05218245 -0.23209341
000140 a1 cb d9 bc 43 0e a8 3e cd 5b d3 3c 53 89 a4 3e
       -0.026586356 0.3282338 0.02580061 0.3213602
000150 c9 7e 27 3e 72 f5 9b 3e fe e5 8b be b1 82 82 3e
       0.16356958 0.30460697 -0.27323908 0.25490335
000160 79 c2 b6 be 0c c3 ba ba d0 ad 92 3e eb d9 94 3d
       -0.35695246 -0.0014248802 0.28648233 0.07268127
000170 8a 6a 22 be 3a 36 bd bd 2b b3 30 be bc 5e 6d 3d
       -0.15860954 -0.092388585 -0.17255847 0.057951674
000180 09 4a e7 bd c4 a3 64 3e ee 2a 40 3d 83 f0 66 3e
       -0.11293418 0.22328097 0.04691594 0.22552685
000190 15 98 b6 3e 44 1f 44 bd bc 84 c2 3e 29 ae e1 be
       0.35662904 -0.04788138 0.37991893 -0.44078186
0001a0 20 75 a7 be 23 04 42 be c5 9f ca 3c 75 9f 97 be
       -0.32706547 -0.1894689 0.024734387 -0.29613844
0001b0 68 d2 3f 3e c8 16 9e 3e c5 02 33 be 03 f3 c0 be
       0.18732607 0.30876756 -0.17481525 -0.37685403
0001c0 13 3a 42 be 5e f9 c7 3e 95 6e 69 be c2 43 48 be
       -0.18967466 0.3905744 -0.2279609 -0.19557098
0001d0 22 eb af 3e 4a 0a 84 be 68 58 3a be 03 e1 9a 3e
       0.3435908 -0.257891 -0.18197787 0.30249795
0001e0 2a db 7b bc 64 69 7a 3e b2 4e d6 3d c4 0f c8 bd
       -0.015372077 0.24454266 0.10464229 -0.09768632
0001f0 8e b7 c7 3e c6 4f 49 bc fa 3c ac bd 25 cc 5a be
       0.3900723 -0.012287086 -0.08410068 -0.21366937
000200 b5 02 89 3e 30 e7 05 3f 76 ba 8a be 03 5f 00 bf
       0.26759878 0.5230589 -0.27095383 -0.50144976
000210 61 b2 5f bd b9 11 df bd ab bc da 3d a2 bc 09 3e
       -0.054613475 -0.10892052 0.10680517 0.13450864
000220 d9 28 75 3e 68 83 46 3c 8d ec 08 3e 76 e8 db be
       0.23941363 0.012116291 0.13371487 -0.4295079
000230 4b a8 cd 3e 06 7a 07 bd 3c 16 93 3d 1f 06 3b 3e
       0.4016746 -0.033075355 0.07181975 0.18264054
000240 a2 a0 a6 3e 00 b5 0b 39 07 32 07 be 75 d7 df be
       0.32544428 0.00013323501 -0.13202678 -0.43719068
000250 3d d0 05 3e 87 1c 83 be 47 36 07 be a8 b1 cb 3e
       0.13067718 -0.25607702 -0.13204299 0.39783978
000260 f8 13 04 bf 06 81 ee be b8 79 5e bb 70 85 82 3e
       -0.5159297 -0.46582812 -0.0033947062 0.2549243
000270 d6 28 63 be 5f 56 b7 3d 72 a9 72 bd 3e 69 00 3a
       -0.22183546 0.08952021 -0.059243627 0.0004898495
000280 ef 82 a6 3e 70 6e a3 bd 9b 13 f3 bb c2 dc 69 3e
       0.3252177 -0.07980049 -0.0074181086 0.22838119
000290 0b 2b 2a 3e e7 9d 61 be 58 0a ed be 12 2a d2 3e
       0.16617982 -0.22032891 -0.46296954 0.41047722
0002a0 98 90 dd be dc 65 e5 3d 6a c6 6d 3e 23 73 37 be
       -0.4327438 0.11201069 0.2322022 -0.17915015
0002b0 53 93 1a be 3c 1d 59 3d a1 77 aa 3e 68 4c 32 3e
       -0.15095262 0.053006396 0.33294395 0.17411959
0002c0 9b d7 9b bd 96 0c 1a be cc 44 4f 3e 27 32 a7 be
       -0.07609483 -0.15043864 0.20241088 -0.3265545
0002d0 5c 97 89 bc da 4d e9 bd 14 72 05 be 90 9f a4 3e
       -0.016795807 -0.11391802 -0.13031799 0.32152987
0002e0 fb 48 ba bc c4 94 01 3e e5 2d 29 be 6b 80 e6 3e
       -0.022739878 0.12654406 -0.16521414 0.4501985
0002f0 4e bc 74 be e0 c9 c8 3e ff e3 ed bd 3b 1e 8d be
       -0.23899958 0.39216518 -0.116157524 -0.27562127
000300 20 bd 2d 3e ce e8 37 be 7d d4 08 3f 38 b0 a6 3e
       0.16966677 -0.17959902 0.5344923 0.3255632
000310 13 1d bc 3e 88 6f f9 3d e3 7c 08 3e 09 ab a9 3d
       0.36740932 0.12179476 0.1332889 0.082845755
000320 af 5a b3 be 25 e3 75 be 1b 50 3f 3e 12 32 99 3e
       -0.35030124 -0.2401243 0.18682902 0.29921013
000330 b7 92 12 3d b5 4e 5e be e0 09 2a 3e bb 17 d8 be
       0.03578445 -0.21709712 0.1660533 -0.42205605
000340 00 cb a4 be 71 02 be 3b 50 23 c1 3d b3 44 fd 3e
       -0.32186127 0.005798631 0.094305634 0.49466476
000350 bb b4 66 be d8 46 e7 3c 69 d9 17 bd 39 1f 54 3e
       -0.2252988 0.028232023 -0.037072573 0.20715035
000360 35 45 b2 3c 9c 90 fd bc d6 e4 70 bd d0 5f 9f 3e
       0.021761516 -0.030952744 -0.058811985 0.31127787
000370 f6 b7 9a 3e e5 a6 b2 be 4e 42 a7 be e0 df 6a 3e
       0.30218476 -0.34892955 -0.32667774 0.22936964
000380 23 c6 f4 bc 48 fd 88 be 65 1a 9b 3e bd 31 23 3e
       -0.029879635 -0.26755738 0.30293575 0.15936942
000390 b2 ed 90 3e 37 19 0e be 0c 22 0c be 38 76 54 bd
       0.28306347 -0.13876806 -0.13684863 -0.051870555
0003a0 a0 1a 66 be 3e c3 93 3e de a6 e1 3e b4 94 27 be
       -0.22471094 0.28859895 0.44072622 -0.1636532
0003b0 f4 95 5b be 24 02 69 be 27 3d 1e 3e 6e f2 dc be
       -0.21443921 -0.22754723 0.15453015 -0.4315371
0003c0 45 1a 38 3e 5c a5 a1 3e 93 26 49 be db 17 0f be
       0.17978771 0.31571472 -0.19643621 -0.13973944
0003d0 80 bc 5e 3e 88 e0 87 bd f4 88 0f be af df a7 bd
       0.21751595 -0.06634623 -0.14017087 -0.08196961
0003e0 f2 6c 1b 3e 06 7e b3 3e cf a5 27 bc 92 e0 c0 be
       0.15178278 0.35057086 -0.010232403 -0.37671334
0003f0 c5 b1 07 bd 26 27 7f be 1c 48 d8 bd 0d 46 7d 3d
       -0.03312852 -0.24917278 -0.10560629 0.061834384

rnn.bias_ih_l0 f4 [32]
000000 3f 41 ba 3c f0 e2 c0 3e 85 a5 bf bd d8 56 e4 3d
       0.02273619 0.3767314 -0.09357742 0.11149377
000010 78 bd df 3d 50 67 d7 3d 16 5b 8e be 23 18 86 be
       0.1092481 0.10517752 -0.27803868 -0.2619029
000020 f7 21 8c 3e 29 4e 92 3e d8 c7 45 bd 5e 2c 09 3e
       0.27369663 0.28575256 -0.04828629 0.13395831
000030 6d 47 29 3e 6c ca 72 3e 3b 5c 43 3e 19 06 27 3e
       0.16531153 0.2371003 0.19078152 0.1631092
000040 55 21 e5 be 13 f6 35 be 0e 4f c7 3c 62 2f c7 3d
       -0.44751993 -0.17769651 0.024329688 0.097258344
000050 7b 19 a2 be ba 91 e9 3e 64 9a 05 3e bc 31 77 3e
       -0.31660065 0.45618993 0.13047177 0.24140066
000060 1a 49 12 be 47 bd f4 3e 20 d6 e6 3d b2 fe 01 be
       -0.14285699 0.47800657 0.1127131 -0.12694815
000070 74 79 d5 bd 53 89 27 3d 2c 9f ab be 24 7a 95 bd
       -0.10423556 0.040902447 -0.33519876 -0.07298687

rnn.bias_hh_l0 f4 [32]
000000 6c 8d d2 3d 0c 85 1a 3e 4b 28 b6 be 97 13 32 3d
       0.1028088 0.15089816 -0.35577616 0.043475714
000010 02 58 00 3e 22 f4 d0 3e 09 df bd be cd 35 cc be
       0.12533572 0.4081126 -0.37084225 -0.39884797
000020 a4 f5 90 3d 69 55 f0 3d bf 62 c1 be 11 c3 4c 3e
       0.07078102 0.11735041 -0.3777065 0.19996287
000030 e8 ed 1d be 07 ad d9 3d fd 17 ab be a1 82 b9 be
       -0.15422785 0.106287055 -0.3341674 -0.36232474
000040 15 88 90 bd 5b 4d d4 be 04 75 b7 be e5 cf d4 3e
       -0.070572056 -0.41465268 -0.35831463 0.4156486
000050 59 72 99 be 12 30 c1 3e 22 8f be be 7c 45 0a 3e
       -0.29970053 0.37731987 -0.37218577 0.13503069
000060 92 94 8b 3e 5d ce dd 3e dc 4f 2d bd b1 b9 fc bd
       0.27261788 0.43321505 -0.042312488 -0.12340105
000070 26 cb f9 3d 16 ac 24 3e 13 67 b4 bb b3 dc 89 be
       0.121969506 0.1608127 -0.0055054515 -0.26926193

out.weight f4 [1, 8]
000000 68 b8 96 bd 25 db 95 be 07 b5 f7 3d 7d 5e 08 3e
       -0.073593915 -0.29268757 0.12095075 0.13317294
000010 9f 3c 7d bd 7d 18 8b 3e b0 6c 03 3e b2 d6 7b 3d
       -0.06182539 0.2716712 0.1283443 0.061484046
